agent1_actor_net.pth (torch, 160607 bytes, 6 tensors)

fc1.weight f4 [256, 24]
0	0x3db63e43	0.08898594
1	0x3d2a9003	0.041641247
2	0x3d842656	0.064526245
3	0x3c4fd5da	0.0126852635
4	0xbc8c230a	-0.017106552
5	0x3dcfac21	0.10140253
6	0x3c91e56a	0.017809588
7	0x3cb34576	0.021883707
8	0x3d1df16b	0.038560312
9	0xbd59299c	-0.053018197
10	0x3d36fe0c	0.04467587
11	0xbc91f4be	-0.017816897
12	0xbdb057af	-0.08610474
13	0xbcaa5ccf	-0.020796208
14	0x3d35af59	0.044356678
15	0xbc167ee3	-0.009185526
16	0xbd324aba	-0.043528296
17	0xbc93a384	-0.018022306
18	0x3d68dc89	0.056850944
19	0xbc9f6f32	-0.019462202
20	0xbe2363b5	-0.15956004
21	0x3dfa12f9	0.1221065
22	0x3cd78494	0.026308335
23	0x3d067aaa	0.032831825
24	0xbda6a961	-0.08137775
25	0x3e0c01fe	0.13672635
26	0xbc979346	-0.018502843
27	0x3b4eda8a	0.0031563365
28	0xbd7951d2	-0.060869046
29	0x3d4254bd	0.047444094
30	0x3ce3c781	0.027805092
31	0x3cff29b5	0.031147817
32	0x3c51c236	0.012802651
33	0x3d49e9a0	0.049295068
34	0x3c531d06	0.012885338
35	0xbd0c23e0	-0.0342139
36	0xbd052f34	-0.03251572
37	0xbd4fa07b	-0.050690155
38	0xbcf921a8	-0.030411556
39	0x3ce1a1e9	0.027543025
40	0xbdb9fc21	-0.09081293
41	0x3da7c88b	0.081925474
42	0x3d2f82dc	0.042849407
43	0x3d03007b	0.03198288
44	0x3c4cf005	0.012508397
45	0xbe60dbca	-0.21958843
46	0x3bcd7f99	0.0062713143
47	0xbcf7d575	-0.030253151
48	0xbd922305	-0.07135586
49	0x3c643e49	0.013930866
50	0xbb34b3fe	-0.0027573104
51	0x3d9ab710	0.07554448
52	0x3d8876f4	0.066633135
53	0x3dbf5118	0.09341639
54	0x3d0b078f	0.033942755
55	0x3d890087	0.06689554
56	0x3cbad8c3	0.022808438
57	0xbcfe40c6	-0.031036746
58	0xbb914016	-0.0044326885
59	0x3d130e45	0.03590228
60	0xbcfa6639	-0.030566322
61	0xbdd68fe1	-0.104766615
62	0xbc3edf55	-0.011649926
63	0xbccc5b5e	-0.024945911
64	0xbde8224d	-0.11334667
65	0xbd1f53ca	-0.038898267
66	0x3ce0f7b9	0.027461873
67	0x3ca27f57	0.019836111
68	0xbe2e6b97	-0.1703323
69	0xbd9da1db	-0.07696887
70	0xbd169b96	-0.036769472
71	0x3c8c42a4	0.01712162
72	0x3cbb3ffc	0.022857659
73	0xbbc63750	-0.006049074
74	0x3c8d8465	0.017275045
75	0xbc9d8a16	-0.019230884
76	0xbcfad0c4	-0.030617125
77	0x3db7e18a	0.08978565
78	0x3cd5f0fa	0.026115883
79	0xbd363e94	-0.044493273
80	0x3b8898ae	0.0041685915
81	0xbdebcb52	-0.1151339
82	0xbb51632b	-0.0031949978
83	0xbcf4c05c	-0.02987688
84	0xbd9ef0e4	-0.0776079
85	0x3d050570	0.03247589
86	0xbc4f8523	-0.01266602
87	0x3d118dba	0.03553555
88	0x3c57953d	0.01315814
89	0xbdfba0b8	-0.12286514
90	0xbbfe9b37	-0.007769968
91	0xbd981aca	-0.074269846
92	0xbe13ec8f	-0.14445709
93	0x3e36604d	0.17810173
94	0xbc72aae0	-0.014811248
95	0xbd2c568a	-0.042074718
96	0x3d3f142d	0.0466501
97	0xbdca9ede	-0.09893583
98	0xbd332064	-0.043732062
99	0x3c844543	0.016146308
100	0x3cf6ced5	0.030127922
101	0x3cad3c2e	0.02114686
102	0xbcbc8acf	-0.023015408
103	0x3c783d13	0.01515128
104	0x3d173f88	0.036925822
105	0xbe03e19c	-0.12879032
106	0x3d767fc1	0.06018043
107	0x3d406b61	0.046977405
108	0xbb50cfeb	-0.003186221
109	0x3daadd3c	0.08342978
110	0xbd21f715	-0.039542276
111	0x3c3d22e2	0.011543961
112	0xbd829d71	-0.06377686
113	0xbe1825f5	-0.1485823
114	0x3ca61fb9	0.020278798
115	0xbb9447cf	-0.004525162
116	0xbda1e065	-0.07904128
117	0x3e5e0561	0.2168174
118	0xba968cb9	-0.001148603
119	0xbda5960c	-0.0808526
120	0xbb09e281	-0.0021039548
121	0xbd9f2a10	-0.07771695
122	0xbd189250	-0.03724891
123	0xbdb59e01	-0.088680275
124	0xbd915111	-0.0709554
125	0x3dfd9ae3	0.12383058
126	0xbce676f4	-0.028132893
127	0xbd833d1d	-0.06408141
128	0x3cc35b9d	0.023847396
129	0xbda634be	-0.081155285
130	0xbd206be8	-0.039165407
131	0x3c682305	0.014168506
132	0xbda0f922	-0.07860018
133	0xbbb393f0	-0.005480282
134	0x3b894754	0.004189411
135	0xbd1a4080	-0.03765917
136	0xbd9cdf78	-0.07659811
137	0xbc854035	-0.016265968
138	0x3c9ec02d	0.019378746
139	0x3d3b8352	0.045779534
140	0xbe113086	-0.14178666
141	0x3d1179ec	0.035516664
142	0x3d2b06cb	0.041754525
143	0x3c6c5fd3	0.014427143
144	0xbce8c271	-0.02841303
145	0xbbca3984	-0.006171407
146	0xbbbaf082	-0.0057049403
147	0x3bfe2a27	0.00775649
148	0xbc98bff9	-0.018646227
149	0x3d84119e	0.06448673
150	0x3ca8c085	0.020599613
151	0xbceba63a	-0.028765786
152	0xbcd704fb	-0.026247492
153	0xbd1db07c	-0.038498387
154	0x3d444171	0.047913972
155	0xbdcc9b8a	-0.09990604
156	0xbd20d17a	-0.039262272
157	0xbcbcb4c0	-0.023035407
158	0xbca61c66	-0.020277213
159	0xbc82cb53	-0.015966093
160	0xbcfdd966	-0.030987453
161	0xbddfe91e	-0.109331354
162	0xbd680b04	-0.05665113
163	0xbd1451e0	-0.036210895
164	0xbe35a91a	-0.17740288
165	0x3dde07dc	0.10841343
166	0x3c457f53	0.012054282
167	0xbd2c9f48	-0.04214409
168	0xbd0387cb	-0.032111924
169	0x3dbc9a92	0.092091694
170	0x3d39d67b	0.04537056
171	0xbb91661b	-0.0044372207
172	0xbdb6d765	-0.08927802
173	0x3d7936c0	0.06084323
174	0x3d682b6d	0.05668204
175	0x3b9c516c	0.0047704484
176	0xbd9c3f79	-0.07629294
177	0xbc185f95	-0.009300132
178	0xbcbff5e2	-0.023432676
179	0xbcaa6577	-0.020800335
180	0x3cc61ac6	0.024182688
181	0x3d4c9f3f	0.049956556
182	0xbcbe7864	-0.023250766
183	0xbd28d301	-0.041216854
184	0xbd9f1c59	-0.07769079
185	0x3d90e25c	0.070744246
186	0xbd242e61	-0.040083293
187	0xbd4aa444	-0.049473062
188	0x3cb3623a	0.021897424
189	0xbe3f7a50	-0.18699002
190	0x3ceb7e41	0.028746726
191	0xbd2ab175	-0.041673142
192	0xbdb4952c	-0.08817515
193	0xbe29fb7e	-0.16599843
194	0x3c56aa54	0.013102133
195	0xbd453a3b	-0.048151236
196	0xbc939ebc	-0.018020026
197	0x3bacd615	0.005274544
198	0xbd586231	-0.052828018
199	0xbcc2c80d	-0.023777032
200	0xbc913477	-0.017725212
201	0xbda8b8ad	-0.08238349
202	0x3a0e8138	0.0005436125
203	0x3cccaad7	0.024983807
204	0x3d945626	0.07242994
205	0x3d7dc0e3	0.06195153
206	0xbba39931	-0.004992627
207	0x3d691a2b	0.05690972
208	0xbdefe7eb	-0.11714157
209	0xbe0e7c51	-0.1391461
210	0xbc7a48bd	-0.015276131
211	0x3ce7a060	0.028274715
212	0x3e0ee8d3	0.13956003
213	0x3e5dc68b	0.2165777
214	0xbcb4575f	-0.022014318
215	0x3c57324a	0.013134548
216	0x3db4a320	0.08820176
217	0x3db390c1	0.08767844
218	0xbd378a65	-0.044809718
219	0xbda4bffc	-0.080444306
220	0x3dddf558	0.10837811
221	0x3d317443	0.043323766
222	0xbcf00eb6	-0.02930389
223	0x3cad69d9	0.021168636
224	0x3dc38b26	0.09548025
225	0x3d2a2d1b	0.041546922
226	0xbdb6a61b	-0.08918401
227	0xbdc530cf	-0.0962845
228	0x3d9cd9a6	0.07658701
229	0x3cef3211	0.029198678
230	0xbdb6f089	-0.08932597
231	0xbbb4e3f9	-0.0055203405
232	0x3cedce2a	0.02902897
233	0x3dfb9cbe	0.122857556
234	0xbd0981b2	-0.033570953
235	0xbcbde4ef	-0.023180453
236	0xbc88a961	-0.016682329
237	0x3e0b280d	0.13589497
238	0xbc4a66c4	-0.012353603
239	0xbdc99166	-0.09842186
240	0xbc406721	-0.011743338
241	0xbd2f41d3	-0.042787384
242	0x3d21944a	0.03944806
243	0xbd656f70	-0.05601448
244	0xbd6fa880	-0.058510303
245	0xbcb11866	-0.02161808
246	0x3c19286c	0.009348016
247	0xbd2c23ee	-0.042026453
248	0xbd34e5ca	-0.044164456
249	0xbcaea79b	-0.021320155
250	0xbd9ed085	-0.07754616
251	0x3d03a3e6	0.032138728
252	0x3c67e9ab	0.014154832
253	0xbd9c17d9	-0.07621736
254	0x3cfe2aae	0.03102621
255	0xbbc9b55f	-0.0061556543

fc1.bias f4 [256]
0	0xbb5d4bdc	-0.003376714
1	0x3e42fa49	0.19040789
2	0x3dafcb15	0.08583657
3	0xbe346984	-0.17618376
4	0xbd08d702	-0.033408172
5	0xbdb258d6	-0.0870835
6	0xbe486c47	-0.19572555
7	0x3e3c3db0	0.18382907
8	0xbdf75b78	-0.12077993
9	0xbb915ee7	-0.004436362
10	0x3da0fc4e	0.07860623
11	0x3e3492da	0.17634144
12	0x3e338321	0.1753049
13	0x3d9a4758	0.07533139
14	0x3e0a3ce7	0.13499795
15	0x3e03a56f	0.12856077
16	0x3e14c342	0.1452761
17	0xbd46ddfd	-0.04855155
18	0xbdc5c2f7	-0.09656327
19	0x3d987ce4	0.07445696
20	0x3ddbce15	0.107326664
21	0xbd289a82	-0.041162975
22	0xbbe661dc	-0.0070307087
23	0x3d1f58d2	0.038903065
24	0x3cde3b7f	0.02712798
25	0x3da44214	0.08020416
26	0xbcbe8392	-0.023256097
27	0x3d8389c6	0.064227626
28	0xbc3023f4	-0.010750759
29	0x3e659224	0.2241903
30	0x3e0a4772	0.13503817
31	0xbe09465f	-0.1340575
32	0x3e030c18	0.12797582
33	0x3c59f396	0.013302704
34	0xbe3a385d	-0.18185563
35	0x3d554085	0.052063484
36	0x3d4d8173	0.05017228
37	0xbe134196	-0.14380488
38	0xbdc48764	-0.09596136
39	0x3cbd231b	0.023088029
40	0x3dbb1f84	0.091368705
41	0x3e291a54	0.1651395
42	0xbdf38ddc	-0.11892292
43	0x3d782e6a	0.06059114
44	0xbe6f3382	-0.23359492
45	0xbceff4cf	-0.029291539
46	0x3da5b587	0.08091264
47	0x3e193ee4	0.14965397
48	0x3d7a76f0	0.061148584
49	0xbe22ef8d	-0.15911694
50	0xbc03c20f	-0.008041873
51	0x3da6ac4a	0.0813833
52	0x3da366fa	0.079786256
53	0x390d95f2	0.00013502667
54	0x3e0efe37	0.13964163
55	0xbe294a66	-0.16532287
56	0x3e4570bd	0.19281287
57	0xbd58f40c	-0.052967116
58	0xbda109f5	-0.07863227
59	0x3d54cd43	0.051953565
60	0xbdc945d9	-0.098277755
61	0xbe13a83c	-0.14419645
62	0x3e03c3b8	0.1286763
63	0xbe1aff61	-0.15136482
64	0x3c255ec7	0.010093397
65	0xbc880ccc	-0.016607665
66	0x3e036a90	0.12833619
67	0x3e2347b5	0.15945323
68	0x3d5f4195	0.054505903
69	0xbd8eb06b	-0.06967243
70	0x3e35e0ff	0.1776161
71	0xbd7cccad	-0.06171863
72	0x3e30baa5	0.17258699
73	0x3ca0739f	0.019586382
74	0x3e820074	0.2539097
75	0xbe20cba1	-0.15702678
76	0xbe660fdf	-0.22466992
77	0xbe133e5e	-0.1437926
78	0xbe2cbcf0	-0.16868949
79	0x3e013ee0	0.12621641
80	0xbca40017	-0.020019574
81	0xbdb23f9e	-0.0870354
82	0x3e28350f	0.1642649
83	0xbe24465b	-0.16042463
84	0xbd52fa31	-0.051508132
85	0xbdcd1298	-0.10013312
86	0x3e389991	0.18027331
87	0xbdeece6a	-0.11660464
88	0xbe389ae7	-0.1802784
89	0x3e5019da	0.20322362
90	0x3e270e6b	0.16314094
91	0xbcddb2ab	-0.027062735
92	0xbd62ff34	-0.055419162
93	0x3df49615	0.119426884
94	0x3e09c6a7	0.13454686
95	0x3d80e799	0.06294174
96	0xbce6cf31	-0.028174968
97	0x3c934d85	0.0179813
98	0x3e38cf3f	0.18047808
99	0xbd960188	-0.07324511
100	0x3e13d9d9	0.14438571
101	0xbd90c55d	-0.07068894
102	0x3e2af774	0.16695958
103	0xbd4b5cbc	-0.049648985
104	0xbe06e953	-0.13174944
105	0xbd880c01	-0.066429146
106	0xbe2ff4a5	-0.17183168
107	0xbd6c749e	-0.057728402
108	0x3b4cd2c0	0.0031253546
109	0xbd42f162	-0.04759348
110	0x3e260dcb	0.16216199
111	0x3d7faf30	0.06242293
112	0xbd6e157b	-0.058125954
113	0x3d9bbbf1	0.07604206
114	0x3da3441a	0.07971974
115	0xbde9a306	-0.114080474
116	0x3c45c3fc	0.012070652
117	0x3d857e64	0.06518248
118	0x3e5507b6	0.20803723
119	0x3d94991b	0.07255765
120	0xbdf13120	-0.11776948
121	0xbb919aee	-0.004443518
122	0x3dc576d8	0.09641808
123	0x3dfdb662	0.123883024
124	0x3d90c30d	0.07068453
125	0xbe168efe	-0.14702985
126	0x3d5dc8e0	0.054146647
127	0xbd9b941d	-0.0759661
128	0xbe3ae8a2	-0.18252805
129	0x3e306d96	0.17229304
130	0x3b3d36c8	0.0028871763
131	0x3e4dd215	0.20099671
132	0xbda11a22	-0.078663126
133	0x3e3b3a33	0.1828392
134	0xbc91f2e2	-0.01781601
135	0xbcda43b1	-0.026643606
136	0x3e5b3471	0.21406724
137	0x3b9f3ba6	0.0048594056
138	0xbe482198	-0.19544065
139	0x3d63dce3	0.055630576
140	0xbdeeeb73	-0.11666002
141	0x3e0b39d2	0.13596275
142	0xbe1a988d	-0.15097256
143	0xbdae09b5	-0.08497945
144	0xbda2cee9	-0.07949621
145	0x3e2b1de9	0.16710629
146	0xbbd2a0fa	-0.0064278813
147	0xbc2136bd	-0.009839711
148	0xbd9eebb3	-0.077598
149	0x3e219460	0.15779257
150	0x3e16c786	0.1472455
151	0x3d5eecb2	0.05442495
152	0x3ddc4ef9	0.1075725
153	0xbde191b2	-0.11014117
154	0x3c738392	0.014862912
155	0xbcb3c65b	-0.02194517
156	0x3e1d7028	0.15374815
157	0x3e57ff06	0.21093377
158	0x3db736fa	0.08946033
159	0xbdb4e5d9	-0.088329025
160	0x3dfccfda	0.12344332
161	0x3bfd3de9	0.0077283275
162	0xbdc94ac0	-0.098287106
163	0xbd220a50	-0.039560616
164	0xbc1d5672	-0.00960313
165	0xbe48cde3	-0.1960979
166	0x3e46da02	0.19419101
167	0x3bee895f	0.0072795595
168	0x3e478568	0.19484484
169	0xbe4f77ef	-0.20260595
170	0xbb844e4e	-0.004037655
171	0xbd0933dc	-0.033496723
172	0x3cd62523	0.026140755
173	0x3e1a6e30	0.15081096
174	0x3e4ee050	0.20202756
175	0xbd249c05	-0.040187854
176	0x3e3583eb	0.17726104
177	0xbe3d7b0a	-0.18503967
178	0x3c32ee86	0.010921126
179	0x3d9eed10	0.0776006
180	0x3ca5ff47	0.020263327
181	0xbdf8528e	-0.12125121
182	0x3d42df56	0.04757627
183	0xbca280c1	-0.019836785
184	0xbd348d94	-0.044080332
185	0xbe1b797d	-0.15183063
186	0xbe06053d	-0.13087936
187	0xbe1c1869	-0.15243687
188	0xba8d6001	-0.0010786058
189	0xbe5f6f56	-0.21819815
190	0x3dab1a18	0.08354586
191	0x3db8d7cf	0.09025537
192	0xbe31a51c	-0.1734814
193	0xbb95ddf8	-0.00457358
194	0xbdade2a6	-0.084904954
195	0x3e21c68a	0.15798393
196	0xbe0fa590	-0.14028001
197	0x3db752c4	0.08951333
198	0xbe144e7a	-0.14483061
199	0xbe1353d4	-0.14387447
200	0xbd4c86b3	-0.049933147
201	0xbe3fc027	-0.18725644
202	0x3d9904f3	0.07471647
203	0xbd88ab20	-0.066732645
204	0xbe1f706e	-0.15570232
205	0x3e667e4c	0.22509116
206	0x3e255abc	0.16147894
207	0xbcf7b815	-0.030239144
208	0x3d9617e6	0.07328777
209	0xbe013b55	-0.1262029
210	0xbe62644e	-0.22108576
211	0x3c805ac3	0.015668279
212	0x3e2368bc	0.15957922
213	0xbe03df38	-0.1287812
214	0xbe181b35	-0.14854129
215	0xbc0252eb	-0.0079543395
216	0xbcef28aa	-0.029194195
217	0xbdf45f74	-0.11932269
218	0x3c9c1a11	0.019055398
219	0xbe1a7497	-0.15083538
220	0x3da25d1e	0.07927917
221	0xbd5c93af	-0.05385178
222	0xbd742ba8	-0.059611946
223	0x3e3d9a3e	0.1851587
224	0xbdc8b8e8	-0.09800893
225	0x3e427549	0.18990053
226	0xbe1ed501	-0.15510942
227	0x3e0fea98	0.14054334
228	0x3e1d85b9	0.15383042
229	0xbc8ff434	-0.0175725
230	0x3e15ff06	0.14648065
231	0x3e88658b	0.2663997
232	0xbd5b25ec	-0.053502962
233	0xbd966db6	-0.073451445
234	0x3e94b4b3	0.29044113
235	0x3ddf3bfe	0.109001145
236	0x3e52a3e9	0.2057034
237	0x3e20a9b8	0.15689743
238	0xbd4b71c5	-0.049669046
239	0x3e372cca	0.1788818
240	0xbe1ac5ca	-0.15114513
241	0x3d408b31	0.047007743
242	0x3d33e614	0.04392059
243	0xbe14bc50	-0.1452496
244	0xbd05b131	-0.032639686
245	0xbdfd81fe	-0.1237831
246	0xbd421ba2	-0.047389634
247	0xbdae3215	-0.08505646
248	0x3cc18f1b	0.023627808
249	0xbdb5d6ca	-0.088788584
250	0xbdf51306	-0.11966519
251	0xbd8e468d	-0.0694705
252	0xbe398919	-0.18118705
253	0x3db7db50	0.089773774
254	0x3e2e14de	0.17000148
255	0xbd06a001	-0.032867435

fc2.weight f4 [128, 256]
0	0x3d277c83	0.040890228
1	0xbd1b39a0	-0.037896752
2	0xbc3e78f3	-0.011625516
3	0x3e04c107	0.12964259
4	0x3c9c41ba	0.01907431
5	0x3be9bd0b	0.0071331314
6	0x3db8318b	0.089938246
7	0xbc992452	-0.018694077
8	0xbccf7ac6	-0.025327098
9	0x3e1228c0	0.14273357
10	0x3c4f1459	0.012639129
11	0xbc34b65d	-0.011029807
12	0xbca4cab6	-0.020116191
13	0x3c7db93e	0.01548606
14	0xbda36873	-0.079789065
15	0xbd6d3f0b	-0.05792145
16	0x3d07e8e1	0.033181075
17	0xbded2dea	-0.11581023
18	0xbd7be3cc	-0.06149654
19	0x3cc6f4d2	0.024286661
20	0x3b22525a	0.0024768324
21	0xbcacd817	-0.021099133
22	0x3d5ec324	0.05438532
23	0xbc8dd2e7	-0.01731248
24	0xbd683027	-0.056686547
25	0xbd1de57b	-0.038548928
26	0x3d109e63	0.0353073
27	0x3d24e203	0.040254604
28	0x3c839b42	0.016065244
29	0xbdd5717b	-0.10422035
30	0x3dc4a1cb	0.09601172
31	0x3c6a3632	0.014295148
32	0x3ca5b30b	0.020226976
33	0x3e0bffb8	0.13671768
34	0xbd81241b	-0.06305715
35	0xbd8f5b8d	-0.06999884
36	0xbdaa3c3a	-0.083122686
37	0x3d9b5846	0.07585196
38	0xbd893fa1	-0.067015894
39	0x3de935ba	0.11387201
40	0xbcf17f78	-0.029479727
41	0xbc55d985	-0.013052349
42	0xbc1b18cd	-0.009466362
43	0x3db6baa4	0.089223176
44	0x3d1d05a9	0.038335476
45	0xbe3f4df5	-0.18682082
46	0x3da7cb28	0.08193046
47	0xbcb99584	-0.022654302
48	0x3d3272d0	0.043566525
49	0x3beea00d	0.007282263
50	0xbdea92f5	-0.11453811
51	0x3dc470e2	0.09591843
52	0x3cfde8e7	0.030994846
53	0x3c5dd12f	0.013538643
54	0xbdb3ee4f	-0.08785688
55	0xbd9d934a	-0.07694109
56	0x3cc68582	0.024233583
57	0xbcea02e1	-0.028565826
58	0xbc822aef	-0.015889613
59	0xbcb711be	-0.022347327
60	0xbb8c2a13	-0.0042774766
61	0xbd6beff1	-0.057601873
62	0xbdd2f996	-0.10301511
63	0x3adc2a19	0.0016797214
64	0x3c9b112f	0.018929092
65	0x3c9daf41	0.019248607
66	0x3c1e0b69	0.009646275
67	0x3c8328b8	0.016010627
68	0x3df7dc5e	0.121025786
69	0xbe24b1a7	-0.16083394
70	0x3cbf3789	0.02334191
71	0xbd60bb9c	-0.05486642
72	0xbc83f61f	-0.01610857
73	0x3dac22fc	0.0840511
74	0x3cd1184b	0.02552428
75	0xbbfeb13f	-0.007772594
76	0x3d4efdd0	0.050535023
77	0xbd82366f	-0.06358039
78	0x3b227543	0.0024789132
79	0xbd30038d	-0.042972136
80	0xbd35b42b	-0.044361275
81	0x3e85f29b	0.26161656
82	0x3e22ad12	0.15886334
83	0x3dd3cd3d	0.103418805
84	0xbd997392	-0.074927464
85	0xbc3d3b70	-0.011549816
86	0xbcf31905	-0.029675016
87	0x3d81affc	0.063323945
88	0x3c96fa9b	0.018430045
89	0xbc09993f	-0.008398353
90	0x3d0c0bb6	0.034190856
91	0xbd541f05	-0.051787395
92	0x3b16465d	0.0022930123
93	0x3e0bb753	0.13644151
94	0x3db9fb85	0.09081177
95	0xbd80b2d5	-0.062841095
96	0x3d8cda89	0.0687762
97	0xbdb52951	-0.08845771
98	0x3dd0f672	0.10203256
99	0x3d870694	0.065930516
100	0x3d8d5595	0.06901089
101	0xbd261f2f	-0.040557083
102	0xbd3be075	-0.045868356
103	0xbde2e815	-0.110794224
104	0x3d85dba3	0.06536033
105	0x3ce56c4e	0.028005745
106	0x3dbde76e	0.09272657
107	0xbdcb9e91	-0.099423535
108	0xbd720a42	-0.059091814
109	0xbd4fe272	-0.050753064
110	0xbd212886	-0.039345287
111	0x3cb394dc	0.021921568
112	0xbd432ff9	-0.047653172
113	0x3bda33a0	0.006658986
114	0xbb4310e8	-0.0029764716
115	0xbe12af12	-0.14324597
116	0xbd48592d	-0.04891317
117	0xbd4fe4e6	-0.050755404
118	0xbd31badc	-0.043391094
119	0x3d7b5cbb	0.06136773
120	0xbda7a7c8	-0.081862986
121	0x3d34b0f2	0.04411406
122	0x3d52d90f	0.051476534
123	0xbde3c6f8	-0.11121935
124	0xbba4fe9e	-0.0050352355
125	0x3db278ae	0.08714424
126	0x3d95a21c	0.073063105
127	0x3e175e56	0.1478208
128	0xbc95d703	-0.018291002
129	0xbc9c2a96	-0.019063275
130	0x3bf41997	0.0074493396
131	0x3c1105fd	0.008851525
132	0xbb9b16b9	-0.0047329334
133	0xbd3416e6	-0.04396715
134	0x3d93f9d8	0.07225388
135	0xbdb03041	-0.08602954
136	0x3cc89f4c	0.024490021
137	0xbdea85e9	-0.114513226
138	0x3d591407	0.052997615
139	0x3da9497a	0.08265968
140	0xbd295a1d	-0.041345704
141	0x3c419709	0.011815795
142	0x3d162721	0.03665841
143	0x3c508c4b	0.012728761
144	0xbd2cafa0	-0.042159677
145	0xbe1689bc	-0.14700979
146	0x3dedf7c8	0.11619526
147	0x3d8eeb72	0.069785014
148	0x3d15ab2f	0.036540207
149	0xbdb20f11	-0.0869428
150	0x3d261f0a	0.040556945
151	0xbdd27fa8	-0.10278255
152	0xbe0759fb	-0.13217919
153	0x3ca77371	0.020440789
154	0x3cc6f2f7	0.024285777
155	0x3d19d229	0.03755394
156	0x3d0f9a4e	0.035059266
157	0xbc33d61f	-0.010976343
158	0xbd8b3111	-0.06796468
159	0xbe0ae2f0	-0.13563132
160	0x3dafd57c	0.08585641
161	0x3d71cd54	0.059033707
162	0x3d9f0cbd	0.077661015
163	0x3dee6009	0.11639411
164	0x3dd2dfdf	0.10296606
165	0xbd3a5d2c	-0.045499012
166	0xbca80bbf	-0.020513413
167	0x3d5db587	0.054128196
168	0x3d461ba0	0.04836619
169	0x3976e97f	0.00023547372
170	0xbdb7edd3	-0.08980908
171	0x3d55b9ca	0.052179135
172	0x3e9b79e0	0.3036642
173	0xbaf93fd8	-0.0019016219
174	0xbd0cdc37	-0.0343897
175	0x3b66c0f3	0.0035210222
176	0xbd59ee7b	-0.05320595
177	0x3ca4da63	0.020123666
178	0x3cb4c573	0.022066807
179	0xbe129929	-0.14316238
180	0xbe132907	-0.1437112
181	0x3ccd49d5	0.02505962
182	0x3c9591bf	0.018257974
183	0x3e2be22a	0.16785493
184	0x3d3cef5b	0.046126705
185	0x3d2dd144	0.0424359
186	0x3dd6ddc0	0.10491514
187	0x3d8cf5f4	0.06882849
188	0xbcf5edaa	-0.030020554
189	0x3cce3887	0.025173439
190	0xbd0fe990	-0.035134852
191	0x3bf8eaa8	0.0075963326
192	0x3dc31acd	0.09526596
193	0xbdb70db3	-0.0893816
194	0x3bdafddd	0.006683095
195	0x3cfa8777	0.030582173
196	0xbdafe209	-0.08588035
197	0x3e057f59	0.1303686
198	0x3dad3b51	0.08458579
199	0x3cb7c17e	0.022431131
200	0x3dc03b19	0.09386272
201	0x3ca5e1ab	0.020249208
202	0xbbf6d9ad	-0.007533273
203	0xbd9b7512	-0.07590689
204	0xbc47962b	-0.012181799
205	0x3d56b89e	0.05242216
206	0x3d3183b7	0.043338504
207	0x3d2371d8	0.03990349
208	0x3da0c427	0.07849913
209	0xbd3377ee	-0.043815546
210	0xbd9f0cc5	-0.077661075
211	0x3e00bb28	0.12571394
212	0x3d242b58	0.0400804
213	0x3d0c0e57	0.034193363
214	0x3d761128	0.060074955
215	0xbd9203b5	-0.07129613
216	0x3d5b8a08	0.053598434
217	0x3dbdede7	0.09273892
218	0x3c07d5fd	0.008290765
219	0x3d913c77	0.07091611
220	0x3dadbf3d	0.084837414
221	0x3cfee501	0.031115057
222	0xbc7a3327	-0.015270985
223	0xbd29a4cb	-0.041416924
224	0x3d934ca3	0.07192352
225	0xbb6aa36a	-0.0035802969
226	0xbc7c8ffd	-0.015415189
227	0x3ddbd61d	0.10734198
228	0xbe0b717b	-0.13617508
229	0xbd38d92c	-0.045128986
230	0xbd84b36e	-0.06479536
231	0xbe538059	-0.2065443
232	0x3daad287	0.08340936
233	0xbd155402	-0.03645707
234	0xbce27925	-0.027645657
235	0xbcb7b1db	-0.022423675
236	0xbe017c6c	-0.1264512
237	0xbd8bc3b3	-0.06824436
238	0xbd70c25d	-0.05877911
239	0x3d350c85	0.044201393
240	0x3e31b27b	0.17353241
241	0xbda770ff	-0.08175849
242	0x3d64aee6	0.05583086
243	0x3d9c9068	0.07644731
244	0x3ca14f9f	0.019691287
245	0xbd9a1dbc	-0.07525203
246	0x3d9ce181	0.07660199
247	0x3d0873e8	0.03331366
248	0x3dc5eccc	0.09664306
249	0x3dbb75b7	0.09153312
250	0x3da4b1c5	0.08041719
251	0xbbea097c	-0.007142244
252	0xbd1f2ef6	-0.038863145
253	0x3d4b948b	0.04970221
254	0xbd7a66ed	-0.061133314
255	0xbddeb7cc	-0.108749

fc2.bias f4 [128]
0	0xbc77eb4e	-0.015131785
1	0x3d39469f	0.045233365
2	0x3d059308	0.032610923
3	0x3d1ad9e0	0.037805438
4	0x3ceab97c	0.028652899
5	0xbd975a24	-0.0739024
6	0xbdb90d61	-0.09035755
7	0x3cbc2c9a	0.022970486
8	0x3ce12782	0.02748466
9	0x3d3a7bfd	0.0455284
10	0xbc887740	-0.016658425
11	0x3c9fdb83	0.019513851
12	0xbcd1f14a	-0.02562775
13	0x3c7a2450	0.015267447
14	0xbc09e70d	-0.008416903
15	0xbd3e6a82	-0.046488293
16	0x3d0a4a51	0.03376228
17	0xbd1bc97c	-0.038033947
18	0xbc00e879	-0.007867926
19	0xbd9976ab	-0.07493337
20	0x3dc0c69a	0.0941288
21	0x3b0da81e	0.0021615098
22	0x3d986314	0.07440773
23	0xbd67242f	-0.05643099
24	0x3be4251b	0.006962431
25	0xbc0aa719	-0.008462691
26	0x3db52898	0.08845633
27	0x3d78c006	0.060730003
28	0xbc9e0ee8	-0.019294217
29	0x3dba159a	0.090861514
30	0x3c02fd11	0.007994906
31	0xbd185d2b	-0.037198227
32	0x3d408e5e	0.047010772
33	0xbcea7900	-0.02862215
34	0x3d312648	0.0432494
35	0xbd31081e	-0.04322063
36	0xbdb52cf7	-0.08846467
37	0xbd05b6af	-0.032644924
38	0xbd0ea448	-0.03482464
39	0x3d6f4f07	0.058424976
40	0x3da72430	0.08161199
41	0xbd0134e2	-0.031544574
42	0xbbff9f34	-0.007800961
43	0x3d52cf1c	0.051467046
44	0x3cf9718c	0.030449651
45	0x3c5fee20	0.013667613
46	0xbca51393	-0.020150935
47	0xbaffa33f	-0.0019503607
48	0xbd33a19a	-0.043855287
49	0xbd341004	-0.043960586
50	0x3c15d8f3	0.009145963
51	0x3cf8d988	0.030377164
52	0xbc48aaa4	-0.012247715
53	0xbb43aa4c	-0.0029856144
54	0x3db3b5e2	0.08774926
55	0x3c3537dc	0.011060681
56	0xbc1b34ee	-0.009473069
57	0x3ce8d108	0.028419986
58	0xbbb1addd	-0.0054223374
59	0x3c0c0f25	0.008548533
60	0xbc2acf2c	-0.01042537
61	0xbd9d7565	-0.07688407
62	0xbc442cf0	-0.011973605
63	0x3d2ac888	0.041695148
64	0x3d2c2992	0.042031832
65	0x3d4df16d	0.05027907
66	0x3c93d699	0.018046664
67	0x3d19a8b4	0.037514403
68	0xbcb35084	-0.021888979
69	0xbdceb6b4	-0.100934416
70	0x3bf67bcf	0.0075220834
71	0x3d3d0ed8	0.046156734
72	0x3d6a8e4c	0.05726461
73	0xbd78c6a7	-0.060736325
74	0xbd7a0ba6	-0.061046265
75	0xbc963ba5	-0.018338988
76	0x3d308310	0.04309374
77	0x3c143365	0.009045457
78	0xbccbb3b2	-0.024865959
79	0xbd428a39	-0.0474951
80	0x3d10db58	0.035365433
81	0xbd976752	-0.07392754
82	0x3d990260	0.07471156
83	0x3d2d7afc	0.042353615
84	0xbc596bb7	-0.01327031
85	0x3d4e1050	0.050308526
86	0x3e00e111	0.12585856
87	0xbc3191a2	-0.010837944
88	0x3ce66ae0	0.028127134
89	0x3bc058a0	0.00586994
90	0x3bf72655	0.0075424113
91	0x3d57f78f	0.052726325
92	0xbd866f90	-0.065642476
93	0x3c97a72c	0.018512331
94	0x3d602653	0.05472405
95	0x3dbb87e6	0.0915678
96	0x3d910722	0.070814386
97	0x3d3c590b	0.045983355
98	0x3c56f610	0.013120189
99	0x3dedb3c4	0.11606553
100	0x3c98fead	0.018676126
101	0x3d483e00	0.048887253
102	0x3d60c027	0.05487075
103	0xbcc48fc7	-0.02399434
104	0x3c21e997	0.009882352
105	0xbd06bd0f	-0.032895144
106	0x3d51bae0	0.05120361
107	0x3d861e91	0.06548799
108	0xbcc5e8ad	-0.0241588
109	0xbd830c88	-0.063988745
110	0xbc0af8b2	-0.008482145
111	0x3c6ae26d	0.014336211
112	0x3da01a12	0.078174725
113	0x3d98377a	0.07432456
114	0xbc870217	-0.016480489
115	0xbc91b0b6	-0.017784458
116	0xbd7af38e	-0.061267428
117	0xbcb63f01	-0.02224684
118	0xbc88feb3	-0.016723013
119	0x3d38e0b2	0.04513616
120	0x3d6ff1c8	0.05858019
121	0xbcecf378	-0.028924689
122	0xbce61084	-0.028084047
123	0x3d8835d5	0.06650893
124	0x3bf6bf38	0.0075301193
125	0x3da35e2c	0.07976946
126	0xbd217640	-0.039419413
127	0xbd283765	-0.041068453

fc3.weight f4 [2, 128]
0	0xbdb51b60	-0.08843112
1	0x3dfa4290	0.12219727
2	0x3e751639	0.23934259
3	0xbcf4cee7	-0.029883815
4	0x3e6ded78	0.23235118
5	0xbd16c461	-0.036808375
6	0x3e9726de	0.2952184
7	0xbd9dd050	-0.07705748
8	0xbd4fa3cd	-0.050693322
9	0xbd3db3b5	-0.04631396
10	0xbd899a24	-0.06718853
11	0xbd392d31	-0.045209114
12	0xbd40d751	-0.04708034
13	0x3dd788e6	0.10524158
14	0x3d968969	0.07350428
15	0x3de0693a	0.109575704
16	0x3db066cb	0.08613356
17	0xbd20480e	-0.039131217
18	0x3e249fe3	0.16076617
19	0xbd65ccc8	-0.056103498
20	0x3db3cc07	0.087791495
21	0x3d9a6803	0.0753937
22	0x3d54a71d	0.051917184
23	0xbcfd7461	-0.030939283
24	0xbdf4a779	-0.119460054
25	0xbd23b998	-0.039971918
26	0x3d462095	0.048370916
27	0x3da31931	0.07963789
28	0xbdf4699b	-0.11934205
29	0x3d848d9a	0.06472321
30	0x3d707fb4	0.058715537
31	0x3e0a9d8e	0.13536665
32	0x3e157ebd	0.14599128
33	0xbd16582f	-0.036705192
34	0x3d521aea	0.0512952
35	0xbd184de9	-0.037183676
36	0x3e59699a	0.2123169
37	0xbd6430ca	-0.05571059
38	0xbd1b83fe	-0.037967674
39	0x3cd14a58	0.025548145
40	0x3d011d59	0.03152213
41	0xbda5a441	-0.080879696
42	0x3dd3d34b	0.10343035
43	0x3dae8da0	0.085231066
44	0xbd071615	-0.032980043
45	0xbd0a2938	-0.033730716
46	0xbcea18ea	-0.028576333
47	0x3d892b90	0.06697762
48	0xbcae1af0	-0.02125308
49	0xbd407937	-0.0469906
50	0x3d2d00c3	0.042237055
51	0x3d5ef819	0.054435823
52	0x3d93205e	0.07183908
53	0x3d3ba1ce	0.045808606
54	0x3d768955	0.060189564
55	0xbdc524e3	-0.09626176
56	0xbce7a77f	-0.02827811
57	0xbcddfd4d	-0.027098322
58	0x3d07d0a0	0.033157945
59	0xbd093bab	-0.03350417
60	0xbd363052	-0.044479676
61	0xbd3e39de	-0.046441905
62	0x3d8eea58	0.06978291
63	0xbd6cf02a	-0.057846226
64	0xbd0b9a82	-0.034082897
65	0x3da11018	0.07864398
66	0x3e70b241	0.23505498
67	0xbd2cb3d3	-0.04216368
68	0x3dc70242	0.097172275
69	0xbd6fde84	-0.058561817
70	0xbe294b5b	-0.16532652
71	0x3e13f4fa	0.1444892
72	0x3d61c5b1	0.055120174
73	0xbd504ff2	-0.05085749
74	0x3e3b6e1e	0.18303725
75	0x3e07a131	0.13245083
76	0xbd039ac1	-0.032130007
77	0xbd94643c	-0.07245681
78	0x3dc35e4a	0.095394686
79	0xbd0069a4	-0.031350747
80	0x3d48b669	0.049002085
81	0xbcdbc2e9	-0.026826339
82	0x3d8168e7	0.06318837
83	0x3e32faf5	0.17478545
84	0xbdc5560c	-0.09635553
85	0xbbcd79fb	-0.0062706447
86	0x3bbe604d	0.00580982
87	0x3dd2269c	0.102612704
88	0xbc56c5bb	-0.013108666
89	0xbda9d660	-0.08292842
90	0x3d7b7a80	0.061396122
91	0x3d53ccc5	0.051708955
92	0xbe1b97b3	-0.15194587
93	0x3d58ea21	0.052957658
94	0xbb93bc64	-0.004508542
95	0x3d524bd8	0.05134186
96	0x3d9130bb	0.07089373
97	0x3e5db563	0.21651225
98	0x3e34c930	0.17654872
99	0xbdd5cb60	-0.10439181
100	0x3cc6fc19	0.024290131
101	0x3d7ddf9c	0.06198083
102	0xbd677fd7	-0.056518402
103	0xbd7a57c0	-0.06111884
104	0x3dce8c91	0.10085405
105	0xbcd6ed43	-0.026236182
106	0xbcf4e031	-0.029892059
107	0x3de042f8	0.10950273
108	0x3d93511d	0.071932055
109	0xbd7510b8	-0.059830397
110	0x3cbcdd05	0.02305461
111	0x3cf5d267	0.030007554
112	0x3d6febd0	0.058574498
113	0x3dc4522b	0.09585985
114	0xbd184c46	-0.037182115
115	0xbd2a6672	-0.041601606
116	0xbe2762a5	-0.16346224
117	0x3b8d867b	0.00431901
118	0xbdc8b127	-0.09799414
119	0x3d56b446	0.052418016
120	0x3d8d73a1	0.0690682
121	0x3dafb44c	0.08579311
122	0xbce67223	-0.028130597
123	0xbc583f91	-0.013198749
124	0x3dbe2ffe	0.092864975
125	0x3dc7e6ae	0.097607955
126	0xbd6fa556	-0.058507286
127	0xbd7de5ff	-0.06198692
128	0xbc783416	-0.015149137
129	0x3d0fb408	0.0350838
130	0xbd71412b	-0.05890004
131	0xbd2237af	-0.039603885
132	0x3d8ee9c0	0.06978178
133	0xbd2be050	-0.041961968
134	0xbdb31393	-0.08743968
135	0xbb5f26aa	-0.0034050145
136	0x3ca89c4b	0.020582339
137	0x3da5df81	0.080992706
138	0xbd24ae2b	-0.040205162
139	0xbc9b8c24	-0.018987723
140	0xbd570074	-0.052490667
141	0x3c9676f1	0.018367263
142	0xbbc4a0ec	-0.0060006287
143	0x3d205186	0.039140247
144	0xbca7bd35	-0.020475963
145	0xbc4ec655	-0.012620528
146	0x3cc0cd27	0.023535324
147	0xbd88e50e	-0.06684314
148	0xbb691dc6	-0.0035570725
149	0x3d984428	0.07434875
150	0x3cce1738	0.025157556
151	0xbdc9115d	-0.09817765
152	0xbd1065f6	-0.035253488
153	0xbcf84620	-0.030306876
154	0xbd5e38f6	-0.05425354
155	0x3d814138	0.063112676
156	0xbc6d6265	-0.014488791
157	0x3d21bb4d	0.039485265
158	0x3d5e2dac	0.054242775
159	0x3d4dcd4a	0.050244607
160	0x3da04e32	0.078274146
161	0x3da066f0	0.07832134
162	0x3d5d24f5	0.053990323
163	0x3aff0e42	0.0019459205
164	0xbc10b191	-0.008831398
165	0x3da8967e	0.08231829
166	0x3d9d6ef9	0.07687182
167	0xbdb83c0e	-0.089958295
168	0xbd60c662	-0.054876693
169	0x3cf24bf9	0.029577242
170	0x3c20338b	0.009777914
171	0x3d408d5a	0.047009803
172	0xbce87e5f	-0.028380571
173	0xbc638bc2	-0.013888301
174	0xbcf249f5	-0.029576281
175	0xbe8292eb	-0.25502715
176	0x3e2d696a	0.16934744
177	0x3725ea6f	9.88935e-06
178	0xbd048796	-0.032355867
179	0xbd615fad	-0.055022884
180	0xbddc64cc	-0.10761413
181	0xbe21443b	-0.15748684
182	0xbcd71c71	-0.02625868
183	0xbdcb13bb	-0.09915873
184	0xbdc13dea	-0.09435637
185	0xbd2a32e8	-0.041552454
186	0x3dc4ca9c	0.09608957
187	0xbd00539c	-0.031329736
188	0x3d4b04ab	0.049565
189	0xbd54190c	-0.0517817
190	0x3d077baa	0.03307692
191	0x3c578e0e	0.013156427
192	0xbcb85494	-0.022501267
193	0x3dab7685	0.08372215
194	0x3c03762f	0.008023783
195	0xbc2ed938	-0.010671906
196	0x3d3dfe2f	0.046384986
197	0x3d03a569	0.03214017
198	0x3c4984bc	0.012299713
199	0x3d7b6e7b	0.06138466
200	0xbe0fb429	-0.1403357
201	0x3d2cb7ba	0.042167403
202	0x3bd11ba4	0.006381469
203	0x3b0e8bba	0.0021750764
204	0xbcae0315	-0.021241704
205	0xbdacbe85	-0.08434776
206	0xbc4bf187	-0.012447721
207	0xbc5f1d12	-0.013617771
208	0xbe118bc4	-0.14213473
209	0x3d843051	0.06454528
210	0x3d17be60	0.03704679
211	0x3d84d4b2	0.06485881
212	0x3d73f1a0	0.059556603
213	0xbe30d22d	-0.17267676
214	0xbe28a6f8	-0.16469944
215	0x3c33742a	0.010952989
216	0xbe1bb85e	-0.15207049
217	0x3c943762	0.018092815
218	0xbe1e651f	-0.15468262
219	0xbd8b7266	-0.06808929
220	0xbd8f79f6	-0.07005684
221	0x3c871a44	0.016492017
222	0xbe1ecd54	-0.15508014
223	0xbdac4fdb	-0.08413669
224	0x3d5cf99d	0.053948987
225	0x3d6d22c8	0.057894498
226	0x3dbb3523	0.091409944
227	0x3e494419	0.19654883
228	0xbde64df9	-0.11245341
229	0x3d5ae9f7	0.053445783
230	0x3d30ad81	0.043134216
231	0x3d08d3f3	0.033405256
232	0xbdabfafd	-0.083974816
233	0xbe613ef4	-0.21996671
234	0xbd6cc819	-0.057808015
235	0xbdcd9868	-0.10038835
236	0x3d10597a	0.03524158
237	0xbd20415f	-0.039124843
238	0xbe1094fc	-0.14119333
239	0xbdfa44d5	-0.1222016
240	0xbdba0c6a	-0.09084399
241	0xbca6f851	-0.020382078
242	0x3d27e0f4	0.040986016
243	0xbe4d4bb8	-0.20048416
244	0x3d3d940a	0.04628376
245	0xbe38b011	-0.18035914
246	0x3ce2fcf6	0.027708512
247	0xbda467cf	-0.080276124
248	0xbe3c3d6e	-0.18382809
249	0x3e4c25b3	0.19936256
250	0xbd89fc62	-0.06737591
251	0xbd9abe28	-0.07555801
252	0x3d538075	0.051636178
253	0xbd886dd3	-0.06661572
254	0xbd70e141	-0.05880857
255	0x3ce44dac	0.027869068

fc3.bias f4 [2]
0	0xbc45afe2	-0.0120658595
1	0xbccc483b	-0.024936786
