agent1_critic_net.pth (torch, 122719 bytes, 5 tensors)

fc1.weight f4 [256, 52]
0.09675079 0.011668696 0.03208107 -0.05317568 0.023385981 0.025919817 0.03208107 -0.05317568
0.08112056 0.0009375336 0.006980085 -0.010146132 0.05240979 0.05036267 0.006980085 -0.010146132
0.08883412 0.0007701412 0.0014420444 -0.047371786 0.061934378 0.054396167 0.0014420444 -0.047371786
0.08975179 0.04570968 0.0048635215 -0.06044133 -0.023385981 0.025919817 0.0048635215 -0.06044133
0.08286865 0.029766176 0.008214054 -0.06025674 -0.05240979 0.05036267 0.008214054 -0.06025674
0.10130252 0.024021333 0.014791101 -0.08641487 -0.061934378 0.054396167 0.014791101 -0.08641487
0.044324994 -0.078349054 0.0885013 0.05405542 0.0420518 -0.16838472 -0.013479732 0.005966882
-0.05568143 -0.21160148 -0.013479732 0.005966882 0.049537048 -0.15185283 -0.01948296 0.030449046
-0.014623365 -0.36520824 -0.01948296 0.030449046 0.054630447 -0.17153314 -0.020576479 -0.027995814
0.017459413 0.007387085 -0.020576479 -0.027995814 -0.06552943 0.13077246 0.011667534 0.011858387
0.05568143 -0.21160148 0.011667534 0.011858387 -0.030698478 0.12969364 0.033140037 -0.035265606
0.014623365 -0.36520824 0.033140037 -0.035265606 -0.0049476693 0.113678716 -0.0015103569 -0.0076685087
-0.017459413 0.007387085 -0.0015103569 -0.0076685087 -0.062483065 0.021471428 -0.029699245 -0.1529066
0.06752007 0.046451516 -0.007475733 -0.019682605 0.024538917 -0.04989794 -0.007475733 -0.019682605
0.09228269 0.043196443 0.01489628 -0.02644016 0.021890175 -0.05551412 0.01489628 -0.02644016
0.083338454 0.038596015 -0.029672332 -0.04680499 0.020929264 -0.06265565 -0.029672332 -0.04680499
0.0787636 0.028381288 -0.0026358773 0.030338183 -0.024538917 -0.04989794 -0.0026358773 0.030338183
0.06436148 0.03177488 -0.030040016 0.02201595 -0.021890175 -0.05551412 -0.030040016 0.02201595
0.062768616 0.034922354 -0.0008083545 0.031399135 -0.020929264 -0.06265565 -0.0008083545 0.031399135
0.006431744 0.007401825 0.043091513 0.012941395 0.05638806 0.033562046 -0.029523006 0.00020339826
0.045064513 -0.12722927 -0.029523006 0.00020339826 0.05061426 0.0213135 -0.027237156 0.030934123
0.08975401 -0.21268313 -0.027237156 0.030934123 0.048516583 0.04026955 -0.06581043 -0.020301359
0.03161978 -0.18252224 -0.06581043 -0.020301359 -0.045226786 0.04879358 0.0032547014 0.075869754
-0.045064513 -0.12722927 0.0032563417 0.075869754 -0.04614904 0.048090078 0.011281459 0.037241917
-0.08975401 -0.21268313 0.011280293 0.037241917 -0.012977472 0.036949802 -0.0049595674 0.025703717
-0.03161978 -0.18252224 -0.004956067 0.025703717 -0.0078790765 -0.12795062 0.21178895 -0.0063023907
0.023080718 0.26053947 -0.0028563398 0.19329672 0.042235654 0.07859205 -0.0028563398 0.19329672
0.04313276 0.27921078 -0.0018795885 0.016798802 -0.04364752 0.077050336 -0.0018795885 0.016798802
0.08085114 0.28049216 0.006820576 0.10120678 -0.17236675 -0.12259266 0.006820576 0.10120678
0.005435617 0.025331546 0.0010570363 -0.011881235 -0.042235654 0.07859205 0.0010570363 -0.011881235
-0.04408628 -0.003377739 0.0017902959 0.0022211785 0.04364752 0.077050336 0.0017902959 0.0022211785
0.014340925 0.025190033 -0.0007085908 -0.00433065 0.17236675 -0.12259266 -0.0007085908 -0.00433065
00000000: 4725 c63d 0f2e 3f3c 7167 033d bece 59bd
00000010: f593 bf3c cc55 d43c 7167 033d bece 59bd
00000020: 8922 a63d d1c4 753a 32b9 e43b f63b 26bc
00000030: a6ab 563d 1649 4e3d 32b9 e43b f63b 26bc
00000040: aaee b53d 4de3 493a fb02 bd3a eb08 42bd
00000050: e7ae 7d3d 84ce 5e3d fb02 bd3a eb08 42bd
00000060: c9cf b73d 133a 3b3d 2d5e 9f3b 5491 77bd
00000070: f593 bfbc cc55 d43c 2d5e 9f3b 5491 77bd
00000080: 0ab7 a93d 32d8 f33c 3d94 063c c5cf 76bd
00000090: a6ab 56bd 1649 4e3d 3d94 063c c5cf 76bd
000000a0: b277 cf3d 63c8 c43c 6056 723c 48fa b0bd
000000b0: e7ae 7dbd 84ce 5e3d 6056 723c 48fa b0bd
000000c0: 208e 353d 7875 a0bd 2b40 b53d 3769 5d3d
000000d0: 823e 2c3d 0b6d 2cbe 18da 5cbc d685 c33b
000000e0: 3612 64bd 0fae 58be 18da 5cbc d685 c33b
000000f0: 5ce7 4a3d 4f7f 1bbe bb9a 9fbc 4770 f93c
00000100: d796 6fbc 93fc babe bb9a 9fbc 4770 f93c
00000110: 2dc4 5f3d 62a6 2fbe 0190 a8bc 7a57 e5bc
00000120: 0b07 8f3c 5c0f f23b 0190 a8bc 7a57 e5bc
00000130: 4b34 86bd 37e9 053e 2f29 3f3c ae49 423c
00000140: 3612 643d 0fae 58be 2f29 3f3c ae49 423c
00000150: 607b fbbc 69ce 043e d9bd 073d ab72 10bd
00000160: d796 6f3c 93fc babe d9bd 073d ab72 10bd
00000170: 0f20 a2bb 63d0 e83d 2bf7 c5ba 1d48 fbbb
00000180: 0b07 8fbc 5c0f f23b 2bf7 c5ba 1d48 fbbb
00000190: 3eee 7fbd d9e4 af3c d54b f3bc 8c93 1cbe
000001a0: f647 8a3d f243 3e3d fef6 f4bb 6a3d a1bc
000001b0: d705 c93c c861 4cbd fef6 f4bb 6a3d a1bc
000001c0: b5fe bc3d c1ee 303d 870f 743c 0999 d8bc
000001d0: 0653 b33c c662 63bd 870f 743c 0999 d8bc
000001e0: 5aad aa3d db16 1e3d 6413 f3bc 97b6 3fbd
000001f0: d973 ab3c 9b51 80bd 6413 f3bc 97b6 3fbd
00000200: cf4e a13d e07f e83c afbe 2cbb c887 f83c
00000210: d705 c9bc c861 4cbd afbe 2cbb c887 f83c
00000220: f4cf 833d 6026 023d 7b16 f6bc cb5a b43c
00000230: 0653 b3bc c662 63bd 7b16 f6bc cb5a b43c
00000240: d58c 803d be0a 0f3d c1e7 53ba 619c 003d
00000250: d973 abbc 9b51 80bd c1e7 53ba 619c 003d
00000260: 61c1 d23b 028b f23b ba80 303d 2508 543c
00000270: 2bf7 663d 5b78 093d 3bda f1bc 4e47 5539
00000280: 9195 383d 6448 02be 3bda f1bc 4e47 5539
00000290: e650 4f3d a699 ae3c 7520 dfbc 8f69 fd3c
000002a0: f3d0 b73d 9bc9 59be 7520 dfbc 8f69 fd3c
000002b0: 53b9 463d aff1 243d 9ec7 86bd 094f a6bc
000002c0: be83 013d 1ce7 3abe 9ec7 86bd 094f a6bc
000002d0: b93f 39bd c7db 473d d44c 553b 9a61 9b3d
000002e0: 9195 38bd 6448 02be 5968 553b 9a61 9b3d
000002f0: c706 3dbd 1afa 443d ded5 383c fb8a 183d
00000300: f3d0 b7bd 9bc9 59be fad0 383c fb8a 183d
00000310: 769f 54bc ad58 173d de83 a2bb 9a90 d23c
00000320: be83 01bd 1ce7 3abe 8166 a2bb 9a90 d23c
00000330: 3e17 01bc 7d05 03be 34df 583e 4984 cebb
00000340: c613 bd3c 6e65 853e 6e31 3bbb 93ef 453e
00000350: 4bff 2c3d def4 a03d 6e31 3bbb 93ef 453e
00000360: faab 303d b7f4 8e3e 865c f6ba a49d 893c
00000370: bec7 32bd 91cc 9d3d 865c f6ba a49d 893c
00000380: 4895 a53d ab9c 8f3e 237f df3b 8045 cf3d
00000390: e980 30be dc11 fbbd 237f df3b 8045 cf3d
000003a0: 431d b23b 1a84 cf3c 418c 8a3a 83a9 42bc
000003b0: 4bff 2cbd def4 a03d 418c 8a3a 83a9 42bc
000003c0: d193 34bd 0f5d 5dbb 5da8 ea3a 3191 113b
000003d0: bec7 323d 91cc 9d3d 5da8 ea3a 3191 113b
000003e0: 33f6 6a3c 545b ce3c b9c0 39ba 20e8 8dbb
000003f0: e980 303e dc11 fbbd b9c0 39ba 20e8 8dbb

fc1.bias f4 [256]
-0.012423355 -0.010863829 -0.014702893 -0.017530244 -0.021891493 -0.018135587 -0.111788094 0.0075790435
-0.047102492 -0.0027893123 -0.03931119 -0.0005717789 -0.06571697 -0.0007269539 -0.028763002 -0.014356102
-0.010606893 -0.00432018 -0.018533831 -0.006803768 -0.017224248 -0.024160834 -0.027273426 -3.482734e-08
-0.01980436 0.023569165 -0.07557631 -0.009571582 -0.0826237 0.020586178 -0.03597867 -0.025239984
-0.019141654 -0.026175272 -0.0002091007 -0.04408796 -0.012153426 -0.026094884 -0.022347655 -0.00012953812
0.0032462964 -0.009480269 0.023306577 -0.05250156 -0.018175973 -0.12030697 -0.06689167 -0.018465005
0.04103591 -0.037303586 -0.05297303 -0.08367962 -0.01643289 -0.021364026 0.004877357 -0.026659008
-0.09367778 -0.09483569 -0.046162445 -0.043390162 -0.081773855 -0.010878306 -0.10424896 -0.03854072
-0.005631514 -0.012741803 -0.010637399 0.08660686 0.011082046 -0.0137176495 -0.011213723 0.017947631
-0.004913456 -0.021418795 -0.10888963 0.012232884 -0.017000575 -0.04301465 0.056008518 -0.022988869
0.013473592 -0.06928493 0.028441025 -0.08305407 -0.00092989457 -0.014380092 -0.0009906184 -0.024051733
-0.03226418 -0.02315598 -0.011663071 -0.02202083 0.025383474 -0.008831923 -0.00087399926 -0.015184571
0.017901765 -0.09108186 -0.016334444 -0.0032701457 -0.023891369 -0.008766242 -0.025900358 -0.0064148125
-0.008226899 -0.0058144596 -0.08102292 -0.040822633 -0.0977085 -0.021642672 -0.013384114 0.00031602534
-0.024194129 -0.024846438 -0.03856505 -0.04841844 -0.012871536 -0.030960074 -0.0037608857 -0.0358995
-0.0019162821 0.0028763984 -0.0044443044 -0.013624083 -0.021835668 -0.018917875 -0.0005644788 -0.0131820515
-0.025418986 0.006685214 0.06275442 -0.03896418 -0.028479027 -0.08156377 -0.02092485 -0.0076508294
-0.031307675 -0.00933995 -0.01685345 -0.019850912 0.08949181 -0.00521073 -0.047372073 -0.029870968
-0.04647877 -0.024441702 -0.0015771564 -0.016463274 -0.032845046 -0.011837638 -0.024846109 -0.0006739028
-0.06900099 -0.013289343 0.026757315 -0.06489482 -0.015796658 -0.010937513 -0.009220178 -0.00047126788
-0.027376618 0.032800373 0.03319085 -0.013376711 -0.03020953 0.06338527 -0.09323007 -0.017792448
-0.040795118 -0.012031101 -0.021815516 0.011275364 -0.02217253 -0.0068434225 -0.018467814 -0.020080993
-0.057190083 -0.030623602 -0.029497722 0.031866424 -0.024749145 -0.05547168 -0.088017724 -0.00023241421
0.024224374 -0.024343751 -0.013077881 -0.06171123 -0.0062478585 -0.006008054 -0.022106018 -0.047707688
-0.02026868 -0.0026881094 -0.016213275 -0.015823744 -0.022512848 -0.0649919 -0.007340975 0.003042059
-0.00040043166 -0.028353991 -0.036867414 -0.030155336 -0.016015878 -0.037185907 -0.010590746 -0.021226218
-0.015520763 -0.046738375 -0.003409164 -0.022064855 -0.051505927 -0.019271575 -0.032132957 -0.016603893
-0.08959028 0.04363234 -0.024198577 -0.0001369089 0.005434859 -0.024215946 -0.027813517 -0.0716807
-0.03814824 0.013849041 -0.023990858 -0.031103086 -0.059445072 -0.0038696749 -0.002335071 -0.08680761
-0.023238832 -0.02012124 -0.024387449 -0.0170591 0.07482686 -0.119963646 -0.023405798 -0.028706187
-0.020567186 -0.048632473 -0.034129553 0.04010216 -0.008624661 -9.558036e-06 -0.0013224796 -0.010107821
-0.03685283 -0.023985643 -0.005621173 -0.018835366 -0.013630458 0.00080781145 -0.00033206414 -0.010322237
00000000: 548b 4bbc 34fe 31bc 67e4 70bc 969b 8fbc
00000010: ca55 b3bc 1591 94bc 28f1 e4bd a059 f83b
00000020: 8bee 40bd e5cc 36bb c504 21bd 6fe3 15ba
00000030: 9e96 86bd 0d91 3eba 63a0 ebbc db35 6bbc
00000040: 89c8 2dbc 4c90 8dbb 43d4 97bc 25f2 debb
00000050: de19 8dbc f1ec c5bc 856c dfbc 1195 15b3
00000060: c13c a2bc 1f14 c13c c1c7 9abd 20d2 1cbc
00000070: 9d36 a9bd 58a4 a83c 5f5e 13bd 15c4 cebc
00000080: f5ce 9cbc 866d d6bc 0b42 5bb9 9495 34bd
00000090: 2a1f 47bc f0c4 d5bc 6e12 b7bc a0d4 07b9
000000a0: d1bf 543b 2153 1bbc 6fed be3c e00b 57bd
000000b0: c7e5 94bc 8063 f6bd 80fe 88bd ec43 97bc
000000c0: 4515 283d a5cb 18bd 3ffa 58bd 3860 abbd
000000d0: 459e 86bc 9c03 afbc 3cd2 9f3b fe63 dabc
000000e0: 23da bfbd 3739 c2bd d514 3dbd e2b9 31bd
000000f0: 0d79 a7bd ec3a 32bc 7b80 d5bd e0dc 1dbd
00000100: 9088 b8bb ffc2 50bc 7c48 2ebc f05e b13d
00000110: 7891 353c febf 60bc c3b9 37bc e906 933c
00000120: 0e01 a1bb 7876 afbc 8701 dfbd 6f6c 483c
00000130: ca44 8bbc 2130 30bd 3069 653d 2753 bcbc
00000140: 57c0 5c3c 42e5 8dbd 27fd e83c 4118 aabd
00000150: 2bc4 73ba 7a9a 6bbc a3d7 81ba 2408 c5bc
00000160: 7227 04bd 9cb1 bdbc 7716 3fbc 0765 b4bc
00000170: 01f1 cf3c c5b3 10bc 191d 65ba b5c8 78bc
00000180: b9a6 923c 2089 babd d0cf 85bc f14f 56bb
00000190: d5b7 c3bc 49a0 0fbc fd2c d4bc 5933 d2bb
000001a0: 1eca 06bc 3987 bebb 58ef a5bd a235 27bd
000001b0: 651b c8bd f94b b1bc 0b49 5bbc 34b0 a539
000001c0: c432 c6bc c28a cbbc 63f6 1dbd 6a52 46bd
000001d0: 23e3 52bc fb9f fdbc 3179 76bb 5b0b 13bd
000001e0: c22b fbba f581 3c3b 87a1 91bb 8c37 5fbc
000001f0: b7e0 b2bc a9f9 9abc 88f9 13ba 88f9 57bc
00000200: 7a3b d0bc a40f db3b 6485 803d e798 1fbd
00000210: d94c e9bc e80a a7bd 976a abbc cfb3 fabb
00000220: 7a3c 00bd 9706 19bc 3f10 8abc 619e a2bc
00000230: 7b47 b73d c5be aabb 3809 42bd f6b3 f4bc
00000240: 8660 3ebd f739 c8bc 96b8 ceba fddd 86bc
00000250: 8788 06bd a7f2 41bc 118a cbbc daa8 30ba
00000260: 6450 8dbd 8bbb 59bc 2832 db3c 93e7 84bd
00000270: fe67 81bc 4133 33bc 3b10 17bc 8114 f7b9
00000280: ee44 e0bc af59 063d 21f3 073d fe29 5bbc
00000290: fa79 f7bc 23d0 813d 68ef bebd 78c1 91bc
000002a0: c818 27bd 181e 45bc 74b6 b2bc 4ebc 383c
000002b0: 2aa3 b5bc ca3e e0bb d049 97bc e580 a4bc
000002c0: 2640 6abd 59de fabc 35a5 f1bc 5e86 023d
000002d0: b8be cabc 4636 63bd a342 b4bd 37b4 73b9
000002e0: 3272 c63c 8c6c c7bc 9c44 56bc eac4 7cbd
000002f0: d6ba ccbb 36df c4bb ae17 b5bc 2369 43bd
00000300: 810a a6bc fe2a 30bb b4d1 84bc cca0 81bc
00000310: dd6c b8bc 791a 85bd 908c f0bb 485d 473b
00000320: 07f1 d1b9 a146 e8bc 4902 17bd 5308 f7bc
00000330: bb33 83bc 4050 18bd cf84 2dbc 9be2 adbc
00000340: cc4a 7ebc bd70 3fbd 486c 5fbb 5bc1 b4bc
00000350: e1f7 52bd 6cdf 9dbc d99d 03bd e304 88bc
00000360: 1c7b b7bd d3b7 323d 183c c6bc 348f 0fb9
00000370: e716 b23b 8560 c6bc 2cd9 e3bc 55cd 92bd
00000380: 5441 1cbd 17e7 623c 7a88 c4bc e6cb febc
00000390: ad7c 73bd 5f9a 7dbb fe07 19bb 30c8 b1bd
000003a0: 5d5f bebc 4cd5 a4bc 30c8 c7bc 87bf 8bbc
000003b0: d33e 993d 80af f5bd 84bd bfbc 3d29 ebbc
000003c0: 847c a8bc d832 47bd 6ecb 0bbd 2a42 243d
000003d0: 734e 0dbc 745b 20b7 0d57 adba 469b 25bc
000003e0: fef2 16bd 8a7d c4bc d131 b8bb a04c 9abc
000003f0: 4952 5fbc 4fc3 533a e518 aeb9 9a1e 29bc

fc2.weight f4 [64, 256]
-0.0021856937 -0.015766514 0.0076503917 -0.01831881 -0.0072362786 0.0008422139 -0.0015378604 0.01596096
-0.015313463 0.0008902643 0.007910697 -8.2273e-40 -0.0015264617 9.332219e-15 0.0015342219 -0.0209658
-5.74368e-40 -0.0034111328 0.00079989876 -2.0726857e-07 0.00020391773 0.014425318 -0.0062379832 -1.038285e-39
-0.00027659477 0.008585116 -0.019463021 -5.8238998e-06 -0.0002149624 -0.010980028 -0.031240368 1.4661269e-05
-0.00011347609 0.012457949 -3.9654813e-10 0.0023472232 -0.0036533622 -0.014602892 -0.0016714919 -6.28268e-40
-0.013825839 0.01039298 -0.0081015015 -0.006834957 -0.0053150486 -0.016799817 -0.022750793 -2.84522e-40
-0.010996213 0.0054403795 0.008705885 -0.0018035783 0.0131287305 0.011441294 -0.0043400363 -0.01684767
0.0037410324 -0.019332735 0.0006165667 0.008470538 0.00016413428 -0.0028974817 -0.00081543264 0.0045891167
0.008697247 0.005044751 0.0035560606 -0.007876059 -0.00025599284 -0.005942028 0.0027868606 -0.0073827687
0.0045451503 0.00028781456 0.0066494946 -0.010016138 0.018119343 0.001998374 -0.0131395245 -0.0054976246
0.014113398 -0.015860684 -0.011580069 -4.8791277e-10 -3.04889e-40 -3.5359278e-07 -0.00543703 -3.2675904e-05
-0.00039935554 0.006466011 0.008048852 -0.00073537376 -0.0052040755 0.0019051948 1.9480334e-11 -3.3727545e-11
0.0135594485 -0.02393229 -0.0023296552 0.0053370297 -0.006960825 -0.00351234 -0.004928567 5.79713e-40
1.016681e-39 -0.00010480096 -0.017497169 0.007632796 -0.016806645 0.00478276 -4.70511e-40 -0.0051059695
5.558325e-06 -0.0052400767 0.0082208915 -0.003370329 0.002856614 0.013327594 0.0005258865 -0.028584776
-9.80577e-40 -0.008472096 0.0010752568 2.2230923e-05 -0.00073415355 -0.0004148966 0.0094416365 -0.006628198
0.005458877 -0.009590387 -0.0006227949 -0.0022975542 2.6588205e-07 -0.019846767 -4.3957925e-08 0.00027888463
-0.026006375 0.015698887 0.00026606614 -0.0030242386 -0.017871952 0.00083334337 -0.0063359197 0.0029574393
-0.00016526945 0.011820587 -9.90561e-40 -0.0007992853 -0.0071406625 -0.00016518454 8.55621e-06 1.08458e-40
0.003968275 -0.0030827457 0.002283822 -0.000115875344 -8.632761e-05 0.0007972555 0.021441743 -0.009900237
-0.005619431 -0.01766997 0.0063709035 -0.0048175696 0.0004979902 -0.024619913 -0.0069700945 0.00026744005
-0.0048778057 -0.0057332437 -4.0191026e-07 0.007543554 -0.004731425 -0.007752203 0.011499026 0.0049763867
0.0095250085 -0.016987527 -0.0013257283 0.010882955 0.017438376 -0.0005201438 -0.013993553 -2.45926e-40
-0.020266071 0.009064659 -0.0020254934 0.0016988203 0.005940293 -0.003401201 -0.0005704828 -0.021717673
-0.0006634772 1.3006211e-08 0.013106449 -0.0123312 0.006245218 -0.0036097849 -0.0044295387 0.01767647
-8.96895e-40 -0.019657273 0.003129546 0.0015775865 0.000105574356 0.018623818 -0.0031753925 -0.00049195264
-0.00056095904 -0.00071366323 6.62235e-06 0.016359966 0.00050367 0.004548259 0.0010128325 0.0059470655
-0.020175198 -0.004927611 1.1284238e-05 -2.8299526e-06 -0.017588284 -0.003925642 -0.025019279 -0.00052497786
-0.0013223897 -0.019417329 -0.0025633085 5.8536865e-05 -0.0018328147 0.004909579 -5.1728457e-06 0.014271088
0.013541431 0.0002650236 -0.010010205 -0.0014888936 -0.037102927 0.00890942 0.00038506475 -0.0052747773
0.001252025 -0.0055867215 0.009827817 -0.01691009 0.0028598492 -9.77278e-40 5.17692e-40 0.00010244869
0.010797021 0.0031845535 -9.94884e-40 0.0052295 -0.000239619 -0.007534738 -5.69125e-40 0.0077821314
00000000: db3d 0fbb c728 81bc 23b0 fa3b 5411 96bc
00000010: 4e1e edbb 05c8 5c3a 0892 c9ba 8fc0 823c
00000020: 52e5 7abc a060 693a de9b 013c 70f5 0880
00000030: 8e13 c8ba 441d 2828 f217 c93a 78c0 abbc
00000040: 1b41 0680 508d 5fbb 4cb0 513a 8d8d 5eb4
00000050: c0d2 5539 2b58 6c3c ff67 ccbb 514e 0b80
00000060: ec03 91b9 96a8 0c3c ea70 9fbc eb6a c3b6
00000070: 8867 61b9 93e5 33bc cdeb ffbc acf9 7537
00000080: 03fa edb8 6d1c 4c3c 3001 daaf dfd3 193b
00000090: 3f6d 6fbb f840 6fbc f615 dbba 5bd7 0680
000000a0: c685 62bc 5147 2a3c 29bc 04bc c6f7 dfbb
000000b0: dc29 aebb c59f 89bc df5f babc 2219 0380
000000c0: 7629 34bc 3645 b23b 21a3 0e3c 0c66 ecba
000000d0: e319 573c 4474 3b3c dd36 8ebb 2004 8abc
000000e0: 1c2c 753b af5f 9ebc 17a1 213a 03c8 0a3c
000000f0: 761b 2c39 ade3 3dbb c2c2 55ba 4d60 963b
00000100: e67e 0e3c 704e a53b cc0c 693b 960a 01bc
00000110: c736 86b9 58b5 c2bb c3a3 363b 27eb f1bb
00000120: 7cef 943b d1e5 9639 01e4 d93b ba1a 24bc
00000130: 046f 943c 27f7 023b 2947 57bc 6b25 b4bb
00000140: e23b 673c 44ee 81bc 54ba 3dbc cf1d 06b0
00000150: e851 0380 6cd5 bdb4 1d29 b2bb 7c0d 09b8
00000160: 9860 d1b9 d5e0 d33b 55df 033c 19c6 40ba
00000170: f386 aabb bbb7 f93a d059 ab2d d755 14ae
00000180: 7328 5e3c a60d c4bc 21ad 18bb 40e2 ae3b
00000190: a217 e4bb 492f 66bb d17f a1bb 0150 0600
000001a0: 1812 0b00 96c8 dbb8 3956 8fbc 891c fa3b
000001b0: 17ae 89bc b3b8 9c3b 981f 0580 fa4f a7bb
000001c0: a681 ba36 f3b4 abbb ebb0 063c bde0 5cbb
000001d0: 0836 3b3b fb5b 5a3c a5db 093a 9f2a eabc
000001e0: 73ad 0a80 8cce 0abc a2ef 8c3a 8b7c ba37
000001f0: 3674 40ba 7b86 d9b9 18b1 1a3c 5b31 d9bb
00000200: 61e0 b23b 0021 1dbc 0f43 23ba 9092 16bb
00000210: 8dbe 8e34 b095 a2bc 40cc 3cb3 4337 9239
00000220: 520b d5bc f49a 803c cb7e 8b39 4e32 46bb
00000230: 3368 92bc ba74 5a3a 8c9d cfbb 99d1 413b
00000240: 2e4c 2db9 23ab 413c 48c9 0a80 2187 51ba
00000250: 38fc e9bb 6335 2db9 a48c 0f37 562e 0100
00000260: 4e08 823b e407 4abb 2dac 153b 1a02 f3b8
00000270: c80a b5b8 e9fe 503a 98a6 af3c 9b34 22bc
00000280: 3423 b8bb 9dc0 90bc 03c3 d03b b4dc 9dbb
00000290: 8e8b 023a b3af c9bc 6465 e4bb 3237 8c39
000002a0: 00d6 9fbb efdd bbbb 20c6 d7b4 eb2f f73b
000002b0: 120a 9bbb 3106 febb 6966 3c3c f510 a33b
000002c0: c80e 1c3c 6d29 8bbc 0fc4 adba 6c4e 323c
000002d0: edda 8e3c 425a 08ba 3745 65bc 8bad 0280
000002e0: 0805 a6bc ef83 143c 24be 04bb f3aa de3a
000002f0: caa6 c23b afe6 5ebb 748c 15ba 43e9 b1bc
00000300: 34ed 2dba ec71 5f32 6ebc 563c cd08 4abc
00000310: b0a4 cc3b 2492 6cbb aa25 91bb 3fce 903c
00000320: 2ec4 0980 4a08 a1bc 1219 4d3b 05c7 ce3a
00000330: cd67 dd38 fa90 983c 3f1a 50bb 62f6 00ba
00000340: 530d 13ba 2115 3bba 8e35 de36 5605 863c
00000350: b908 043a 9009 953b 05c1 843a 9adf c23b
00000360: 7546 a5bc cc77 a1bb 6f51 3d37 37ea 3db6
00000370: 4e15 90bc aca2 80bb 3bf5 ccbc ab9e 09ba
00000380: 0954 adba 1711 9fbc 2efd 27bb 7b85 7538
00000390: 0e3b f0ba 89e0 a03b 6892 adb6 48d1 693c
000003a0: e1dc 5d3c def2 8a39 d801 24bc fb26 c3ba
000003b0: 3df9 17bd d1f8 113c 84e2 c939 0ad8 acbb
000003c0: fd1a a43a d110 b7bb da04 213c 0787 8abc
000003d0: 4f6c 3b3b 41a4 0a80 1da3 0500 b9d9 d638
000003e0: fde5 303c f1b3 503b 55d5 0a80 3a5c ab3b
000003f0: 3c42 7bb9 f7e5 f6bb 7d32 0680 4001 ff3b

fc2.bias f4 [64]
-0.0126699135 -0.0014157011 -0.0014480146 -0.0002113922 -2.312737e-05 -0.019388946 -0.12652503 0.22217293
0.044838548 -0.0006200744 -0.081063256 0.093820825 -4.4181498e-21 0.09587816 -2.046718e-09 -0.03681491
-0.13131255 0.022839278 -1.549e-41 -0.018102864 -5.9212297e-18 0.068530865 0.25709426 0.020047715
0.034101035 -6.79361e-40 -1.3199278e-26 -0.042001173 0.27663097 -8.986868e-07 -6.00524e-40 0.18562035
-1.70522e-24 -0.0025803535 0.037806157 1.0843895e-27 0.1631764 -4.304303e-06 -3.2216322e-17 -0.015652668
-0.0024065778 -2.117e-42 -0.0508404 -2.0665774e-18 -6.632688e-08 -6.53218e-40 -0.00841111 -1.9339686e-05
-0.101563975 -3.8216504e-07 -0.007624318 -4.41736e-40 0.039624315 -5.0665803e-05 1.7356358e-23 -0.0003151857
0.11916214 0.16519856 0.12123709 -5.6368965e-05 -0.0002983332 -0.06281929 -0.003759077 -0.11613673
00000000: 7895 4fbc 0c8f b9ba 4fcb bdba 29a9 5db9
00000010: a601 c2b7 91d5 9ebc c78f 01be 4d81 633e
00000020: a0a8 373d 7d8c 22ba 7e04 a6bd 2225 c03d
00000030: b9e9 a69d c55b c43d 3ea6 0cb1 3bcb 16bd
00000040: cc76 06be 7019 bb3c 2e2b 0080 754c 94bc
00000050: 6f74 daa2 e959 8c3d dca1 833e 1b3b a43c
00000060: 87ad 0b3d c865 0780 25b8 8294 6c09 2cbd
00000070: 93a2 8d3e 493d 71b5 048a 0680 4313 3e3e
00000080: 5def 0398 261b 29bb a1da 1a3d 10d4 ab12
00000090: b717 273e ae6d 90b6 5292 14a4 063a 80bc
000000a0: adb7 1dbb e705 0080 063e 50bd 8b7c 18a2
000000b0: 976f 8eb3 e81c 0780 c1ce 09bc a93b a2b7
000000c0: c600 d0bd 5d2c cdb4 6ad5 f9bb 61cf 0480
000000d0: 1b4d 223d fe81 54b8 43dc a719 823f a5b9
000000e0: 480b f43d d029 293e 274b f83d b76d 6cb8
000000f0: 9b69 9cb9 66a7 80bd d95a 76bb 18d9 edbd

fc3.weight f4 [1, 64]
-0.0020227274 0.005092242 0.00077441323 -0.0008397607 0.0022462101 -1.5033306 -0.5613516 0.67458427
0.24892642 0.0034998953 0.53509957 0.31448314 -0.0009801148 0.7830099 -0.004721525 -1.040968
-1.0604341 0.23943406 -9.771227e-06 -0.33801663 2.1964468e-06 0.74707246 0.45309228 -0.73958665
-0.35442895 7.548044e-05 -0.0009852869 -0.41168082 0.49568743 -0.009697066 -1.9433633e-05 0.5726787
-0.000870177 3.5064546e-05 -0.31899863 -4.674655e-05 0.40178174 -0.0005248525 -0.00012428012 0.42954642
0.010017963 -0.0016867977 -0.9950004 -0.0010635457 -0.003573559 -1.1627193e-05 -0.00071230135 0.001550795
0.2161443 0.0016611861 -0.29516935 1.0190941e-05 0.24872072 -0.001158192 -0.00026567138 -0.00034478624
1.0842592 0.30169237 0.6917282 -0.008635283 -0.0011235599 -0.6227191 -0.0119653 -1.1625085
00000000: bc8f 04bb d2dc a63b fe01 4b3a 6323 5cba
00000010: 2735 133b 236d c0bf bdb4 0fbf 8eb1 2c3f
00000020: 91e6 7e3e 805e 653b 49fc 083f ef03 a13e
00000030: 3277 80ba 5673 483f 06b7 9abb 703e 85bf
00000040: 4ebc 87bf 342e 753e 1aef 23b7 8410 adbe
00000050: ab66 1336 2440 3f3f b6fb e73e 8d55 3dbf
00000060: b677 b5be 414b 9e38 be24 81ba d4c7 d2be
00000070: beca fd3e 71e0 1ebc 6905 a3b7 129b 123f
00000080: 971c 64ba 4512 1338 ca53 a3be ba11 44b8
00000090: 56b6 cd3e 4196 09ba 3151 02b9 82ed db3e
000000a0: 6222 243c 8a17 ddba 59b8 7ebf ac66 8bba
000000b0: 5f32 6abb 6a12 43b7 bcb9 3aba 0c44 cb3a
000000c0: ee54 5d3e 28bc d93a 7020 97be c2f9 2a37
000000d0: a5b0 7e3e 7ace 97ba cf49 8bb9 6dc4 b4b9
000000e0: 01c9 8a3f 6c77 9a3e 1915 313f 017b 0dbc
000000f0: 6a44 93ba 856a 1fbf 1b0a 44bc 14cd 94bf
