agent1_critic_net.pth (torch, 122719 bytes, 5 tensors)

fc1.weight f4 [256, 52]
000000 c3 22 52 3b d2 81 24 39 c7 c8 8f ba 7a 20 27 3a
       0.0032064177 0.0001568862 -0.001096987 0.0006375384
000010 1e 68 9d ba e1 92 e3 ba c7 c8 8f ba 7a 20 27 3a
       -0.0012009179 -0.0017362499 -0.001096987 0.0006375384
000020 74 de 93 3b 37 24 78 39 57 09 88 b8 9f b5 f2 39
       0.0045126025 0.00023664614 -6.486725e-05 0.00046293155
000030 22 9b 97 ba c6 09 fd ba 57 09 88 b8 9f b5 f2 39
       -0.0011566619 -0.0019305281 -6.486725e-05 0.00046293155
000040 d6 77 c5 3b bc 18 9e 39 b0 78 17 ba 79 7b 0e 3a
       0.0060262484 0.00030154537 -0.0005778177 0.0005435269
000050 fd f4 98 ba 42 7a 09 bb b0 78 17 ba 79 7b 0e 3a
       -0.0011669692 -0.0020977412 -0.0005778177 0.0005435269
000060 10 9b 75 3b 8a 69 0d b9 fe f0 e9 ba 98 9a 6f 3a
       0.0037476458 -0.00013486124 -0.001784831 0.0009140163
000070 1e 68 9d 3a e1 92 e3 ba fe f0 e9 ba 98 9a 6f 3a
       0.0012009179 -0.0017362499 -0.001784831 0.0009140163
000080 42 a2 9f 3b 8d 79 c0 b8 b4 d4 d3 ba ca a2 d2 b8
       0.0048716376 -9.177914e-05 -0.0016161413 -0.00010043902
000090 22 9b 97 3a c6 09 fd ba b4 d4 d3 ba ca a2 d2 b8
       0.0011566619 -0.0019305281 -0.0016161413 -0.00010043902
0000a0 0b 69 ce 3b 57 0d 51 b7 46 1f 97 ba 26 52 57 38
       0.006299143 -1.2460477e-05 -0.0011529706 5.13365e-05
0000b0 fd f4 98 3a 42 7a 09 bb 46 1f 97 ba 26 52 57 38
       0.0011669692 -0.0020977412 -0.0011529706 5.13365e-05
0000c0 e2 b7 d0 b8 67 d1 8d b9 5f f0 0a 38 34 6d 75 b9
       -9.952464e-05 -0.00027049633 3.3125627e-05 -0.00023405702
0000d0 82 dc eb 3a 11 cc ee b9 1d 13 a3 ba 2a 05 a7 3a
       0.0017994794 -0.0004554694 -0.0012441609 0.0012742628
0000e0 4e f2 84 b9 30 cc f3 ba 1d 13 a3 ba 2a 05 a7 3a
       -0.00025357533 -0.0018600281 -0.0012441609 0.0012742628
0000f0 55 27 55 3b 18 9b a2 b9 3f e5 f2 ba a1 81 de 3a
       0.0032524664 -0.00031014602 -0.0018531455 0.0016975888
000100 d5 f6 96 b9 09 b9 f8 ba 3f e5 f2 ba a1 81 de 3a
       -0.00028794134 -0.0018976043 -0.0018531455 0.0016975888
000110 a0 00 7a 3b e1 1a a4 b8 ec 22 59 b9 5d 73 07 3b
       0.0038147345 -7.825136e-05 -0.00020707742 0.0020668127
000120 92 6a 8f b9 e2 f4 ff ba ec 22 59 b9 5d 73 07 3b
       -0.00027354487 -0.0019527937 -0.00020707742 0.0020668127
000130 c1 3d 48 3b c1 b1 2c b8 f3 b6 d4 ba 81 45 b1 39
       0.0030554386 -4.1173542e-05 -0.001622884 0.00033811855
000140 4e f2 84 39 30 cc f3 ba f3 b6 d4 ba 81 45 b1 39
       0.00025357533 -0.0018600281 -0.001622884 0.00033811855
000150 eb 96 8a 3b a0 a8 7c b9 2c 1d 38 ba 74 28 77 ba
       0.0042294166 -0.0002409541 -0.000702339 -0.000942833
000160 d5 f6 96 39 09 b9 f8 ba 2c 1d 38 ba 74 28 77 ba
       0.00028794134 -0.0018976043 -0.000702339 -0.000942833
000170 78 08 aa 3b 82 9b de b9 89 75 8f ba 8f 0d 04 ba
       0.005188998 -0.00042459002 -0.0010945062 -0.0005037421
000180 92 6a 8f 39 e2 f4 ff ba 89 75 8f ba 8f 0d 04 ba
       0.00027354487 -0.0019527937 -0.0010945062 -0.0005037421
000190 cc af a5 39 f8 1a 0a 3a 25 a1 8b b9 a6 fc 9f b9
       0.0003160223 0.0005268301 -0.00026632208 -0.0003051508
0001a0 ce 51 fc 3b 6a 38 1a b9 e4 80 ab bb 79 11 b5 3a
       0.0077001816 -0.000147076 -0.005233871 0.0013814411
0001b0 f3 e4 89 bb 42 1b 04 bc e4 80 ab bb 79 11 b5 3a
       -0.004208201 -0.008063139 -0.005233871 0.0013814411
0001c0 6e d7 1e 3c 23 21 5c 39 f5 d6 5e bb f4 bc cf 39
       0.009694917 0.0002099318 -0.0034002636 0.00039622898
0001d0 ef d8 5b bb 23 54 1b bc f5 d6 5e bb f4 bc cf 39
       -0.003354605 -0.009480509 -0.0034002636 0.00039622898
0001e0 24 e1 47 3c 89 3c 1c 3a b4 a0 a4 bb e3 29 8e 3b
       0.012199674 0.0005959948 -0.00502404 0.0043384894
0001f0 a6 3f 02 bb 36 d3 29 bc b4 a0 a4 bb e3 29 8e 3b
       -0.0019874363 -0.010365298 -0.00502404 0.0043384894
000200 b9 68 00 3c 6a 6b 06 ba a9 8b 2f bb 74 10 0c bb
       0.007837468 -0.00051277 -0.0026786125 -0.0021372112
000210 f3 e4 89 3b 42 1b 04 bc a9 8b 2f bb 74 10 0c bb
       0.004208201 -0.008063139 -0.0026786125 -0.0021372112
000220 ba ac 0f 3c dc 7b 6f ba c0 e2 7d bb 10 ec d2 39
       0.008769209 -0.0009135583 -0.003873989 0.00040230202
000230 ef d8 5b 3b 23 54 1b bc c0 e2 7d bb 10 ec d2 39
       0.003354605 -0.009480509 -0.003873989 0.00040230202
000240 99 99 20 3c 72 c8 7e ba b6 1c 75 bb 3a 33 ca 38
       0.009802246 -0.00097192 -0.0037401146 9.641652e-05
000250 a6 3f 02 3b 36 d3 29 bc b6 1c 75 bb 3a 33 ca 38
       0.0019874363 -0.010365298 -0.0037401146 9.641652e-05
000260 b9 e0 9b 3a 54 01 52 3a 22 a1 ef ba 72 e3 71 ba
       0.0011892534 0.0008011062 -0.0018282274 -0.00092273124
000270 bc 10 52 3d c6 c8 64 3c 08 e3 4f bb cb 01 e0 bc
       0.05128549 0.013963884 -0.0031721015 -0.027344605
000280 c6 ee 1b bd f8 8a 3f bc 08 e3 4f bb cb 01 e0 bc
       -0.03806951 -0.011690848 -0.0031721015 -0.027344605
000290 f3 38 4d 3d 72 ea 44 3c f6 a0 0a bb 11 2e ec bc
       0.05010314 0.012018787 -0.002115307 -0.02883056
0002a0 21 97 ed bc 4f e1 b9 bc f6 a0 0a bb 11 2e ec bc
       -0.029002728 -0.022690443 -0.002115307 -0.02883056
0002b0 a4 b1 4f 3d f1 3a b4 bb 4c 7d 7d b5 f7 e3 12 bd
       0.05070652 -0.0055001904 -9.4432176e-07 -0.035861935
0002c0 e9 d2 39 bd 40 e2 00 bd 4c 7d 7d b5 f7 e3 12 bd
       -0.045367155 -0.03146577 -9.4432176e-07 -0.035861935
0002d0 de 15 44 3d 27 ff 85 3b cc ef 57 bb 8e a5 7a 3c
       0.047872417 0.0040892544 -0.0032949327 0.01529826
0002e0 c6 ee 1b 3d f8 8a 3f bc a8 40 57 bb 8e a5 7a 3c
       0.03806951 -0.011690848 -0.0032844935 0.01529826
0002f0 c1 5c 22 3d 59 e6 9b 3b 67 17 ec bb a2 c6 b0 ba
       0.03963924 0.004757684 -0.007204938 -0.0013486932
000300 21 97 ed 3c 4f e1 b9 bc 34 34 ec bb a2 c6 b0 ba
       0.029002728 -0.022690443 -0.0072083715 -0.0013486932
000310 7a 08 0d 3d 52 45 80 3b 60 9f fe bb 34 a1 1c bc
       0.034431912 0.0039145136 -0.007770464 -0.009559918
000320 e9 d2 39 3d 40 e2 00 bd 10 65 fe bb 34 a1 1c bc
       0.045367155 -0.03146577 -0.0077635124 -0.009559918
000330 fe ab 8c bb 70 99 56 3c 3c c6 0f 3a b2 42 22 bc
       -0.004292964 0.013098106 0.00054845563 -0.009903597
000340 60 7e 6a 3b ea 27 78 bc e9 3e 46 3a ab ed e5 b9
       0.0035780892 -0.015146235 0.0007562475 -0.0004385536
000350 b1 3e 3b bd 85 f2 35 bd 16 27 46 3a ab ed e5 b9
       -0.045714084 -0.044420738 0.0007558925 -0.0004385536
000360 fb 94 87 ba 18 e4 88 bc 69 56 20 3a c8 61 1f bb
       -0.0010344082 -0.016710326 0.0006116392 -0.0024319757
000370 16 5d 98 bd 5c 13 2c 3b c8 5d 20 3a c8 61 1f bb
       -0.0743963 0.0026256656 0.000611749 -0.0024319757
000380 0b a3 9f 3c cc a2 e2 3b 6a 1c 20 bb af 6e d9 bb
       0.019486925 0.0069163796 -0.0024430999 -0.006635509
000390 ac 0c b7 3b 6b 43 76 bc da 22 20 bb af 6e d9 bb
       0.0055862274 -0.015030722 -0.0024434836 -0.006635509
0003a0 06 9b bf 3b ca bb 5a bc 10 5a d6 b8 60 da 77 3b
       0.0058473377 -0.013350436 -0.000102210906 0.003781937
0003b0 b1 3e 3b 3d 85 f2 35 bd 6d 1f a6 b8 60 da 77 3b
       0.045714084 -0.044420738 -7.92135e-05 0.003781937
0003c0 17 1b f9 3a 4b da c7 bc fc a1 df b8 fc 7a 5a bb
       0.0019005266 -0.024396082 -0.000106636406 -0.0033337465
0003d0 16 5d 98 3d 5c 13 2c 3b 32 0e 0f b9 fc 7a 5a bb
       0.0743963 0.0026256656 -0.00013642831 -0.0033337465
0003e0 e7 4a 03 3d 4e ae 6e bc 54 e4 65 ba 52 b7 ca 3d
       0.032053854 -0.014567925 -0.000876968 0.09898247
0003f0 ac 0c b7 bb 6b 43 76 bc 93 5e 53 ba 52 b7 ca 3d
       -0.0055862274 -0.015030722 -0.0008063104 0.09898247

fc1.bias f4 [256]
000000 af 5e a1 b8 41 15 ab b9 7e d7 df ba c4 5b 6c bc
       -7.6947144e-05 -0.00032631497 -0.0017077771 -0.0144261755
000010 3a 5e 30 bc d3 3d 9e bc 46 70 80 ba a8 bc 37 bb
       -0.010764653 -0.01931659 -0.0009799085 -0.0028036032
000020 1f 91 b3 ba d7 24 42 ba d0 0f 9d b8 8d 65 45 bb
       -0.0013699866 -0.0007406002 -7.489289e-05 -0.0030120343
000030 1e 37 47 ba 4a 5e a5 bb 41 59 a8 ba ee e6 52 ba
       -0.00075994607 -0.0050466405 -0.0012843983 -0.00080452755
000040 1f 17 22 3c 7b a0 42 b9 6f 25 79 ba 45 ab 64 ba
       0.009893208 -0.00018561065 -0.0009504174 -0.0008723031
000050 6b 8d df ba 4c 31 40 bd c0 56 a2 b9 d5 a5 dd bb
       -0.0017055696 -0.046922013 -0.00030963682 -0.0067641535
000060 72 92 9f bc 14 79 64 bb 4b 42 48 b9 5b 33 9f b9
       -0.01947901 -0.0034862207 -0.00019098182 -0.00030365106
000070 20 a9 0e bd 3f e6 13 bd 8d bb 6c b8 6c b8 2c b8
       -0.03482926 -0.03610825 -5.6441455e-05 -4.1179752e-05
000080 d9 70 a0 ba fe 73 2b bb 08 de 41 ba cf 6f d1 b9
       -0.0012240662 -0.0026161666 -0.0007395451 -0.0003994689
000090 d8 3b 69 3c 6a 3a c1 3c 0c 04 22 ba b4 fb 0f ba
       0.014235459 0.023587424 -0.00061804126 -0.0005492524
0000a0 a3 7c 89 b9 c3 a8 79 ba 27 54 c8 b9 d8 c2 48 bb
       -0.00026223538 -0.00095237436 -0.0003820967 -0.0030633714
0000b0 13 b4 8a bb ce e9 38 bb de d3 01 3c 1c 0d 57 ba
       -0.0042328923 -0.002821553 0.007924048 -0.00082035526
0000c0 e8 bf 44 b8 c7 bb b6 ba 3d ce 0d bc fd 03 63 b9
       -4.6908768e-05 -0.001394146 -0.008655128 -0.00021649893
0000d0 7a ee b4 ba 7c 74 61 ba 7c 1a 55 ba 1c b2 19 ba
       -0.0013803982 -0.00086004264 -0.00081292517 -0.0005863027
0000e0 bf 65 db b7 8b fd e0 bb d8 bc f5 ba 0b dd 42 b9
       -2.6154214e-05 -0.006866162 -0.0018748296 -0.00018583627
0000f0 55 35 83 b9 8a 5f fb b9 83 c8 5d bb 34 e3 24 39
       -0.00025026003 -0.00047945633 -0.0033841438 0.00015724899
000100 5f 56 04 bd a6 b8 7e bb 91 5e bd bb 24 22 9b ba
       -0.032308932 -0.0038867383 -0.0057790955 -0.0011835736
000110 20 f8 22 ba a3 52 1b bb 4d 35 66 ba 20 e0 23 b6
       -0.0006216783 -0.0023700378 -0.0008781746 -2.441935e-06
000120 8c 60 90 bb d5 44 a7 b7 0b 9e 34 b8 2e 23 6f bc
       -0.0044060405 -1.9940004e-05 -4.3062533e-05 -0.01459579
000130 f5 4c 27 b6 fe f3 fc b8 4a 9d 19 b8 b8 a3 dd b6
       -2.4929734e-06 -0.000120617435 -3.662453e-05 -6.6053726e-06
000140 dd 16 5f ba 6f 7f a9 b9 e2 f1 2b ba 19 19 b9 ba
       -0.0008510182 -0.00032329137 -0.00065591757 -0.001412186
000150 5a e1 ca 37 81 f8 1d bb 72 39 da b9 1d 89 ba b8
       2.4185214e-05 -0.0024104419 -0.00041623 -8.8947105e-05
000160 d6 86 34 bc a8 86 96 bb be 93 71 3a 3f 74 ef 38
       -0.0110184755 -0.004593689 0.0009215436 0.000114180606
000170 c4 44 e6 b9 e1 44 52 bc 16 eb b3 ba e2 0a e7 ba
       -0.00043920253 -0.012833805 -0.0013726677 -0.0017627145
000180 d1 e7 bf b8 25 5e 9b ba 3e 64 94 ba 3c e3 e4 b9
       -9.150769e-05 -0.0011853619 -0.0011321378 -0.00043656852
000190 4b 38 ef b9 c2 69 32 bb b5 4f e2 ba b7 5a 27 ba
       -0.00045627574 -0.002722368 -0.0017266186 -0.0006384062
0001a0 b0 62 ff b9 df fa e7 b9 ec 2e 1f bb da da 6f bb
       -0.00048710918 -0.00044246667 -0.0024289442 -0.0036598952
0001b0 6e 98 95 b9 ad 50 49 bc c9 d6 0a b8 f0 f1 31 bc
       -0.00028533064 -0.012287301 -3.3101798e-05 -0.010860905
0001c0 f7 f1 49 ba aa 05 26 b8 dd 3a 7b b9 43 9e 17 b8
       -0.0007703597 -3.958276e-05 -0.00023959154 -3.6148598e-05
0001d0 f5 bd c1 b8 b6 da 8f 37 be 9f a5 ba 19 7b 26 ba
       -9.2383394e-05 1.7148774e-05 -0.0012636108 -0.00063507404
0001e0 81 d9 ad ba a3 0e ac 3b ec 78 2c bb fe 7a 0a bc
       -0.0013263674 0.0052507683 -0.0026317192 -0.008452175
0001f0 a6 82 ca bc 56 3e 12 bb 32 2c 4d bc 16 89 d9 ba
       -0.024720501 -0.0022314987 -0.012522744 -0.0016596641
000200 b0 08 00 b9 ec 78 9a b9 8a 13 f6 ba 12 82 d3 ba
       -0.00012210268 -0.00029463263 -0.0018774134 -0.0016136786
000210 d5 aa 15 ba 2f d1 17 bb 4f a2 0d b6 81 00 38 bb
       -0.0005709355 -0.0023165455 -2.1105113e-06 -0.0028076472
000220 40 e2 79 bb 74 27 be bb b2 a4 07 bc 01 bf 1b ba
       -0.003812924 -0.005803043 -0.0082790125 -0.00059412426
000230 f9 23 e3 b9 09 a1 71 bb bb 81 9f ba 6e 10 74 3a
       -0.00043323616 -0.0036869666 -0.00121694 0.00093103095
000240 b7 5a 91 bb 42 36 63 ba 81 0d 35 b9 39 6b 45 bc
       -0.004435863 -0.0008667448 -0.00017266536 -0.01204949
000250 e2 af 8b b9 6c 33 db b8 a4 c6 40 bc 95 fc 28 bc
       -0.0002664319 -0.00010452312 -0.01176611 -0.0103141265
000260 8d 4b 75 bc 50 18 29 bc 76 cd b0 bb 31 cb db bb
       -0.014971626 -0.010320738 -0.0053955866 -0.006707572
000270 6f 3c d8 ba d4 c4 05 b9 c6 27 61 bb 90 91 d5 b6
       -0.0016497503 -0.00012757193 -0.0034355982 -6.3648404e-06
000280 dd 72 89 ba bb e0 45 bb b3 7f df 39 bc aa 66 ba
       -0.0010486502 -0.0030193764 0.00042629018 -0.0008799245
000290 50 71 a8 b6 8b 03 f7 b9 7a b6 7d bc af 4d 89 bb
       -5.0199815e-06 -0.0004711415 -0.0154854 -0.004190169
0002a0 ff cd a4 ba c5 de 82 ba 3c ef 53 bb 74 c1 1f b8
       -0.0012573599 -0.0009984603 -0.003233864 -3.808872e-05
0002b0 8e fd ce bb bc e9 f7 bd d4 81 e8 b8 f2 d4 93 b6
       -0.006316847 -0.12105128 -0.000110868044 -4.4057315e-06
0002c0 43 25 b8 bb 66 87 83 b9 98 ef 25 bb 0c 20 e7 b9
       -0.0056196763 -0.00025087147 -0.002531981 -0.0004408363
0002d0 a2 c9 f2 b9 52 b2 6d ba 9f c5 12 bd b3 d6 96 ba
       -0.00046308065 -0.00090674043 -0.035832997 -0.0011508077
0002e0 56 8a 01 bb 31 1c 1a 3b 2e 97 64 bb 51 fe 04 ba
       -0.0019766293 0.0023515339 -0.003488015 -0.00050732965
0002f0 74 0e 40 b9 9e 8e d9 b9 95 ec 5a ba 0f 26 85 b8
       -0.00018315931 -0.00041495723 -0.00083512935 -6.349023e-05
000300 2d 9b b2 bb e9 e5 0e bd d8 1b a1 ba 61 24 49 ba
       -0.0054506273 -0.03488723 -0.0012291623 -0.00076729624
000310 b9 ea 8b b8 53 4e 83 bb f6 11 49 ba 37 2d 40 bc
       -6.671757e-05 -0.0040071397 -0.0007670218 -0.01172953
000320 f1 e2 f6 ba 09 87 2c bd fd 07 31 ba a4 19 a7 ba
       -0.0018835944 -0.042120967 -0.00067532045 -0.001274873
000330 4f cb 3b bb bc 92 5a ba 87 82 ab b9 56 7d b5 b9
       -0.0028655117 -0.0008337905 -0.00032712912 -0.00034616393
000340 16 97 69 b9 2b bb 00 bb 64 a8 19 39 06 ce 47 b9
       -0.00022276895 -0.001964281 0.00014653947 -0.00019054869
000350 dd 73 b3 bc 4c 33 2a b8 91 4b 28 ba 92 5f 43 ba
       -0.021905834 -4.0578932e-05 -0.00064199517 -0.0007452901
000360 58 f0 21 bb e5 32 2d bb 11 19 24 b8 a5 ff d0 bc
       -0.0024709906 -0.002642804 -3.9123992e-05 -0.025512526
000370 da e3 a7 bb 87 3b d3 ba b9 bc fa ba dd 59 2a 3c
       -0.0051235976 -0.0016115763 -0.001912973 0.010397402
000380 3c fa 4e bb 5b e1 92 b9 77 6c b2 bb c9 a9 e5 bc
       -0.0031582257 -0.00028015193 -0.005445059 -0.028035061
000390 b5 bf 09 b9 8c 67 53 ba 80 36 60 bb 86 99 84 bc
       -0.00013136755 -0.0008064441 -0.0034212172 -0.016186487
0003a0 b7 1a 32 bb 9f 03 bf ba fc bb 8c ba 68 87 84 3e
       -0.0027176568 -0.0014573223 -0.0010737176 0.25884557
0003b0 56 b0 ee ba d4 ce cf bb 33 12 89 bb 17 0c 1a b9
       -0.0018210511 -0.0063417945 -0.0041830777 -0.00014691088
0003c0 df 73 85 bb aa 31 90 b6 0f 9f a5 bb 0b bb 2a b9
       -0.004072651 -4.297316e-06 -0.0050543617 -0.00016282142
0003d0 5c c6 7a ba 5d 33 39 b9 da 4f dc b9 c4 7a 4e 3a
       -0.0009566301 -0.00017662109 -0.00042021164 0.000787657
0003e0 8d 8e 6e b8 dc 00 9f b9 6b 1f c1 3b 2f e6 dd bb
       -5.6876383e-05 -0.00030327484 0.005893638 -0.006771825
0003f0 ed 2f 1f bc 9f 37 15 bb 95 29 14 b9 45 34 83 bb
       -0.009716016 -0.0022768748 -0.0001412987 -0.0040040337

fc2.weight f4 [64, 256]
000000 14 f9 c3 2f 1c 67 8c 31 8c de e2 b3 72 d0 cc 35
       3.5647274e-10 4.0862584e-09 -1.0564426e-07 1.525985e-06
000010 e9 ca f6 b6 ad 11 c8 35 32 6b b7 34 cb f7 e5 35
       -7.354993e-06 1.4906306e-06 3.41644e-07 1.7133947e-06
000020 8c 6c c6 b1 a2 2e a0 34 0c 29 50 b1 52 a6 05 31
       -5.774899e-09 2.9836252e-07 -3.0291316e-09 1.944859e-09
000030 d5 74 08 32 53 f7 57 32 84 25 d2 b4 82 e9 6d 32
       7.942806e-09 1.2570882e-08 -3.9142844e-07 1.3848309e-08
000040 4e 23 27 38 c0 a1 6b af ac e4 a7 b2 24 10 f2 b0
       3.9848783e-05 -2.143059e-10 -1.9545347e-08 -1.7612405e-09
000050 b2 25 84 31 66 1f 8c bb f5 d9 1b 28 69 22 26 32
       3.845991e-09 -0.004276204 8.65149e-15 9.670296e-09
000060 d9 1e b9 b4 1a 21 8d b2 50 2a 3a b0 e6 21 19 32
       -3.448138e-07 -1.6429613e-08 -6.7726535e-10 8.91348e-09
000070 2a 49 78 b8 2a 39 dc b9 32 02 f3 31 60 8a aa a5
       -5.9195947e-05 -0.0004200426 7.0724804e-09 -2.9584066e-16
000080 3e 4c fa 32 7b d3 d2 34 e8 cd 50 2f 5b 2c a6 31
       2.9138501e-08 3.926942e-07 1.8990642e-10 4.8362785e-09
000090 08 60 fb b9 9d 03 66 b4 29 24 a5 33 88 7f b2 a6
       -0.00047946 -2.1421734e-07 7.689989e-08 -1.2385799e-15
0000a0 77 c5 ba 32 2b f8 17 b1 74 c7 d9 1d a8 3c c5 b4
       2.1743046e-08 -2.211446e-09 5.764565e-21 -3.6738243e-07
0000b0 50 b9 31 35 5c 51 23 b4 88 a9 ab b9 98 d9 8e 30
       6.6207303e-07 -1.5210156e-07 -0.00032741972 1.0393704e-09
0000c0 66 42 a2 b1 38 d1 1b 33 46 4b 90 b2 64 a6 31 32
       -4.722369e-09 3.6279033e-08 -1.6798037e-08 1.0340589e-08
0000d0 21 16 66 b1 90 6b 09 b3 01 d3 bb 30 61 dd ed b2
       -3.3481984e-09 -3.1995626e-08 1.3666012e-09 -2.7691103e-08
0000e0 20 04 9e 2f e7 6a d1 2f 45 64 36 ba 01 2a 2b b0
       2.8742964e-10 3.8092837e-10 -0.00069576903 -6.226913e-10
0000f0 82 40 3c 30 ae 26 09 b1 07 f9 96 b2 ce f6 54 2f
       6.848567e-10 -1.995811e-09 -1.7575543e-08 1.936897e-10
000100 7e 13 6c b6 30 75 c8 38 f3 f3 ad 34 4f a4 eb 34
       -3.5178086e-06 9.558571e-05 3.2401257e-07 4.389171e-07
000110 b3 61 2c 31 66 e2 7f b2 6c 25 13 ad 2f 3f fb 2d
       2.508483e-09 -1.4894431e-08 -8.364292e-12 2.8563455e-11
000120 7f 2b 1a b1 84 11 c1 22 10 f4 f1 ab f2 7f 4b b3
       -2.2434674e-09 5.23313e-18 -1.7191821e-12 -4.7380986e-08
000130 50 b6 37 9d 77 de 39 2f 77 35 48 9d 50 16 0e 23
       -2.4314102e-21 1.6904687e-10 -2.649742e-21 7.70256e-18
000140 3f 97 e6 2f 1a 23 a3 b0 49 23 32 b3 f8 e6 91 32
       4.1944223e-10 -1.1869787e-09 -4.1475946e-08 1.6985254e-08
000150 de a4 41 a1 9e be d0 34 ee 69 72 a7 b5 29 29 a7
       -6.5609143e-19 3.888171e-07 -3.3641671e-15 -2.347607e-15
000160 9b 71 5d b2 21 09 2a b5 ff 63 26 ba 24 56 b7 ae
       -1.2889724e-08 -6.334322e-07 -0.0006347298 -8.337178e-11
000170 89 03 29 32 b3 1a 22 ba 80 8c 87 b2 b0 84 fa b3
       9.8378985e-09 -0.0006183788 -1.577996e-08 -1.1665668e-07
000180 b8 0d 67 af 7b f6 91 b2 06 05 8c b2 ca 0a 4d 32
       -2.1014201e-10 -1.6992308e-08 -1.630043e-08 1.1935024e-08
000190 fb 18 d1 32 de 90 d8 b0 63 24 5c b3 71 ca e4 32
       2.4342162e-08 -1.5757242e-09 -5.1255835e-08 2.6634753e-08
0001a0 28 0e d8 32 c6 7b 82 34 95 88 37 36 34 72 a4 33
       2.5152147e-08 2.4304444e-07 2.7348626e-06 7.6576185e-08
0001b0 33 d7 ec b0 30 34 0e 1a de 15 f9 af cc ac 9e 35
       -1.7232423e-09 2.940707e-23 -4.5308374e-10 1.1822208e-06
0001c0 44 c4 99 32 32 b1 0f 28 63 3f 75 32 e0 43 6d af
       1.7900796e-08 7.976518e-15 1.4275289e-08 -2.1579138e-10
0001d0 36 50 f2 b1 5e e9 50 b1 17 d4 64 b1 c0 92 b8 30
       -7.052246e-09 -3.0400638e-09 -3.3298926e-09 1.3429471e-09
0001e0 36 3b 82 2b c0 23 5d ba 03 54 97 b3 cd f4 a2 b6
       9.25349e-13 -0.0008435808 -7.046767e-08 -4.856475e-06
0001f0 5f b0 68 b4 4e 1c c6 34 94 c7 a7 b0 f2 89 e5 b2
       -2.1670847e-07 3.6900968e-07 -1.2207573e-09 -2.6721839e-08
000200 73 2e a3 a6 ae f1 83 b1 d5 20 b8 33 1e 49 a5 31
       -1.1322987e-15 -3.8400776e-09 8.57414e-08 4.8104445e-09
000210 95 57 03 b0 24 02 36 30 60 34 ee 22 64 c6 76 b4
       -4.7781984e-10 6.6214256e-10 6.4565483e-18 -2.298271e-07
000220 f6 fb 7e b3 d6 04 a1 34 8d 41 98 b6 24 cd b9 b1
       -5.936814e-08 2.9992106e-07 -4.537584e-06 -5.4075304e-09
000230 d4 1c 8f b9 8e c3 43 33 15 96 15 33 88 91 b7 35
       -0.00027296564 4.557983e-08 3.4828265e-08 1.3676918e-06
000240 3d ba 69 35 64 75 9a b1 ae b1 14 31 16 7d 12 31
       8.7070276e-07 -4.4953357e-09 2.1637834e-09 2.13169e-09
000250 e3 1c 92 32 92 43 4d b2 8f bc d1 b4 14 aa 8c b1
       1.7009773e-08 -1.1947934e-08 -3.9066478e-07 -4.093872e-09
000260 64 63 89 b9 6b ce 0b b8 e4 87 10 b5 9d 33 c5 33
       -0.00026204728 -3.3332424e-05 -5.384193e-07 9.182916e-08
000270 8a 6d b2 b5 67 8d 50 ae 2e 7a fc b3 ae 0a 04 26
       -1.3293914e-06 -4.7419315e-11 -1.1756889e-07 4.5811173e-16
000280 95 fb 06 2b 94 1e b4 28 00 66 d0 32 6a 07 46 b1
       4.7955504e-13 1.9997276e-14 2.4260771e-08 -2.8817007e-09
000290 40 01 19 b0 18 14 c1 b0 7d 65 3a b9 ec 87 b8 b5
       -5.566285e-10 -1.4048309e-09 -0.0001777615 -1.3748627e-06
0002a0 70 c7 f9 32 cf e0 74 31 0f ae d2 36 a4 2e 5e ae
       2.9078109e-08 3.5634462e-09 6.278751e-06 -5.051838e-11
0002b0 c3 4c 4b b2 c9 9a 4c 37 16 5d 58 20 0a dd 09 a4
       -1.1833609e-08 1.2195386e-05 1.8326711e-19 -2.9894367e-17
0002c0 bb 33 ca 35 f1 fe 04 b2 92 11 d6 34 4f a8 95 b2
       1.5065228e-06 -7.741378e-09 3.987339e-07 -1.742242e-08
0002d0 e8 70 e1 22 cb 78 0e b4 db 47 9d b9 58 bb 0f b1
       6.1105916e-18 -1.3268725e-07 -0.0002999891 -2.0915731e-09
0002e0 41 51 a0 b4 ae 9f 5a b8 1b 59 b9 35 59 0f ee b0
       -2.9861442e-07 -5.2123964e-05 1.3809507e-06 -1.7321141e-09
0002f0 7f 09 7d ba ed c5 4b 30 88 a5 37 32 ec 6c 8f ad
       -0.0009652599 7.413224e-10 1.0689639e-08 -1.6305589e-11
000300 9b e2 04 35 85 c1 2c b9 7a 1b 45 b2 10 38 6c 32
       4.9503586e-07 -0.0001647529 -1.1473157e-08 1.3749755e-08
000310 b0 6f 0b 30 89 3f 54 35 94 df 19 b3 8e e2 71 b9
       5.0726623e-10 7.906861e-07 -3.582643e-08 -0.00023067949
000320 15 53 9d b5 08 6a 29 ba 98 75 16 32 40 be 18 b2
       -1.1721592e-06 -0.0006462638 8.757887e-09 -8.890822e-09
000330 c6 23 dc b4 e9 42 02 32 31 95 fc 34 88 e0 0d 2e
       -4.1004222e-07 7.5822095e-09 4.704721e-07 3.2259112e-11
000340 f8 bf 90 31 25 36 a6 32 ce d9 eb ae 6b 04 49 b2
       4.212776e-09 1.9349566e-08 -1.07252526e-10 -1.1700744e-08
000350 13 8b 69 b8 c1 2f 1d af 14 ef 6d 34 3e 39 83 b1
       -5.5681052e-05 -1.4296032e-10 2.2159321e-07 -3.8191095e-09
000360 48 6c 10 25 72 3a 0e 39 59 81 08 af 2f 93 39 35
       1.2526696e-16 0.00013563948 -1.2415081e-10 6.913205e-07
000370 74 5b c2 32 6b fe 15 b2 94 59 ec 30 08 df f6 b6
       2.262616e-08 -8.730789e-09 1.719672e-09 -7.3573356e-06
000380 44 f6 12 35 a7 d1 c0 af 76 f3 84 39 e9 0c 13 b7
       5.47476e-07 -3.5073563e-10 0.00025358394 -8.764889e-06
000390 44 fb 7e 21 fa ac 53 af 42 84 8e 33 d8 10 11 ba
       8.6391095e-19 -1.9251792e-10 6.636448e-08 -0.0005533821
0003a0 f2 95 ad 33 00 14 35 ae 80 78 a0 af 7f 71 26 ba
       8.083215e-08 -4.11724e-11 -2.918945e-10 -0.00063493097
0003b0 c7 b7 2a b2 28 2c 7a 39 10 f1 4f b8 a4 c6 30 31
       -9.9370885e-09 0.00023858307 -4.9577153e-05 2.5724285e-09
0003c0 08 45 d5 36 42 05 ea 24 a3 50 b1 b5 ca 94 ab b1
       6.355931e-06 1.0149023e-16 -1.3210996e-06 -4.9936704e-09
0003d0 df 3e 61 b2 86 30 27 31 ae 91 39 32 8b 8b c5 b9
       -1.3111019e-08 2.432928e-09 1.0801541e-08 -0.00037678736
0003e0 dc 08 a5 b2 02 79 1b b2 00 cc 4b 36 12 83 4d 31
       -1.9212557e-08 -9.049701e-09 3.03681e-06 2.990593e-09
0003f0 fe de c6 af 60 ac b2 b2 38 92 26 b1 74 a8 61 33
       -3.6174436e-10 -2.0800314e-08 -2.4239295e-09 5.2540102e-08

fc2.bias f4 [64]
000000 6c 9b 17 ba 37 63 c1 b7 97 31 2a b2 2b 24 29 bd
       -0.00057833525 -2.3053593e-05 -9.906578e-09 -0.041294258
000010 31 dc ff b9 ce b5 19 3e 71 23 90 bc e5 8d fb 3d
       -0.00048801446 0.15010759 -0.017595025 0.122829236
000020 56 6b cf b7 d1 c8 3a b0 ca d7 3b b6 d8 f1 1e 3e
       -2.4726305e-05 -6.7951783e-10 -2.7990777e-06 0.15521944
000030 14 93 09 bc 20 81 70 a4 60 85 15 ba 44 bc 10 3e
       -0.008396883 -5.2151077e-17 -0.00057037733 0.14134318
000040 0b 9a ab a1 16 ff b8 b6 5a 4f c9 b7 14 01 4b b5
       -1.1628186e-18 -5.5133232e-06 -2.3998018e-05 -7.562496e-07
000050 f2 04 30 b4 32 d9 15 3d c8 3f 57 ac 2e 54 55 bd
       -1.6393076e-07 0.036584087 -3.0588743e-12 -0.052082233
000060 66 a9 76 bc 9d 1e 18 3d fc 8b be bc 8c 51 b3 bd
       -0.015055036 0.03713857 -0.02326011 -0.08755788
000070 4a 29 a8 bd a6 a3 2c b3 80 9a 14 b1 a5 02 1b 85
       -0.08211 -4.0195708e-08 -2.1624658e-09 -7.288551e-36
000080 cd 70 47 bd 93 0d bb b0 e9 06 a5 bd bc c9 a7 3c
       -0.04869156 -1.3609899e-09 -0.08057959 0.020481937
000090 02 7f c5 3c 12 85 b6 a6 35 6b b7 b1 bf ba 83 3d
       0.024108414 -1.2664856e-15 -5.338189e-09 0.06432103
0000a0 b1 df 83 bc 0f 80 e5 3c a0 98 a5 b4 51 36 87 a6
       -0.016097875 0.028015165 -3.0844694e-07 -9.382229e-16
0000b0 a7 64 55 3c f3 30 31 b6 3a 02 fc b6 e9 0a cc b7
       0.013024486 -2.6403548e-06 -7.5104444e-06 -2.4323776e-05
0000c0 2f 51 ce bd 5c 6b 50 bc 14 a6 dd b0 64 10 62 ab
       -0.10074078 -0.012720909 -1.6127069e-09 -8.0314076e-13
0000d0 8c 9a 9a b3 ad db 53 b5 48 b2 a5 b9 6c 6b 89 bb
       -7.199296e-08 -7.8923296e-07 -0.00031604082 -0.004193714
0000e0 6a e8 5d b3 ec 81 65 bd 17 b6 5e 3d 4c eb 82 b9
       -5.166695e-08 -0.056032106 0.054372873 -0.00024970842
0000f0 77 62 13 3e 4c 8a ca 3c 51 a5 86 b1 32 c7 bb b3
       0.1439303 0.024724148 -3.9187076e-09 -8.7440995e-08

fc3.weight f4 [1, 64]
000000 4e 4d d4 bb 28 75 8b 39 2c 7c 7c 30 83 73 89 be
       -0.006478942 0.00026599434 9.1853525e-10 -0.2684594
000010 a5 f7 c1 3b 61 38 3f be 77 d3 40 be 13 c8 55 be
       0.005919414 -0.1867385 -0.18830667 -0.20877104
000020 51 a0 97 39 36 0b 4b b1 cc 0d 30 36 ab cb 93 be
       0.0002892041 -2.954676e-09 2.6234075e-06 -0.28866324
000030 04 7d 8d be 6c 9c 16 37 51 ad f9 38 e9 39 44 be
       -0.27634442 8.9771165e-06 0.00011905528 -0.19162716
000040 57 b2 6d b8 cc 74 98 b7 b6 6a e6 bb 23 b5 05 33
       -5.6671295e-05 -1.81742e-05 -0.007031764 3.113122e-08
000050 b6 c1 94 39 30 68 7a 3e f5 6c 3a 3a 68 19 c7 be
       0.00028373086 0.24453807 0.0007111573 -0.3888657
000060 a2 8b 05 be 9e 9d 50 3e 62 63 1f be f3 59 9b be
       -0.13041547 0.20372626 -0.15565255 -0.30342063
000070 38 80 ad be b6 48 53 39 10 51 37 32 c8 68 64 39
       -0.33886886 0.00020149615 1.0670433e-08 0.00021782808
000080 9b f3 81 3e 6e 69 80 ae d8 a0 be be e8 a4 7b be
       0.2538117 -5.839494e-11 -0.3723209 -0.24574625
000090 3f 0c 39 3e 93 dd 3b a7 b0 6f 17 b9 b2 c9 bd be
       0.18071078 -2.6071579e-15 -0.00014442089 -0.37067944
0000a0 ff 12 14 be 9e d0 23 3e 09 50 ff b9 0a 8b c5 3a
       -0.14460371 0.1599755 -0.0004869702 0.0015071344
0000b0 ec fe 9d bd 00 cd 75 b8 29 a8 98 3b 55 88 f3 36
       -0.07714638 -5.8603473e-05 0.004658718 7.2578355e-06
0000c0 4c 36 cc be fb 5b 61 3e c1 27 6b 3a b7 67 14 b7
       -0.39885175 0.22007744 0.00089704624 -8.845635e-06
0000d0 ed 53 05 3b e7 8f 46 3b a2 bb bf ba a2 31 5c be
       0.0020344213 0.0030298175 -0.0014628062 -0.21503308
0000e0 ea c2 32 3b 92 bc 25 3e 08 2a 7c 3e 11 72 4f b8
       0.0027276822 0.16185215 0.24625409 -4.945888e-05
0000f0 9e 35 eb 3e 6c 62 de bd df 94 37 ba da fe ed b3
       0.45939344 -0.10858616 -0.00070030795 -1.108253e-07
