agent0_actor_net.pth (torch, 160607 bytes, 6 tensors)

fc1.weight f4 [256, 24]
00000000: 0b47 c5bc 9961 eebc 24e7 683d d726 b7bc
00000010: 9ac5 a63c ff2b e6bd 9537 bb3c 4447 47bb
00000020: 75ac 4abc 7dca a63b 3ba8 953d 7e40 a93b
00000030: 249c d53c b51d 803c 5062 a3bc 7b9b 29bd
00000040: 3a36 acbc d083 89bd 3981 44bc 0eca acbc
00000050: d86e cdbd b2f7 293e e9d8 bc3c 64ef a1bd
00000060: d797 52bd ee87 97bd c405 103d e49f 8e3d
00000070: bd6c febd 889c b5bc e8bf b4bc 6cc0 423d
00000080: e151 54bd 81ba b1bb ace5 6f3d 3b9f 813c
00000090: 5aa8 64bd 93ab bdbd b657 0cbd e643 6f3d
000000a0: bd91 0ebd 2801 4abd 124d 0d3d 6cb3 b0bc
000000b0: 0e1d 62bc afbd 16be 3b0c 8f3c 24e3 3ebc
000000c0: 6c02 0fbd b353 113d 1ea1 db3b acb4 85bd
000000d0: d015 75bd 9166 80bd 907b 073d be16 be3c
000000e0: 3d04 64bb 960e 693d 0219 3f3c 4ad0 a0bd
000000f0: 2755 c9bd 8de9 253b 0660 013b 3908 84bd
00000100: ca89 013d 2fcc febc d9b3 66bd a42e 81bd
00000110: 5a77 ebbd ffc9 6fba 1ad3 dabb f8c9 14bb
00000120: dcae 863c 3746 b7bc 8fa0 673d 4b15 ddbd
00000130: 35ac b7bd 4327 eebb cbc2 eebc 9df8 3fbd
00000140: 806d 4d3c 8d78 97bb 1260 36bd d995 d7bb
00000150: e72f 46bd ddde a1bc e442 bbbc 588a 50bd
00000160: 9109 323d 3034 2f3c 5301 203d efdb 903c
00000170: 77e7 4ebd f8e5 e23d a879 b03b 877a 94bd
00000180: 4bac 773c db4f f0bc 89c1 2dbd a7ef 49bd
00000190: 82c3 2bbc 423a 47bc 711a 243b fc41 00bc
000001a0: 6b26 0b3d 89c4 7fbd 04ea 4a3d e15e 253d
000001b0: 9853 1cbd 0f6a bc3c fc89 c23c 10fc 0a3d
000001c0: 982f 5abd 8fb2 2bbd 7553 7dba e447 cfbc
000001d0: e759 03be 6674 103e bc15 c43c 59a7 853d
000001e0: 73b4 00bd e6f8 80bd 7b96 073d 13ae 69bd
000001f0: 7cbe b1bd 88b8 fabd 7e61 d9bc 5cb5 56bc
00000200: 0c23 46bd b042 30be 3870 8d3d 057b 0a3c
00000210: 6fe3 283c e4f3 1abe 9c71 8ebc 655b 7ebd
00000220: fded 06bd 2f62 fcbd b7a4 563d 51bb c43c
00000230: 10d3 8bbc dbcc e6bd 4578 debb 4d91 713c
00000240: 5bc2 74bd 0519 a3ba f9eb fbbb a433 adbd
00000250: 94c8 9a3d bea2 823d aa59 b8bc 318a e6bd
00000260: ce9b 6abd 3dee 33bd 8ed0 b73b 6d37 cbbd
00000270: 72f7 353d ed46 d13d bca8 723c a97e 55bd
00000280: 1e38 3fbc c5a1 90bd 9bfc 27b9 65a9 88bc
00000290: e48e 303d 741a 1a3e 7960 5d3d c8d3 94bd
000002a0: 7719 953d 054b 063d 0d58 103d 0e19 053c
000002b0: 876b 163d a31e 33bd ad60 83bc 8085 6ebd
000002c0: a89b 94bc 72f0 febb 72e4 2cbd d832 71bd
000002d0: c216 1e3c b172 24bd 5651 30bd d6b2 d5bc
000002e0: e1e2 84bd 5fea 803c 3aa6 053d 1db4 6fbd
000002f0: b9b9 0ebe fcca d63d 7c8a 48bd 68b9 98bc
00000300: e006 32bd 4226 97bd dd34 47bd d0e6 d439
00000310: 83bd 06be 9a50 093e 9576 ae3b 78a0 e23b
00000320: cbaa 2b3d a545 efbd f84c 93bc eab6 143d
00000330: fec9 8ebc 64b1 6f3d cc3d 9f3d c33a 58bd
00000340: 37f8 a9bd 0c6e afbd 9bd4 753c a51d f1bd
00000350: a5ba 63bd 41e6 d73d 07cc a93c 423a d4bd
00000360: a355 343d 8d0c 9abc 0fca 53bc 53ae 45bd
00000370: 9568 a5bc 6bd2 8a3d bb66 2e3c 893f b6bd
00000380: f25e 0e3d 2192 58bd 863e 943d 3cab 88ba
00000390: b491 e33d 6172 cb3d ec95 573d 16ec 823d
000003a0: 1abe 30bc a57d a8bd 5fd5 b6bc 71b0 233d
000003b0: eda2 f53d 0ef6 573e a1e9 c33b 2f79 833c
000003c0: aa06 81bd fcea 103e b44a 423b 11f9 f73c
000003d0: 30dd 363c 96af 7b3d a55d 69bd c3da bc3d
000003e0: 8241 a6bd b7c4 0c3e a612 90bc 9b14 9b3d
000003f0: 1e59 8d3d cc1a 9b3d bc50 89bd d56a 8bbc
-0.024081727 -0.029099273 0.056861058 -0.022357387 0.020357896 -0.1123886 0.022853652 -0.0030407468
-0.0123702185 0.0050900565 0.07307478 0.005165159 0.02607543 0.015639165 -0.01994434 -0.041408043
-0.021021951 -0.06714594 -0.0119937 -0.021092441 -0.100309074 0.16598395 0.02305265 -0.07906988
-0.051414337 -0.073989734 0.03516175 0.069640905 -0.12423084 -0.022169366 -0.022064164 0.04754679
-0.0518359 -0.0054238443 0.05856864 0.015822997 -0.055824615 -0.09261241 -0.034263335 0.058414362
-0.034806956 -0.04931751 0.034497328 -0.02156993 -0.0138008725 -0.14720796 0.017461887 -0.011650834
-0.03491442 0.035480212 0.0067025563 -0.06528601 -0.059835255 -0.06269563 0.033076823 0.023204204
-0.0034792565 0.056898676 0.011663677 -0.07852228 -0.09830695 0.002531621 0.0019741072 -0.06446881
0.031625547 -0.031103222 -0.05632386 -0.06307724 -0.11497374 -0.0009147226 -0.0066779973 -0.002270339
0.016440801 -0.022372348 0.056549605 -0.10795077 -0.08968393 -0.007267864 -0.029145619 -0.046867955
0.012538314 -0.004622525 -0.044525214 -0.0065791425 -0.048385527 -0.01975959 -0.022859044 -0.050913185
0.043466154 0.010693595 0.039063763 0.017682998 -0.05051371 0.11079019 0.0053855963 -0.07249933
0.015116761 -0.029334953 -0.042420898 -0.049300816 -0.010483624 -0.012159886 0.0025040174 -0.007828232
0.033972185 -0.06244329 0.04953958 0.040373687 -0.03816566 0.022999791 0.023747437 0.03393179
-0.053268045 -0.041918334 -0.000966362 -0.025302835 -0.12827264 0.14106902 0.023936145 0.0652606
-0.03142209 -0.062974736 0.033102494 -0.057050776 -0.0867891 -0.12242228 -0.026535746 -0.013104763
-0.048373267 -0.1721294 0.0690617 0.008452182 0.010308131 -0.151321 -0.017388158 -0.06209888
-0.032941807 -0.123234145 0.052403178 0.0240151 -0.017068416 -0.11269542 -0.0067892396 0.014744115
-0.059755664 -0.001244337 -0.0076880422 -0.08457115 0.075577885 0.06378697 -0.022503693 -0.11256827
-0.057277493 -0.043928374 0.0056095785 -0.09922681 0.044425435 0.10218606 0.014810737 -0.052122746
-0.011671094 -0.07062105 -0.00016020464 -0.016682336 0.04310502 0.15049154 0.05404708 -0.072669566
0.07280248 0.032786388 0.03524022 0.008123649 0.03672364 -0.04373039 -0.01603731 -0.058232784
-0.018140629 -0.007780128 -0.04221005 -0.05888638 0.009648981 -0.04014844 -0.043046318 -0.026086252
-0.06488586 0.015736757 0.03262923 -0.05852138 -0.13938035 0.10487935 -0.048960194 -0.018643096
-0.043463588 -0.07380344 -0.0486344 0.0004060776 -0.1315823 0.13409653 0.0053241947 0.006916102
0.041910928 -0.116832055 -0.017981037 0.036307253 -0.017430302 0.058518782 0.07775459 -0.052790415
-0.08299296 -0.08565912 0.015004302 -0.11773232 -0.05559792 0.10541964 0.02072717 -0.10362674
0.044026982 -0.018804813 -0.0129265925 -0.04826195 -0.02019147 0.06778415 0.01064461 -0.08898837
0.034758516 -0.052873734 0.07238488 -0.0010427008 0.11111775 0.099339254 0.05263321 0.06392686
-0.010787511 -0.0822709 -0.02231854 0.03996319 0.11993966 0.21089956 0.0059787785 0.016048996
-0.06300099 0.1415214 0.0029646577 0.030270131 0.011161134 0.06144675 -0.056974072 0.09221413
-0.081179634 0.13746916 -0.017587017 0.075722896 0.069017634 0.075734705 -0.06704852 -0.017018715

fc1.bias f4 [256]
00000000: 8d62 16be 7b7b 463e 6bfc 75bd 3031 933d
00000010: 0b14 dfbd c29d 443d d6fc 173e 91b0 623e
00000020: 9176 cbbd 519a 30bd 1624 06be 0402 c23d
00000030: c68a 3bbe 8f7c efbd b610 36be f115 e6bd
00000040: 6ecf 35bc 70e7 f0bd 95b8 593e ff4f 10bc
00000050: 50c7 423e 910b 8a3d 47e5 42be 04da 003e
00000060: 9f9a 3d3e 0499 273e b373 fc3d 3971 253d
00000070: fdbe e3bc 4034 83bd bae4 5d3a 7e37 76bd
00000080: 9423 903d f2fb a9bc 9c98 d93c 5478 713c
00000090: 48ad e43d a78d 343e 3dc3 383e 8eda 193d
000000a0: c591 3bbd 211f d7bd f56a 84bd 4e7f 33bd
000000b0: 37df 653e b04e cebc 022a e13d e5ef 2ebe
000000c0: db81 c1bd d4b5 42be 9fe3 cf3b 53ce 5f3e
000000d0: d9eb c03d 8243 fe3d a88b 24be d8b0 52be
000000e0: ec86 8e3d 2b95 e83b ea69 5b3d 4ac5 683e
000000f0: 15a3 acbd 18a2 babd 3867 cdbd bebd 443e
00000100: da14 19bd 8e59 38be 7604 3bbe 9419 05bd
00000110: 78db b9bd 77d3 c33d a43e 56be 189e 8ebd
00000120: d1d2 2c3e b754 c23d 6cf1 98bd ff4b b63c
00000130: 7fdb 2ebe ffcb 0f3e 3b75 323d 4074 7cbd
00000140: 4e9f ca3d e812 17be 88d7 a1bd 6a27 e7bc
00000150: bbb3 933d 2a72 793d 17d5 bc3d d2e3 583e
00000160: 3548 043e d36c b5bd 2266 6c3c 4b01 3d3d
00000170: cf6a f3bd 5ac9 203e 80cf c33d e77f db3d
00000180: eb4a cd3d 1081 d93d 5afd f1bc 61cc 963d
00000190: 2c25 c5bd d323 f1bd f4ce 343e 3f8a 0dbd
000001a0: d4e5 c73d 1e98 fbbd e1cf 143e 6fb6 413d
000001b0: 5d1d b13c 4f9b f33d a2a9 703d 90d0 aa3d
000001c0: 6f6d 523e 2136 e63d 995e a7bd 6136 073c
000001d0: ab65 10be 3093 093e b95e b13c 19ef 8e3c
000001e0: a729 1a3e 1337 c73d c213 183e a94c 8f3c
000001f0: 796a 213e 003e 0e3e 1263 f6bc 8d19 78bd
00000200: f1bb 1b3d 85d2 bd3d 7999 8c3c 3cd1 9ebd
00000210: 11bb c6bd 6bf8 9b3d 0384 153d 290b a83d
00000220: 8994 a5bd 7b0a be3d 8a09 9d3d d852 8bbd
00000230: 734c 1fbc 71dc 583e acdf be3d 3c1a a73d
00000240: 51b9 48bd a35a 16bc 80c0 b4bc f2c7 28be
00000250: 24b6 60be d328 353b aca5 c73d 00fb d53d
00000260: 1fe3 313e 6665 1c3d 175d fdbb b5da 4b3e
00000270: dce8 c9bd aedb b83c a241 81bd d795 3abd
00000280: 5ad4 94bc 6fbe 053e 4c04 cc3d bc94 f4bd
00000290: 4213 22be 7e91 1c3e 3078 123d d7b0 19bb
000002a0: 391f c6bd 7e71 ea3c 698e 3c3d 4377 6c3e
000002b0: 3412 383e 559a 20be 0998 1bbe c612 bdbd
000002c0: 04f6 173e 27cc ad3b 1936 40bd bf6b b4bc
000002d0: 2c77 24be d0b5 30bd 00ab 943b 96a1 0a3b
000002e0: 7d3e 7f3d 3de7 413d a8fb 4f3b e47c 84bd
000002f0: 8365 44be 8360 953d 9887 943a 78f8 0e3e
00000300: 4982 333e a9d5 5939 025d 86bd ca48 123e
00000310: 5b4b 2e3e 1d50 fb3d 8fea 0f3e 78fc 193e
00000320: 053e a03c b3e3 ccbd 85e4 85bd 9902 763c
00000330: a495 463e ebc8 cb3d c4d1 b9bd 8811 383e
00000340: 39d7 1b3e 99a2 f03c 7598 06bd c705 9b3d
00000350: 13ef 25be 4a9d 023d 31ad 383e 473b 473e
00000360: d8bf 0c3c a23b b1bd 77d0 00bd ba0a a0bd
00000370: 3f69 11be 3160 333d 652f 0ebe 56bd 193d
00000380: faa0 4fbc 7b49 433e a150 d0bc 301c 2abe
00000390: c735 073e 6c0f be3d f7a8 dfbd 3432 103e
000003a0: cd63 24be ba79 11be 1cea c1bc 4571 f7bd
000003b0: 89e1 083e fb53 acbd 7021 3ebe 7622 ad3d
000003c0: ca7d afb9 3dde 663e fca7 203e 2c18 63bd
000003d0: fb40 4a3e 032d 833c 8a05 13be b2eb bc3d
000003e0: 4bd5 253e 2233 89bd 55f7 823e e392 a03d
000003f0: 2ac7 443e 343f 903d ed27 0fbe c793 823d
-0.14686032 0.19383042 -0.060055178 0.07187116 -0.10892495 0.048002012 0.14842543 0.22137667
-0.09934724 -0.043115918 -0.13099703 0.09473041 -0.18314657 -0.116936795 -0.17779812 -0.11234654
-0.011096818 -0.11762893 0.21261819 -0.008808135 0.19021344 0.06740487 -0.19032775 0.12583166
0.18516015 0.16366965 0.123267554 0.04039118 -0.027801031 -0.0640645 0.0008464564 -0.060111515
0.07038036 -0.02075002 0.026562028 0.014738161 0.11165863 0.17632161 0.18043227 0.037561946
-0.045793314 -0.10503984 -0.06465713 -0.04382258 0.22448431 -0.025184005 0.109943405 -0.170837
-0.09448596 -0.19014674 0.006344273 0.2185605 0.09419984 0.1241522 -0.160689 -0.20575273
0.06959328 0.0070978603 0.053567804 0.2273151 -0.08429543 -0.09112948 -0.10029453 0.19213006
-0.0373734 -0.18002912 -0.1826342 -0.032495096 -0.090750635 0.09561818 -0.20922333 -0.06963748
0.16877295 0.09488814 -0.074679226 0.022253035 -0.17075919 0.14042662 0.04356883 -0.061634302
0.09893666 -0.14753306 -0.079024374 -0.028217036 0.07212015 0.06089989 0.09220331 0.21180657
0.1291817 -0.08858647 0.014428647 0.04614381 -0.118856065 0.1570181 0.09561062 0.10717755
0.10024055 0.1062032 -0.029539753 0.07363201 -0.096262306 -0.11774411 0.17657071 -0.03455567
0.09760633 -0.122848734 0.14532425 0.047293123 0.021620447 0.11894857 0.058755524 0.083405614
0.20549558 0.11240793 -0.0817234 0.008252711 -0.14101283 0.13435054 0.021651613 0.017447995
0.15054952 0.097273014 0.14851287 0.01749261 0.15763272 0.13890839 -0.030076537 -0.060571242
0.03802103 0.09268669 0.017163025 -0.07754752 -0.09703649 0.07615741 0.03650285 0.08205254
-0.080849715 0.09279343 0.07667835 -0.068029106 -0.009722817 0.21177842 0.09320006 0.08159301
-0.049004856 -0.009176883 -0.022064447 -0.16482523 -0.21944481 0.0027642741 0.09748396 0.10448265
0.17371796 0.03818264 -0.0077320444 0.19907649 -0.098588675 0.022565689 -0.063113466 -0.045553055
-0.018167663 0.13060926 0.09961757 -0.11942431 -0.15827659 0.15289876 0.03575915 -0.0023451352
-0.09673924 0.02861857 0.04603425 0.2309237 0.17975694 -0.15683873 -0.15194716 -0.092320964
0.14839941 0.005303878 -0.04692659 -0.022024034 -0.16061085 -0.04314214 0.0045369864 0.0021153442
0.062315453 0.047339667 0.0031735692 -0.064691335 -0.19179349 0.07293799 0.0011331914 0.13961971
0.17530169 0.00020774327 -0.065607086 0.1428558 0.17020933 0.1227114 0.14054321 0.15037715
0.019560823 -0.10004368 -0.06537727 0.015015268 0.19393021 0.099504314 -0.09073213 0.17975438
0.1521882 0.029374408 -0.032860238 0.07569461 -0.16204481 0.031888284 0.18034817 0.19456206
0.008590661 -0.08653952 -0.031448808 -0.07814546 -0.14200304 0.043792907 -0.13885267 0.03753408
-0.012672657 0.19071 -0.025429072 -0.16612315 0.13204108 0.09280285 -0.10920899 0.14081651
-0.16053696 -0.14206591 -0.023671202 -0.12082151 0.13367285 -0.084144555 -0.18567443 0.084538385
-0.0003347232 0.22545715 0.15689081 -0.055442974 0.1975135 0.016012674 -0.14357582 0.09224643
0.16194646 -0.06699206 0.25579324 0.078405164 0.192166 0.07043305 -0.13980074 0.063758425

fc2.weight f4 [128, 256]
00000000: fa38 e73b 3c10 093d 507d 8a3d 336b d03c
00000010: 75af 8fbc c396 9d3c 26de 4f3d 2a81 d23d
00000020: 4b56 a3bd c956 e33d d0c4 243d 92d1 b43c
00000030: 2dd1 4dbd 924e 843c 8eaa 8d3d 5dfb 213d
00000040: f1b1 2ebc 40ba 963d 6708 1dbc ffc7 b23d
00000050: 25e7 793d 18e0 f6bc f448 aebc 23cd 9dbd
00000060: 97a0 8bbd 85b3 a43d dda3 edbc 0076 ffbb
00000070: f069 ac3c 16d3 bdbc 058b c93d 5887 093d
00000080: fdb1 85bd 102d 5f3c eaaa e43c 1662 c8bd
00000090: 144b 00bd c8b1 713d 1829 2a3d db3e 27bb
000000a0: cbda 373d f51b 00bb 5e5d f3bb 890e acbd
000000b0: 8365 a2bd 98b4 62bd b7d7 3d3e 7b66 483d
000000c0: 86cb 85bc aa3f 81bc dd0d 5fbd ddbc 12bd
000000d0: 5b6a 45bd f08c 883d 9fca 923d 6d79 a03c
000000e0: aab4 02bd e896 4fbd da76 b73d cc53 f43a
000000f0: d96f b9bd 1915 fabd b53a a93a 73b1 3e3e
00000100: 50ba e0b9 0ba6 80bc 5897 013d 260f e73c
00000110: 909b 21bd cec7 cbbc 75e6 ea3a 0e15 753d
00000120: 977a 2c3d 9ed2 823d 423c 4dbd bef2 b1bd
00000130: 5655 a4bd f9a8 90bd 97f4 903d e2dd 443d
00000140: 1879 87bb 2a85 a83b 63a4 243d 78f7 44bc
00000150: 813b 5e3c aebd 1c3e f464 a4bd 36ac 0a3d
00000160: 96a2 bbbc bfbf 343d aae5 9b3d 56cd 28bd
00000170: 3ef7 95bd 3699 88bd 2724 92bd 6ad5 0d3d
00000180: c925 c9bc 50bc e53d 0874 af3d fd3c 593d
00000190: dd43 04bc 8c87 50bd f1cc 8c3d 1f85 3fbd
000001a0: ac6b 6dbd 36d1 29bb 8ce1 0bbc 6554 d0bd
000001b0: 3413 7dbd a359 ae3c a9dc 38bd 9eb9 5e3d
000001c0: 66a5 c33d 6ca6 25bd 664f 8d3d f103 afbd
000001d0: 14a9 043e 8c69 14bd e85b 97bc 39bb eebb
000001e0: 958d 113d 4d6d 483c 67ad 5f3c 5c0d b13c
000001f0: 9fee 553b 5689 a0bd 7840 c4bb 15bd 32bd
00000200: 8342 263b 8b96 1e3d ee9b aa3d 9e25 fd3c
00000210: ceb2 08bd fcb9 98ba 0d64 06bd 048c d63c
00000220: c51f ef3d 6128 c83d f703 873c 20f4 b53c
00000230: 218a 143e 8810 8dbb 4d45 bc3d 1d9e 293d
00000240: aa21 d2bc b994 86bd 3ca1 043d 3579 833d
00000250: 7125 5c3e 9e11 863d 999a 843d d288 083e
00000260: d22b b53d 2327 a03c 630a a7bc e0b8 a63c
00000270: 5cba 013d b672 1ebd 6c03 9b3c c243 d53b
00000280: 9d8e 303d d2a5 a13d c454 e13d a27f 5c3d
00000290: d196 bf3d 2d3c 0dbd 6e6b 7a3d 7c00 7f3d
000002a0: fbf1 373c 8574 123c 91a6 5d3c e1a4 603d
000002b0: 30aa 173d 311a a23d 1af8 afbd a731 303d
000002c0: bcf0 93bc 644b 41bd bf7b 193d a501 a03d
000002d0: ee00 553d 988b 9bbb 44be f53c 71d8 7a3d
000002e0: 0769 493c f26e 443d 3b50 073e 98d9 02bd
000002f0: cea4 2c3e 4b38 993d 4501 19bd b75a 8e3d
00000300: e61b e8bc 8322 4ebd d840 8cbd b129 0bbd
00000310: e327 24bd 36d3 2dbc 66ee f0bc 8f05 66bc
00000320: cd6f 9b3d 8ca4 c5bb d3ab 57bb 1a93 27bd
00000330: dd69 9fbc b43d 883d 2d12 89bc d36f b3bd
00000340: 4bac 253d ecb0 633d 7d4c d9bd 0b09 2cbd
00000350: 3c88 48bd 1e50 96bb b6c1 abbd eda5 2b3d
00000360: 1e3d abbd d31a 16bc d110 bf3d f1f7 95bb
00000370: 0c27 14bd d011 073b 33bf 7f3d b0d1 02bd
00000380: 1ac8 27bc 80e5 5ebd ce20 26bc 5f7d 403d
00000390: ce98 78bd 74d8 c43c 9eab 2abd 7770 c4bd
000003a0: 4916 db3c 932b 023d 1d0d 5dbd 183e 1c3d
000003b0: d0a0 103d 537a 5e3d d94f 0a3e 5f9a 9c3d
000003c0: ddcd f5bc a634 113c 15e4 c5bc fb17 d23d
000003d0: a92a 71ba 8641 62bd c583 033e 2799 aebd
000003e0: 0a57 bc3d 77b5 363d f6a4 313e 7a8d c33d
000003f0: 53ff 54bd ae0d 72bd af2e 083e 9d05 a2bd
0.0070563527 0.033462748 0.06762183 0.025441742 -0.01753972 0.019236928 0.050748967 0.10278542
-0.079754435 0.11100537 0.040226758 0.022072587 -0.050248314 0.016150746 0.06917296 0.03954636
-0.010662542 0.07359743 -0.009584523 0.087295525 0.061011452 -0.030136153 -0.021275021 -0.07705142
-0.068177395 0.08042053 -0.0290088 -0.007796049 0.021046609 -0.023171943 0.09840969 0.03357634
-0.06528089 0.013621584 0.02791353 -0.097843334 -0.0313216 0.059007436 0.041543096 -0.0025519643
0.04488639 -0.0019547914 -0.0074269017 -0.0840121 -0.07929518 -0.05534801 0.1853932 0.048925858
-0.0163324 -0.015777428 -0.05445658 -0.035824645 -0.04819713 0.06667507 0.07167553 0.01958915
-0.031910576 -0.050681025 0.08958216 0.0018640696 -0.09054536 -0.12211055 0.0012911173 0.18622379
-0.00042863423 -0.015704175 0.031638473 0.028205466 -0.039454997 -0.024875548 0.0017921465 0.059834532
0.0421091 0.06387828 -0.050106294 -0.086888775 -0.08024089 -0.07063479 0.07077902 0.048063166
-0.0041343085 0.0051428275 0.040195834 -0.012021892 0.0135639915 0.15306732 -0.08027068 0.03385564
-0.022904675 0.044128176 0.07612164 -0.04121145 -0.07322548 -0.06669848 -0.07135802 0.034627356
-0.02455415 0.112175584 0.08567053 0.05303668 -0.0080728205 -0.050910518 0.06875027 -0.046757814
-0.057964012 -0.0025912053 -0.008537661 -0.10172347 -0.06178589 0.021282976 -0.045132313 0.054376237
0.095530316 -0.040441915 0.0689991 -0.08545674 0.12955123 -0.03623347 -0.018476442 -0.0072855023
0.035535414 0.012233091 0.013652182 0.021612816 0.003264345 -0.07838695 -0.0059891306 -0.043637354
0.0025369234 0.038717788 0.083305225 0.030901726 -0.033373646 -0.0011652107 -0.03281026 0.026189812
0.116759814 0.09773327 0.016481383 0.022211134 0.14505817 -0.004304949 0.091929056 0.041410554
-0.025650818 -0.06571335 0.032380328 0.06419603 0.21498658 0.06546329 0.064748 0.13333443
0.08846249 0.019549912 -0.020390695 0.020351827 0.031671867 -0.038683616 0.01892253 0.0065083215
0.043104757 0.07892956 0.11002496 0.053832658 0.09354938 -0.034481216 0.06113761 0.06225632
0.011227126 0.008938913 0.013528482 0.05484474 0.037027538 0.07915152 -0.085922435 0.043016102
-0.018059127 -0.04719104 0.03747153 0.07812814 0.05200284 -0.0047468655 0.029997952 0.06124157
0.012293107 0.04795737 0.13214199 -0.031945795 0.16859743 0.0748144 -0.037354726 0.06950896
-0.028333616 -0.05032588 -0.068483055 -0.033975307 -0.0400771 -0.010609439 -0.029410552 -0.014039411
0.07589684 -0.0060315784 -0.0032908812 -0.04091177 -0.01945966 0.06652394 -0.0167323 -0.08761563
0.040447515 0.055588648 -0.10610292 -0.04200081 -0.04895805 -0.0045871874 -0.08386557 0.041906286
-0.083612666 -0.009161669 0.09329379 -0.004576676 -0.03617005 0.0020609982 0.0624382 -0.031938255
-0.010240579 -0.054418087 -0.010139657 0.046994563 -0.0606926 0.024028994 -0.041667573 -0.095917635
0.026744025 0.031779837 -0.053967584 0.038145155 0.035309613 0.054315876 0.13507022 0.076466314
-0.03000539 0.00886265 -0.02415661 0.1025848 -0.0009199777 -0.05523827 0.12843235 -0.08525305
0.09196289 0.044606652 0.17348084 0.09548469 -0.05200131 -0.059095077 0.13299058 -0.07911227

fc2.bias f4 [128]
00000000: ee95 2f3d f31b 963c 88b2 8b3d c9ad 703d
00000010: 8d1b d43d 0700 50bd a532 583d a5f8 e83c
00000020: d400 81bd d476 e73c a05a 4f3d 9650 cb3c
00000030: 37fa 153d f7a4 993d 3f03 273d 7d15 94bc
00000040: 86e9 debc 796d 2f3d 3ee7 893d 8733 b7bc
00000050: 7bc6 8b3d eb2a 3a3c c6f2 b9bc 150a 713d
00000060: 4fb4 22bd 0c86 ed3c edf9 843d 4f4f f53c
00000070: 3ebd 673d 09f0 763d c37b 9a3d 2339 263d
00000080: 7e3e 6a3d fc08 e3bc 6c1a 223d 1d9d 5a3d
00000090: 8263 813d b116 a13b 0635 2bbd 600e 9bbc
000000a0: dc1a 1e3d 615f fabc 28a0 c23c 6e41 da3c
000000b0: 9838 71bd e61c 5d3d 5322 aebc c8a4 933d
000000c0: 15b1 7639 3e8d e8bc 99d5 533d 09e2 c63d
000000d0: e351 5dbd b01e cb3a 1a8d 38bc b8a3 34bd
000000e0: f688 85bb e183 bdbc 3595 993d 618b 4e3d
000000f0: 5732 2b3d 4893 2cbd c9da 6d3d 2cd0 ab3c
00000100: 6f7d b9bc 90a2 723d 7411 8c3c 9680 c6bc
00000110: 9bec bbbc ab7d 743c 3db5 38bd 30f5 593d
00000120: bffc e7bc 1c08 f53c 732a cd3d f1ba 713d
00000130: 9784 b83c 96dc 943c df6c 473c e8aa 613d
00000140: 9a1c 883c c898 99bb 575b 643c 2acb 35bd
00000150: e980 24bb 6b07 f83c 3228 ab3c 478b 11bc
00000160: d432 b13c ea1c 9abc 83a3 6fbc ef04 a7bb
00000170: cb44 41bd 207a 583d 1510 87bc 78ac 903d
00000180: 1b12 3f3d c796 5d3d 0d93 72bc 5e0d 903c
00000190: 9fb0 4e3d efb5 4bbd c5f2 573b 68e9 97bc
000001a0: 9eaa 873d 747d 15bd d2c7 a73c 9987 683d
000001b0: 5a62 c93c 2f73 1c3d fd2c 63bd a472 143c
000001c0: 58e3 b0bc e3b4 53bc 1370 c5bc af64 953c
000001d0: 2dff 1c3d e9f4 723d 63fb 0c3d e1f3 a33d
000001e0: 5420 373d 73f3 423d 5b57 20bd b6b8 713c
000001f0: 2c6b 76bc fcc0 403d ec94 57bd 946a 283c
0.042867593 0.018323874 0.068211615 0.058759484 0.103568174 -0.050781276 0.052782673 0.028438875
-0.06298986 0.028254904 0.050623536 0.0248187 0.036615577 0.07502168 0.04077458 -0.018076653
-0.027210962 0.04282901 0.06733559 -0.022363437 0.068249665 0.0113627715 -0.022698771 0.058847506
-0.039722737 0.028994583 0.06492982 0.029945044 0.05657696 0.06028751 0.07543137 0.040581834
0.057188503 -0.027714245 0.03957598 0.05337249 0.06317808 0.004916035 -0.041798614 -0.018927753
0.038599834 -0.030563058 0.02375801 0.026642527 -0.058891863 0.053982638 -0.021256601 0.07209164
0.00023526356 -0.028387662 0.051717374 0.097110815 -0.05403317 0.0015496816 -0.01126411 -0.044101447
-0.004075165 -0.023134174 0.07499162 0.05042589 0.041796055 -0.042132646 0.058069978 0.020973288
-0.02264282 0.059237063 0.017098166 -0.024231236 -0.02293997 0.01492254 -0.045094717 0.053212345
-0.02831876 0.029911093 0.10017862 0.05901617 0.022524161 0.01817159 0.012171953 0.05509463
0.0166152 -0.0046874024 0.013937793 -0.044383205 -0.002510125 0.030276975 0.02089319 -0.008883304
0.021630682 -0.018812615 -0.014626387 -0.0050970237 -0.047184747 0.052850842 -0.01648716 0.07064146
0.046648126 0.05409887 -0.014805567 0.017584499 0.050461408 -0.049734052 0.0032951098 -0.018543914
0.066243395 -0.036496595 0.020481024 0.05676994 0.02458303 0.038195785 -0.055462826 0.009060536
-0.021592781 -0.012921545 -0.024101293 0.018236486 0.038329292 0.059315596 0.03441943 0.080055006
0.044708565 0.047595453 -0.03914581 0.014753511 -0.0150402 0.047059044 -0.052632257 0.010279316

fc3.weight f4 [2, 128]
00000000: 0ff1 9cbd 34af 403c 41f0 27bd 37ae 553d
00000010: 1482 013d 8352 1ebc 4bcd 373c 4933 66bc
00000020: 06f0 fe3c 8e9e ca3c e945 e5bc f983 a73c
00000030: 674c 70bd 5447 f83c 1eeb ba3c fd3e 86bb
00000040: e27c b0bd 8d7d d8bd a291 b23c ee03 9abd
00000050: bd88 813c 9c39 2abd 8981 b3bd 0005 0e3d
00000060: 1295 973b 6774 07bd fc13 61bc 1bd6 5c3c
00000070: 26e5 5f3c e4b8 8cbd 7050 623c 89d9 a8bd
00000080: 4669 bc3c ac52 82bd 449a 9fbd 3d43 e9bd
00000090: 341c c03c 3b9b 143d 1f2c 043d 6944 b9bd
000000a0: 0255 4cbc 425d 8fbd 5286 7dbe bee6 afbd
000000b0: aa12 abbd 718f a5bd 3e43 9ebd 4e32 d5bd
000000c0: 5eee 6ebe 87d9 96bd 48e4 e7bc 5d0a 0c3d
000000d0: 47c9 dfba ed66 74bd 520a 1f3d 576a 92bd
000000e0: 413b 103c 4f32 0a3d fef8 8cbd 1fc2 ddbd
000000f0: bf05 113d 930f 49ba 760f 0a3d 2581 0c3d
00000100: 9ffd e63c 5931 c4bd 3de5 a7bd a424 cbbd
00000110: 3252 dc3c df0f aabd 4bc1 9b3c d546 373c
00000120: eef0 ecbd c300 c3be b376 4f3d 6b26 143d
00000130: 7a35 b0bd f064 85bd a0e8 7a3b 777c b13c
00000140: a25f 09be d60a a4bd 46d5 9a3c c85b e3bb
00000150: 75e7 2a3d cd9a 963d 3cd7 dc3c 0354 90bd
00000160: 17a9 99bd 4507 8ebd c20e a8bd 84f6 f13c
00000170: ce87 b33c c632 493c 4772 d8bd 52d3 a33c
00000180: 6a5c 31bd afb2 85bd 3ce9 dfbd 939a 29bc
00000190: f60d 3e3c a915 84bd c2d6 223d 51fb 8fbd
000001a0: 0dcf aebd 6791 733c f351 113d 2df8 173d
000001b0: 9d56 973d f3ea 683c 7db0 0ebc b26b 97bd
000001c0: 0909 343d c741 7e3d 6135 adbd 0051 36bd
000001d0: 4d18 b13c c8e8 4a3c 7447 0dbc e6c4 3fbd
000001e0: 4fec 543d 9eaf aabc 375e dc3b 8379 393d
000001f0: 6f3d cebd 3ea0 1c3d 39bf 98bd 597c 96be
00000200: 5a0c 20bc 7d7f d93d 891f 85bd ea40 223d
00000210: ae78 73bd 670d 373d b86f 173d ab93 383e
00000220: 4d72 9abc 85eb 9c3b 7a98 6bbe 791c a53d
00000230: d676 b63d 9474 d4bc 37dd 623d 0f8c f4bd
00000240: ce4a 6cbd cf79 883d c947 973d 285e 19bd
00000250: 7ad6 9f3d 1520 393e 6969 7a3d 13a7 953d
00000260: c7eb 733d e874 543c 1bd9 c63d b6bb 47bd
00000270: 16f3 71bd e901 3cbd c4ef ba3a c340 c6bd
00000280: d1b5 77bd d073 edbc 07f6 b1bc 360b 8d3c
00000290: 290a 123d 4f97 5cbd 2d33 32bd 4ff6 fb3d
000002a0: ff21 523d 2c6a 1cbe 18f0 d5bd 0c91 68ba
000002b0: ca11 f1bd 358d 073d ce1c 13bd 735c 6cbc
000002c0: 01e9 c2bd 7131 e2bb 171c 7b3c 5235 8abd
000002d0: 85a1 9b3d 5be6 b1be 07dc 183d fafc a63c
000002e0: f1d2 833d d78e 08bd 8a41 57bc bb70 5d3b
000002f0: fce6 e73c 8fcf babd 4177 343d 356a 3a3d
00000300: bcca 173d 3f45 693c 7d2e 33bc 1216 273e
00000310: d71e 8c3d 55d6 4bbc f6ad d53c 4ed6 86bd
00000320: 76db 003d 0290 a9bd ad56 6fbd debf b9bd
00000330: 65c2 82bc 6df6 26bd a6bc babd 775f 78bc
00000340: c58a 7d3d a9f8 d2bc df38 933c c936 863d
00000350: 8fe7 bb3d e0fa 22be a457 95bd 54f9 c8bd
00000360: d73a f4bc e3d3 173e 560a 98bc dcf2 08bd
00000370: 03d0 fdbc 1734 413c af55 0e3e d670 54bd
00000380: be6c cd3d 5387 413d 0802 a2b8 1f5d 3bbe
00000390: dc14 523d 7ae7 1abd a83b 99bd f63a 0bbd
000003a0: fd7c 163e 637a bd3d 4c95 cabd c00e 893d
000003b0: 392d c5bd d3d1 a3bc 2dc3 a73d 065a 4bbc
000003c0: f9ca 1b3d 3618 363d 841b babc c35c 173d
000003d0: 431c a63d 70df d03c a93d 753d efb1 a43c
000003e0: 7b69 fc3c 7180 df3c 2ab8 b03c 0768 54bd
000003f0: afca 8abd 7256 67bd a4ba 31bd f59c 9bbd
-0.07663166 0.011760522 -0.04100061 0.052168097 0.031618193 -0.009663227 0.011218379 -0.014050313
0.031120311 0.024733808 -0.027987437 0.020448672 -0.058666613 0.03030745 0.02281719 -0.0040968643
-0.086175695 -0.10570822 0.021797959 -0.07520281 0.015812272 -0.041558847 -0.08764941 0.034672737
0.004625925 -0.033069994 -0.013737675 0.013478781 0.013665473 -0.068712026 0.013813123 -0.082446165
0.022999417 -0.06363425 -0.07793096 -0.11389778 0.023450948 0.03628085 0.03226864 -0.09046251
-0.012471439 -0.070002094 -0.2475827 -0.085889325 -0.08353169 -0.08084 -0.07727669 -0.104099855
-0.23333117 -0.07365709 -0.028307095 0.03418957 -0.0017073535 -0.05966847 0.0388282 -0.07149189
0.00880319 0.033739384 -0.06883429 -0.10828041 0.03540587 -0.0007669862 0.03370615 0.03430285
0.028197108 -0.09579725 -0.081980206 -0.09919098 0.026894663 -0.083038084 0.019013068 0.011186321
-0.11569391 -0.3808652 0.05065031 0.03616945 -0.0860395 -0.06513393 0.0038285628 0.021665795
-0.13415387 -0.08009879 0.018900525 -0.0069384314 0.04172464 0.07353745 0.0269581 -0.07047274
-0.075029545 -0.0693498 -0.0820594 0.029536493 0.021915343 0.012280172 -0.10568672 0.019998226
-0.043301024 -0.06528222 -0.10933158 -0.010351795 0.011600008 -0.06449444 0.03975559 -0.07030357
-0.085355856 0.01486621 0.035478543 0.037101913 0.07389567 0.0142161725 -0.00870907 -0.07393588
0.04395393 0.06207445 -0.08457447 -0.04451084 0.021618033 0.012384601 -0.008622993 -0.046818636
0.051983174 -0.020835694 0.0067250985 0.0452819 -0.10070311 0.038238756 -0.07458348 -0.29391745
-0.00976857 0.106200196 -0.065001555 0.039612688 -0.05944126 0.044690516 0.036971778 0.18025081
-0.018853331 0.0047888183 -0.23007384 0.08062071 0.08909385 -0.025934495 0.05538675 -0.119407766
-0.057688527 0.06663858 0.07386739 -0.03744331 0.0780458 0.18078645 0.061135683 0.073072575
0.059551027 0.012967326 0.09709378 -0.048763 -0.059069715 -0.04590026 0.001426213 -0.09680321
-0.060476128 -0.028985888 -0.02172376 0.01721726 0.03565422 -0.053855237 -0.043505836 0.12302839
0.051301952 -0.15274876 -0.10446185 -0.00088717113 -0.11770971 0.03309365 -0.035916142 -0.0144263385
-0.09517098 -0.0069028665 0.015326521 -0.06748451 0.07599167 -0.3474606 0.03731921 0.0203843
0.06436718 -0.033339348 -0.013138184 0.0033789116 0.028308384 -0.0912162 0.044059042 0.045511443
0.037058577 0.014237701 -0.010936377 0.16317013 0.0684182 -0.012441237 0.026083928 -0.06583844
0.031459294 -0.082794204 -0.05843227 -0.09069799 -0.015961835 -0.040762354 -0.09118013 -0.015159479
0.06189992 -0.025753336 0.017971454 0.06553418 0.09175026 -0.15916014 -0.07292107 -0.098131806
-0.029813213 0.14826922 -0.018559616 -0.033434734 -0.030982977 0.011792204 0.13899873 -0.05186542
0.100305066 0.047248196 -7.72514e-05 -0.18297242 0.051289424 -0.03781841 -0.07482082 -0.033991776
0.14696117 0.09251859 -0.09891757 0.066922665 -0.09627766 -0.019997513 0.08191524 -0.0124116
0.038035367 0.044456683 -0.022718199 0.0369537 0.08110859 0.025497168 0.059873257 0.020104377
0.030812016 0.027282925 0.021572191 -0.05185702 -0.0677694 -0.056478925 -0.043390885 -0.075982966

fc3.bias f4 [2]
00000000: d67e 93bd 6036 e0bc
-0.072019264 -0.027369678
