agent0_critic_net.pth (torch, 122719 bytes, 5 tensors)

fc1.weight f4 [256, 52]
0	0xbaea24a6	-0.0017863705
1	0xbb43af7f	-0.0029859242
2	0xbb2e2f0c	-0.0026578335
3	0xbb8ce184	-0.0042993445
4	0x3cdebb44	0.027188905
5	0xbd0e8e06	-0.034803413
6	0xbb2e2f0c	-0.0026578335
7	0xbb8ce184	-0.0042993445
8	0x3a89ee6f	0.0010523329
9	0x3a526388	0.00080256956
10	0xbb2bc37c	-0.0026209047
11	0x3bdb87ac	0.006699523
12	0x3bd5b300	0.0065215826
13	0xbd7a4418	-0.061100096
14	0xbb2bc37c	-0.0026209047
15	0x3bdb87ac	0.006699523
16	0x3b8a3c91	0.004218646
17	0xb914d8e0	-0.00014195172
18	0xbbaf2805	-0.005345347
19	0xbc097b92	-0.008391278
20	0xbb526a5d	-0.0032106854
21	0xbe2ee6be	-0.17080209
22	0xbbaf2805	-0.005345347
23	0xbc097b92	-0.008391278
24	0xbbe51d85	-0.0069920444
25	0x3d95e2c9	0.073186465
26	0x3a1186c5	0.0005551393
27	0x3b1a4af7	0.0023543218
28	0xbcdebb44	-0.027188905
29	0xbd0e8e06	-0.034803413
30	0x3a1186c5	0.0005551393
31	0x3b1a4af7	0.0023543218
32	0xbca6c32b	-0.020356735
33	0x3da42734	0.0801529
34	0xba9da78d	-0.0012028083
35	0x3c5dcc94	0.013537545
36	0xbbd5b300	-0.0065215826
37	0xbd7a4418	-0.061100096
38	0xba9da78d	-0.0012028083
39	0x3c5dcc94	0.013537545
40	0xbd155b53	-0.036464047
41	0x3d8f852e	0.07007824
42	0xbaf44058	-0.0018634899
43	0x3ba68387	0.0050815972
44	0x3b526a5d	0.0032106854
45	0xbe2ee6be	-0.17080209
46	0xbaf44058	-0.0018634899
47	0x3ba68387	0.0050815972
48	0xbd1b4050	-0.03790313
49	0xbcd2b165	-0.025719354
50	0xbd8f7a51	-0.07005752
51	0x3cc8a0e4	0.024490781
52	0x3c373652	0.011182385
53	0x3c456766	0.012048578
54	0x3c4b573a	0.012410933
55	0xbc145836	-0.009054234
56	0xbb69b1ea	-0.0035659024
57	0xbc8397b4	-0.016063549
58	0x3c4b573a	0.012410933
59	0xbc145836	-0.009054234
60	0x3c958f74	0.01825688
61	0x3c3edd44	0.0116494335
62	0x3c14d2d6	0.00908347
63	0x3d06a4a0	0.032871842
64	0x3b88d1ee	0.004175416
65	0xbc9fb2cd	-0.019494439
66	0x3c14d2d6	0.00908347
67	0x3d06a4a0	0.032871842
68	0x3ccd0f61	0.025031747
69	0x3c0db392	0.00864877
70	0xbbc92b48	-0.0061391927
71	0xbcae2cba	-0.021261562
72	0xbbd515d6	-0.006502847
73	0xbc9d4998	-0.019200131
74	0xbbc92b48	-0.0061391927
75	0xbcae2cba	-0.021261562
76	0x3c7d1d28	0.015448846
77	0x3baa4c3d	0.0051970766
78	0x3a7797e8	0.0009444938
79	0xbc07c639	-0.008287006
80	0x3b69b1ea	0.0035659024
81	0xbc8397b4	-0.016063549
82	0x3a7797e8	0.0009444938
83	0xbc07c639	-0.008287006
84	0x3c209650	0.009801462
85	0x3bc3ab5f	0.0059713568
86	0xbaf1434e	-0.0018406899
87	0xbb7e9a46	-0.0038849278
88	0xbb88d1ee	-0.004175416
89	0xbc9fb2cd	-0.019494439
90	0xbaf14355	-0.0018406907
91	0xbb7e9a46	-0.0038849278
92	0x3b415cbc	0.0029504737
93	0x3b9c36dc	0.004767282
94	0xbc0285a1	-0.00796643
95	0x3a4d7bca	0.00078385754
96	0x3bd515d6	0.006502847
97	0xbc9d4998	-0.019200131
98	0xbc02859f	-0.007966428
99	0x3a4d7bca	0.00078385754
100	0xbc6fbed5	-0.0146329
101	0xbc7d9130	-0.01547651
102	0xbbef4a56	-0.0073025627
103	0xbb1c8e9a	-0.0023888708
104	0x3ba88773	0.0051431
105	0xb9838e6e	-0.00025092385
106	0xba9261e0	-0.0011168085
107	0xba3c3dc7	-0.00071808364
108	0xba0ad628	-0.0005296194
109	0xbb67ad7c	-0.0035351207
110	0xba9261e0	-0.0011168085
111	0xba3c3dc7	-0.00071808364
112	0x3bc8e0a0	0.006130293
113	0xb9aab19c	-0.00032557256
114	0xbad745ae	-0.0016423964
115	0xb9aed20d	-0.00033344366
116	0xba1b06f6	-0.0005913818
117	0xbb54d02e	-0.0032472718
118	0xbad745ae	-0.0016423964
119	0xb9aed20d	-0.00033344366
120	0x3bef8eed	0.0073107393
121	0xb98c6bc1	-0.00026783164
122	0xbae6da45	-0.0017612657
123	0x39a6e0f7	0.000318296
124	0xba1df6de	-0.0006025861
125	0xbb3a7295	-0.0028449644
126	0xbae6da45	-0.0017612657
127	0x39a6e0f7	0.000318296
128	0x3b9ef2b7	0.004850711
129	0x38069a6d	3.209191e-05
130	0xbae3819e	-0.0017357355
131	0x3931f608	0.00016971689
132	0x3a0ad628	0.0005296194
133	0xbb67ad7c	-0.0035351207
134	0xbae3819e	-0.0017357355
135	0x3931f608	0.00016971689
136	0x3beebe9b	0.0072859055
137	0xb6c4fad2	-5.8704545e-06
138	0xba15b109	-0.0005710279
139	0xb99a5326	-0.0002943512
140	0x3a1b06f6	0.0005913818
141	0xbb54d02e	-0.0032472718
142	0xba15b109	-0.0005710279
143	0xb99a5326	-0.0002943512
144	0x3c120c70	0.008914098
145	0x38aff5ee	8.390458e-05
146	0xbaf5a38d	-0.0018740759
147	0x3aa29733	0.001240468
148	0x3a1df6de	0.0006025861
149	0xbb3a7295	-0.0028449644
150	0xbaf5a38d	-0.0018740759
151	0x3aa29733	0.001240468
152	0x397f4942	0.00024345986
153	0x39d6ef23	0.00040995431
154	0x38444426	4.679351e-05
155	0xb908af2d	-0.00013035229
156	0x3c1010a4	0.00879303
157	0xba6d606d	-0.0009055201
158	0xbb361243	-0.002778188
159	0x3b891579	0.004183468
160	0xba8d4dab	-0.0010780593
161	0xbc2ca794	-0.010538001
162	0xbb361243	-0.002778188
163	0x3b891579	0.004183468
164	0x3c453a1e	0.012037782
165	0xba73799b	-0.0009287835
166	0x39314d5b	0.00016908853
167	0x3b46a90c	0.0030313162
168	0xbabbf47f	-0.0014339833
169	0xbc288eef	-0.010287984
170	0x39314d5b	0.00016908853
171	0x3b46a90c	0.0030313162
172	0x3c567994	0.01309051
173	0xba1a2c75	-0.00058812584
174	0xbb696e3e	-0.0035618688
175	0x3bfae5ac	0.0076567736
176	0xbb22c21f	-0.0024834943
177	0xbc3653bc	-0.011128362
178	0xbb696e3e	-0.0035618688
179	0x3bfae5ac	0.0076567736
180	0x3c286dbc	0.010280069
181	0x3a54b4eb	0.0008114117
182	0xba9b2338	-0.0011836058
183	0xba87779f	-0.0010335332
184	0x3a8d4dab	0.0010780593
185	0xbc2ca794	-0.010538001
186	0xba9b2338	-0.0011836058
187	0xba87779f	-0.0010335332
188	0x3c4efa1c	0.012632873
189	0x3980aa2c	0.0002454085
190	0xbb32b670	-0.0027269386
191	0xbc0c2684	-0.008554105
192	0x3abbf47f	0.0014339833
193	0xbc288eef	-0.010287984
194	0xbb32b670	-0.0027269386
195	0xbc0c2684	-0.008554105
196	0x3c5bb30a	0.013409385
197	0x3938fa37	0.0001764082
198	0xb9082101	-0.00012982266
199	0xb9c4978c	-0.00037496944
200	0x3b22c21f	0.0024834943
201	0xbc3653bc	-0.011128362
202	0xb9082101	-0.00012982266
203	0xb9c4978c	-0.00037496944
204	0xb919c771	-0.00014665515
205	0x3a2830a1	0.00064159377
206	0x398ecac6	0.0002723543
207	0xbaed870f	-0.0018121916
208	0x3d539382	0.051654346
209	0xbb10f6a9	-0.0022119677
210	0xbad7cff5	-0.0016465174
211	0xbb154ccd	-0.0022781373
212	0xbcc32519	-0.0238214
213	0x3cba2de2	0.022726957
214	0xbad7cfd2	-0.0016465134
215	0xbb154ccd	-0.0022781373
216	0x3d6dcd45	0.05805709
217	0xbc31bc8b	-0.010848175
218	0xba87f4f2	-0.0010372682
219	0x3b4caa86	0.003122957
220	0x3c23a188	0.0099872425
221	0xbd472bd4	-0.048625782
222	0xba87f4e6	-0.0010372668
223	0x3b4caa86	0.003122957
224	0x3d760090	0.06005913
225	0xbc08d757	-0.008352122
226	0xb9e85d25	-0.00044319886
227	0xbb0e46c6	-0.0021709665
228	0xbd298812	-0.041389532
229	0xbdd92d98	-0.106043994
230	0xb9e85fcc	-0.00044321863
231	0xbb0e46c6	-0.0021709665
232	0xbd0375f3	-0.032094907
233	0x3c2db186	0.010601407
234	0x3b088ac0	0.0020834655
235	0x3c5adc06	0.013358122
236	0x3cc32519	0.0238214
237	0x3cba2de2	0.022726957
238	0x3b088b92	0.0020835144
239	0x3c5adc06	0.013358122
240	0xbd5580ba	-0.052124716
241	0x3cbcdc5b	0.023054292
242	0x3a84398f	0.0010087955
243	0x3d417b05	0.04723646
244	0xbc23a188	-0.0099872425
245	0xbd472bd4	-0.048625782
246	0x3a844750	0.0010092054
247	0x3d417b05	0.04723646
248	0xbdb93e5d	-0.09045098
249	0x3d158c98	0.036511034
250	0x3b849692	0.0040462697
251	0xbd17dc2e	-0.037075214
252	0x3d298812	0.041389532
253	0xbdd92d98	-0.106043994
254	0x3b84965b	0.004046244
255	0xbd17dc2e	-0.037075214

fc1.bias f4 [256]
0	0x3bbc3a01	0.0057442193
1	0x3a7c2e4c	0.0009619936
2	0xb9b18a54	-0.00033863133
3	0xbaf50f7b	-0.001869663
4	0xbc87e4c2	-0.016588572
5	0xbb0e132b	-0.0021678905
6	0x3b19555c	0.0023396825
7	0xb87a3e6f	-5.966279e-05
8	0xbae51e13	-0.0017480276
9	0xb864b4b9	-5.4527747e-05
10	0xba054797	-0.0005084215
11	0xb973bdec	-0.00023245037
12	0xbd4cbd0f	-0.049984988
13	0xba7135e4	-0.0009201451
14	0xba773662	-0.0009430406
15	0xba87087a	-0.0010302209
16	0xba8d1224	-0.0010762853
17	0xba990568	-0.0011674585
18	0xba1a1704	-0.00058780634
19	0x3d7b051a	0.061284162
20	0xb816d039	-3.595671e-05
21	0xbc70ec46	-0.0147047695
22	0xbba54764	-0.005043911
23	0xbaefccb9	-0.0018295265
24	0xbaa21eb7	-0.0012368773
25	0x3a6b4615	0.00089749816
26	0xb9a69f00	-0.00031780452
27	0xbc53b658	-0.012921892
28	0xba285e40	-0.0006422736
29	0xb90957c8	-0.00013098039
30	0xba9e2db8	-0.0012068069
31	0xbc1b7d06	-0.009490257
32	0xba833386	-0.0010009862
33	0xbaa3d356	-0.0012498896
34	0xbcb1916f	-0.021675793
35	0xbc6f5772	-0.014608251
36	0xbbe19050	-0.0068836585
37	0xbac382ff	-0.0014916359
38	0xb9e3070d	-0.00043302067
39	0xbb41601c	-0.0029506749
40	0xb96e0e41	-0.00022702759
41	0x37d7a4bd	2.570671e-05
42	0xba39ed4d	-0.00070925505
43	0xb83fc56e	-4.572182e-05
44	0xb94b5120	-0.0001938981
45	0xb96533c7	-0.0002185843
46	0x3c83a624	0.016070433
47	0xb7f79304	-2.9513154e-05
48	0xbb3b8f3f	-0.0028619317
49	0xb9d2f625	-0.00040237713
50	0xb91c4b00	-0.00014905259
51	0xba3e4969	-0.0007258864
52	0xbb1b3332	-0.0023681638
53	0xbaf44d8d	-0.0018638835
54	0xb9e3a59e	-0.00043420208
55	0x390453c4	0.00012619706
56	0xbb3fe4aa	-0.0029280582
57	0xbab23ef8	-0.0013599088
58	0x39a4b94d	0.00031418577
59	0xba9420e0	-0.0011301301
60	0xbb26b081	-0.0025434794
61	0xbbaa532d	-0.0051979036
62	0x3c1fffcc	0.009765577
63	0xbaa44151	-0.0012531673
64	0xbc187557	-0.00930532
65	0x3a8ed03f	0.0010895802
66	0xb97146be	-0.00023009905
67	0xbbd1ffdb	-0.006408674
68	0xb8db0660	-0.00010443921
69	0xbb56c40b	-0.003277066
70	0xbbd5474d	-0.006508744
71	0xbb117c8d	-0.0022199482
72	0xba336c62	-0.00068444584
73	0xba9c0ad2	-0.001190508
74	0xba06c117	-0.0005140467
75	0xba7f7fc3	-0.0009746516
76	0x3d8adbe1	0.0678022
77	0xba334240	-0.000683818
78	0xb84aea0a	-4.837852e-05
79	0xba0a06b8	-0.00052652834
80	0xbb0845db	-0.002079359
81	0xb9cd70bb	-0.00039184638
82	0xba4749ed	-0.00076022634
83	0xba54ac67	-0.0008112848
84	0x3b4de9b7	0.0031419822
85	0xbbff06e7	-0.0077828052
86	0xbb93fd72	-0.004516297
87	0xbaa7acf6	-0.0012792635
88	0xba10beed	-0.0005521614
89	0xb93ac93a	-0.00017813305
90	0xbc5fb4bc	-0.01365393
91	0xbb006b23	-0.0019595108
92	0xba3d7913	-0.00072278193
93	0xb948f0a2	-0.00019163129
94	0xb94c91b1	-0.0001950923
95	0xba3918c5	-0.0007060881
96	0xbb05b78b	-0.002040359
97	0xbb03e6d5	-0.00201266
98	0xbce9187a	-0.028454054
99	0x3a325268	0.00068024406
100	0xbb08c4b5	-0.00208692
101	0xb9999529	-0.00029293567
102	0x3db07279	0.08615584
103	0xba484025	-0.0007638953
104	0xba8494a2	-0.0010115097
105	0xbbbeebfb	-0.005826471
106	0xb8d3ef7b	-0.00010105871
107	0xbb6789a9	-0.0035329855
108	0xbb0ba83c	-0.0021309992
109	0xb9f2d15f	-0.0004631383
110	0xbb39fecd	-0.0028380633
111	0xba6c8784	-0.0009022879
112	0xbb435c88	-0.0029809792
113	0xbb23f6e9	-0.0025018996
114	0xb9df643c	-0.00042608555
115	0x3b378d47	0.0028007792
116	0x3b54aa29	0.0032450056
117	0x3ba33978	0.004981216
118	0xb980c773	-0.00024562664
119	0xbaa5f88d	-0.0012662575
120	0x3c7ab5b6	0.015302112
121	0xba2518bb	-0.00062979356
122	0xb9d16c48	-0.00039944262
123	0xba302dd7	-0.0006720698
124	0x3a0d92df	0.00054006086
125	0xbc0aac91	-0.008463995
126	0xba29a1bc	-0.00064709387
127	0xb9eae4f2	-0.00044802536
128	0xbb02b6f8	-0.0019945484
129	0xba1388b6	-0.00056279765
130	0xb9ce4c1e	-0.00039348094
131	0xbca79848	-0.020458356
132	0xb895c232	-7.141045e-05
133	0x3b5a42a5	0.0033303883
134	0xb9a79103	-0.00031960764
135	0xbacc66f2	-0.0015594645
136	0xbd4241ae	-0.04742592
137	0xbb8cd3f8	-0.0042977296
138	0xbbc935c0	-0.0061404407
139	0xbb8e4808	-0.004342083
140	0xb8988a26	-7.273657e-05
141	0xbaf0b9bf	-0.0018365904
142	0x38af33a2	8.3542676e-05
143	0xbae5fa94	-0.0017545992
144	0xba64b632	-0.0008724659
145	0xb9bc1bad	-0.00035878774
146	0xb9c43a04	-0.00037427258
147	0xbada82d8	-0.0016671075
148	0xbd1b6e45	-0.037946958
149	0xbacb552c	-0.0015513054
150	0xb9c51cb4	-0.00037596154
151	0xbb42e657	-0.0029739344
152	0xbb501f8f	-0.0031757092
153	0xbac5f887	-0.0015103974
154	0xbb22d2a3	-0.0024844788
155	0xb794ac06	-1.772308e-05
156	0xbaea7cc3	-0.0017889965
157	0xbb436089	-0.0029812178
158	0xb94d6180	-0.00019586645
159	0xba3f049a	-0.00072867575
160	0xba027b63	-0.00049774925
161	0xbb09b67a	-0.0021013306
162	0xbb6ed27c	-0.0036441376
163	0xba04e012	-0.00050687895
164	0xba60e524	-0.00085790665
165	0xbb0bc780	-0.0021328628
166	0xb7ff5e49	-3.0442274e-05
167	0xbba292ee	-0.004961363
168	0xba1124f2	-0.00055368163
169	0xb9f1d519	-0.00046125872
170	0xbb604d11	-0.0034225623
171	0xb9eb4dd7	-0.00044880688
172	0xba14b113	-0.0005672138
173	0xbe9546ae	-0.29155487
174	0xbbc0913a	-0.0058766874
175	0xbb66b5cf	-0.0035203581
176	0xb95eb1c2	-0.0002123779
177	0xbaed0d9b	-0.001808572
178	0xbb6e6121	-0.0036373811
179	0xba281145	-0.0006411265
180	0xb74ea5f5	-1.2317197e-05
181	0xb9ad295c	-0.00033027946
182	0xbd545184	-0.05183555
183	0xba206698	-0.0006118803
184	0xb9ad37db	-0.00033038747
185	0x39ee0591	0.00045399045
186	0xbada1c4d	-0.0016640514
187	0xbb520ce7	-0.0032051147
188	0xba16cdb8	-0.00057527004
189	0xbc247856	-0.010038456
190	0x3a806d0b	0.0009798122
191	0xb91af220	-0.00014776783
192	0xb9c6fa38	-0.0003795193
193	0xbd1ed5c5	-0.038778085
194	0xb8318bea	-4.2330394e-05
195	0xba9b6058	-0.0011854274
196	0xba37acaf	-0.0007006628
197	0xbb20498d	-0.0024457902
198	0xb9af9b8a	-0.00033494487
199	0xb902995e	-0.000124549
200	0xb92cc38f	-0.0001647605
201	0xba10bc88	-0.00055212574
202	0xbbe9a89b	-0.007130695
203	0xba54885b	-0.0008107477
204	0xba9a3740	-0.0011765733
205	0xba1ddf28	-0.00060223276
206	0xba09182c	-0.0005229737
207	0xba5b6b78	-0.0008370201
208	0xbabda432	-0.001446849
209	0xbb9ab04e	-0.004720724
210	0x3a13cbd8	0.000563798
211	0xba8655a8	-0.0010248916
212	0xba4abf46	-0.00077341904
213	0xba3379e3	-0.00068464706
214	0xb6dd0408	-6.5867825e-06
215	0xba50d639	-0.0007966492
216	0xb938224f	-0.00017560388
217	0xb9f22a5d	-0.000461894
218	0xba71357c	-0.000920139
219	0xb81ec169	-3.7850263e-05
220	0xbabf9bb3	-0.0014618546
221	0xbaa44a61	-0.0012534374
222	0xbacf343e	-0.0015808416
223	0xb9a0ae7f	-0.00030647588
224	0xbb654bd0	-0.0034987815
225	0xbce369e9	-0.027760463
226	0xbb912d07	-0.0044304165
227	0x3acf998b	0.0015838606
228	0xba706c9c	-0.00091714575
229	0xbaaa9d49	-0.0013016845
230	0xba83e11e	-0.0010061597
231	0xba5932c7	-0.00082854595
232	0xbdbf4a4d	-0.093403436
233	0xba7d81f3	-0.0009670548
234	0xb9f1c7d8	-0.00046115997
235	0xbba2a306	-0.0049632816
236	0xb71badf8	-9.279225e-06
237	0xbb04521c	-0.0020190543
238	0xba5a015d	-0.0008316243
239	0xb9a05a19	-0.00030584706
240	0xb9b07d2f	-0.00033662605
241	0x3c54bbf4	0.012984265
242	0x37b01679	2.09913e-05
243	0xbb54b7bf	-0.0032458154
244	0xbae6537a	-0.0017572485
245	0xbaeb3a22	-0.0017946402
246	0xbbbefdb8	-0.0058285855
247	0xb90f2d1a	-0.00013654344
248	0xb8afe792	-8.3877836e-05
249	0xbc1550fe	-0.009113548
250	0xba8879b1	-0.0010412243
251	0xbb15395d	-0.0022769787
252	0xbb3ed7c3	-0.0029120303
253	0xb91b4159	-0.00014806296
254	0xba79e07d	-0.00095320476
255	0xbaca1bc6	-0.0015419654

fc2.weight f4 [64, 256]
0	0x3047f307	7.274114e-10
1	0x31cff4d4	6.0523266e-09
2	0xae1bd782	-3.543433e-11
3	0x2236d93c	2.4780602e-18
4	0x31c2a590	5.6649654e-09
5	0xae2339a4	-3.7113104e-11
6	0x32166f8d	8.756513e-09
7	0xad536662	-1.2016695e-11
8	0xacab7b11	-4.8737754e-12
9	0x2b4592f3	7.019239e-13
10	0xacc85208	-5.693449e-12
11	0x2f0ff052	1.3091153e-10
12	0xb2891866	-1.5959994e-08
13	0xb130e717	-2.574273e-09
14	0xacd0cd68	-5.9345202e-12
15	0x2f391128	1.6831747e-10
16	0xb16513fe	-3.333525e-09
17	0xaf7037c2	-2.1847682e-10
18	0xa3dcbd04	-2.3932499e-17
19	0xb7bab8ef	-2.2259044e-05
20	0x2b5a5e62	7.758014e-13
21	0x2ca7d805	4.7704085e-12
22	0xae7b7152	-5.717144e-11
23	0xaa9e302b	-2.809986e-13
24	0x2f55cd7f	1.9445244e-10
25	0xb2cefa99	-2.4095515e-08
26	0xaf0fd535	-1.308152e-10
27	0xb2ebd948	-2.7456409e-08
28	0x2fd05d65	3.790134e-10
29	0x23a7952c	1.8169353e-17
30	0xa4c7ecd2	-8.670368e-17
31	0x30caca0e	1.4754862e-09
32	0xaf020b1e	-1.1827381e-10
33	0x2e72eb3e	5.5233366e-11
34	0x322ddf29	1.0120666e-08
35	0xb0146f43	-5.40002e-10
36	0xb1f456ca	-7.1112014e-09
37	0xb14f44be	-3.016154e-09
38	0x2d71b47b	1.3739339e-11
39	0xb13de464	-2.7632945e-09
40	0x2eaf450e	7.970345e-11
41	0x2dd57742	2.4268258e-11
42	0x300253d5	4.7412857e-10
43	0x2d2e9bc6	9.9253435e-12
44	0x2abd6d51	3.3648998e-13
45	0x2dcc1b6a	2.320429e-11
46	0xb902d52b	-0.00012477177
47	0x237ea44b	1.3804158e-17
48	0xaf00d084	-1.1715612e-10
49	0x2d9fa164	1.8147879e-11
50	0x2f037bc8	1.1958357e-10
51	0xb10b048b	-2.0229745e-09
52	0xb1c6b8f4	-5.783585e-09
53	0xacf68086	-7.0060095e-12
54	0xad831247	-1.4901093e-11
55	0x2f054633	1.2121219e-10
56	0x311ff1ae	2.3274924e-09
57	0x2d7fbea4	1.45374025e-11
58	0x30671da8	8.4079455e-10
59	0xb1e99843	-6.7985026e-09
60	0xb19a1d36	-4.485311e-09
61	0x300ef665	5.2009447e-10
62	0xb34473f1	-4.5740254e-08
63	0xac11e588	-2.0733155e-12
64	0x32518758	1.2196175e-08
65	0x32253a11	9.617467e-09
66	0xac8d0e98	-4.0090813e-12
67	0x31126ee0	2.1308821e-09
68	0xa4012eb2	-2.801197e-17
69	0x2bb7c276	1.3056906e-12
70	0xad03b988	-7.487684e-12
71	0x2e43108a	4.4352556e-11
72	0x1f4b2607	4.3018378e-20
73	0x2e5e5390	5.0551174e-11
74	0xae070bdb	-3.0705976e-11
75	0x30fd9972	1.8451785e-09
76	0xb3253cf1	-3.8472482e-08
77	0x2db47d2e	2.0519222e-11
78	0xad110320	-8.24299e-12
79	0xb001f676	-4.728017e-10
80	0x31090037	1.9936246e-09
81	0x2f2de43b	1.5815342e-10
82	0xabb47bf7	-1.2824176e-12
83	0x2ea63628	7.558426e-11
84	0xb1fda54a	-7.3820603e-09
85	0x2fdf5736	4.062543e-10
86	0xb2c551df	-2.2971049e-08
87	0xa46002a8	-4.8574507e-17
88	0xada4a6ea	-1.8718766e-11
89	0x2f819f8f	2.3578337e-10
90	0x33b11a49	8.246986e-08
91	0xb014a6c8	-5.4079097e-10
92	0xae9be472	-7.089164e-11
93	0x2d63e473	1.2954182e-11
94	0x2ba39c04	1.162515e-12
95	0xa3c921dc	-2.1806804e-17
96	0xaddb9c20	-2.4966751e-11
97	0x2f8910ce	2.4932095e-10
98	0xb8137685	-3.515791e-05
99	0xadd01bf4	-2.3659276e-11
100	0xb06c4748	-8.5957597e-10
101	0xaecafa14	-9.230319e-11
102	0xb824e380	-3.9312523e-05
103	0x3039e66a	6.7630046e-10
104	0xb0050d5b	-4.84041e-10
105	0x2fa63064	3.0229608e-10
106	0x2e91e51d	6.634535e-11
107	0xb0db7112	-1.5966484e-09
108	0xabaafa8b	-1.2148766e-12
109	0x2d370878	1.0404226e-11
110	0x2fcd3c23	3.7332012e-10
111	0xae1ce676	-3.5674984e-11
112	0x2e70a78d	5.4718497e-11
113	0xafb0c0bc	-3.215116e-10
114	0xae5df0cb	-5.046345e-11
115	0x31609a6e	3.2684073e-09
116	0x318d5501	4.113304e-09
117	0xb590f53c	-1.0800209e-06
118	0x2ce26e44	6.4355483e-12
119	0x2e0fa6fa	3.266274e-11
120	0xbb23c1cc	-0.0024987338
121	0x2d051df2	7.566824e-12
122	0x3158ad2b	3.1530571e-09
123	0xb0904a47	-1.049849e-09
124	0x338d18a1	6.570304e-08
125	0xb9c68dda	-0.0003787119
126	0x2c8924a9	3.8978443e-12
127	0xa1ef8d40	-1.6232659e-18
128	0x2cca5e49	5.751653e-12
129	0xaf83a5c6	-2.394655e-10
130	0x2cbe0f88	5.401849e-12
131	0xb24a4165	-1.17728165e-08
132	0xb015564e	-5.432853e-10
133	0x30c794c6	1.452144e-09
134	0xa44ff3cb	-4.509247e-17
135	0xa5045d06	-1.1480693e-16
136	0xb84cd280	-4.8833434e-05
137	0xb20ac3d2	-8.077182e-09
138	0xafcc5339	-3.7166517e-10
139	0x2e9df630	7.183265e-11
140	0x2c4ca77c	2.9083116e-12
141	0x301fc59c	5.8124683e-10
142	0x30fc6d52	1.8366484e-09
143	0x301eda42	5.779023e-10
144	0x2ff9ce12	4.5439258e-10
145	0x2d66f25e	1.3127803e-11
146	0x300b8ad7	5.076521e-10
147	0xaedf3203	-1.014975e-10
148	0xb6e3c403	-6.787946e-06
149	0x2d34102c	1.0235406e-11
150	0x2f1cf572	1.4275317e-10
151	0xaec18058	-8.799422e-11
152	0xaf55a076	-1.9429244e-10
153	0xaf2430a1	-1.493299e-10
154	0xadc3b75d	-2.2250363e-11
155	0xb085d27c	-9.736847e-10
156	0xaf318fd9	-1.6149161e-10
157	0xab485a08	-7.1179217e-13
158	0x2e42d778	4.4301868e-11
159	0xb328388f	-3.9166988e-08
160	0x2f45d251	1.7991765e-10
161	0xa21f7cd9	-2.1614612e-18
162	0x31a59e29	4.8201128e-09
163	0x3083591c	9.556831e-10
164	0xb749504a	-1.1999227e-05
165	0xae54ef15	-4.8415567e-11
166	0x207b5c5e	2.1291089e-19
167	0x3131183f	2.5770672e-09
168	0xaee337fc	-1.033271e-10
169	0x2d596336	1.2357051e-11
170	0x2caa533a	4.8409306e-12
171	0xad4ad2f4	-1.1529212e-11
172	0xadeb858c	-2.6775714e-11
173	0xb8933e61	-7.021125e-05
174	0xab7e1102	-9.026253e-13
175	0x315db0bc	3.2260195e-09
176	0xac51875f	-2.9775832e-12
177	0xaf1a43cf	-1.4030309e-10
178	0xada7ea14	-1.9089653e-11
179	0x2f1f8103	1.45068e-10
180	0xadfc79d0	-2.8703179e-11
181	0xaece281d	-9.374921e-11
182	0xb17d843e	-3.6891517e-09
183	0xb1a0f77e	-4.6847495e-09
184	0x2320c5b0	8.715479e-18
185	0x30e9699b	1.6982996e-09
186	0x303fbb09	6.975119e-10
187	0xadbd99bf	-2.155509e-11
188	0x2f389d33	1.6790551e-10
189	0x2fc83cc2	3.642296e-10
190	0x31bed006	5.5533773e-09
191	0x2d1b4d78	8.8279314e-12
192	0xad7b27e7	-1.4276558e-11
193	0xb24be8ff	-1.1869132e-08
194	0xaa11fbfc	-1.2966012e-13
195	0x30e67a7f	1.6769518e-09
196	0x2f8ce48a	2.5628238e-10
197	0xaf296649	-1.54068e-10
198	0x24073b96	2.932393e-17
199	0x3003f264	4.800198e-10
200	0xadd2ed6a	-2.3979669e-11
201	0xace22962	-6.4279007e-12
202	0xb82aea75	-4.0749514e-05
203	0x2e856868	6.066686e-11
204	0x30f5694d	1.7856024e-09
205	0xabc92c44	-1.4294195e-12
206	0x2ea8e19f	7.679834e-11
207	0x20a710de	2.8302062e-19
208	0x2be9765b	1.6588496e-12
209	0xae929053	-6.6649485e-11
210	0xb0f8171b	-1.8050942e-09
211	0xae17eda2	-3.4544485e-11
212	0x30e1a07e	1.6416519e-09
213	0xae61f5ba	-5.1377326e-11
214	0x2d25f86a	9.434323e-12
215	0x2c2d9172	2.4665517e-12
216	0x236a9848	1.2717412e-17
217	0x2f96b2f8	2.7412006e-10
218	0xad192dba	-8.707196e-12
219	0xae8bdb21	-6.359913e-11
220	0x2e4d1311	4.6628538e-11
221	0xade92a16	-2.6507723e-11
222	0xafdbf40f	-4.0009282e-10
223	0xb047de4d	-7.2711687e-10
224	0xb004d2ed	-4.8321064e-10
225	0xba63564b	-0.00086722214
226	0x2e70c744	5.4746666e-11
227	0xb279e1cd	-1.4545049e-08
228	0x2c16cfc0	2.1431606e-12
229	0x224d948b	2.7861319e-18
230	0xaf03aac3	-1.1975047e-10
231	0x8f6beb56	-1.16317186e-29
232	0xb1a1c3b9	-4.707968e-09
233	0xb0be857e	-1.386226e-09
234	0x2f8d350a	2.5685437e-10
235	0x31de777e	6.474635e-09
236	0x2c092ba2	1.9493092e-12
237	0x2d921aa9	1.6610118e-11
238	0xaf9a0882	-2.8018482e-10
239	0x0ccd813c	3.1663031e-31
240	0xab6371ac	-8.080435e-13
241	0x324c3ec4	1.1888634e-08
242	0x2f0afdf0	1.2641244e-10
243	0xb37bd9fd	-5.863875e-08
244	0xb03389da	-6.531572e-10
245	0x3031e53e	6.4718e-10
246	0xb337f40f	-4.2829978e-08
247	0x3003399d	4.7739396e-10
248	0xacb2963c	-5.0757436e-12
249	0x201c3227	1.3230308e-19
250	0xaee0f90c	-1.023058e-10
251	0xaebf37fd	-8.69562e-11
252	0xada78a11	-1.9047016e-11
253	0xacf70dd8	-7.021699e-12
254	0x2df613a3	2.7975683e-11
255	0xae2ef7ab	-3.9782993e-11

fc2.bias f4 [64]
0	0xb87e5e7e	-6.064632e-05
1	0x3d2121e4	0.03933896
2	0xbc99aacd	-0.018758202
3	0xb3ac0bf0	-8.0115456e-08
4	0xa60f788b	-4.977646e-16
5	0x3dada6cd	0.0847908
6	0xa794d282	-4.1306485e-15
7	0x3d225b06	0.039637588
8	0xb6685ae9	-3.462361e-06
9	0xb0b1af01	-1.2928184e-09
10	0xbdbd6fa9	-0.09249813
11	0x983a3fd4	-2.4072162e-24
12	0xb76287a3	-1.350223e-05
13	0xb5ee8d44	-1.7773496e-06
14	0xa5bfa755	-3.3246607e-16
15	0xb80144a5	-3.0819927e-05
16	0xbd695b3a	-0.056971766
17	0xba754656	-0.0009356489
18	0xbe74a502	-0.2389107
19	0xb814884e	-3.5412893e-05
20	0xb911d246	-0.0001390661
21	0x3da566b2	0.08076228
22	0xb99c0d16	-0.00029764388
23	0xac66c7cd	-3.2795878e-12
24	0xb8fe11a7	-0.00012114952
25	0xbb28ee8f	-0.0025776958
26	0xbdba1ea5	-0.09087876
27	0xb1861b15	-3.902992e-09
28	0xbb6edef4	-0.0036448808
29	0xb5f09bcc	-1.7926736e-06
30	0xb9882f2b	-0.00025975084
31	0xa73442d5	-2.5016248e-15
32	0x3ccad8c2	0.024761561
33	0xb2dd8fe6	-2.5793224e-08
34	0x8699a0fe	-5.778876e-35
35	0x3e6a2e29	0.22869171
36	0xace9129e	-6.6243252e-12
37	0xb9817dca	-0.00024698518
38	0xb68a07aa	-4.1136127e-06
39	0xb538eb20	-6.8887493e-07
40	0xb89ed14b	-7.573011e-05
41	0x90156537	-2.9463042e-29
42	0xbe084483	-0.13307385
43	0xb5a96421	-1.2620623e-06
44	0xb763d935	-1.3580827e-05
45	0xb0e0b938	-1.6350787e-09
46	0xac0d7ce9	-2.0106644e-12
47	0x14da3896	2.2034694e-26
48	0x3d898967	0.067156605
49	0x206ba608	1.996021e-19
50	0xb81c1f96	-3.7222715e-05
51	0xb71ee5a7	-9.471004e-06
52	0xaca47d66	-4.6750824e-12
53	0xb8b1a3ed	-8.470551e-05
54	0xbd681616	-0.056661688
55	0x0031f5b3	4.58808e-39
56	0x3d896937	0.06709521
57	0xb0dba6f9	-1.5981804e-09
58	0x3d807d44	0.062738925
59	0xb262745e	-1.318139e-08
60	0x3d802ba1	0.062583216
61	0x3d4413d3	0.04787047
62	0xac51f645	-2.9837393e-12
63	0x3d7a1563	0.061055552

fc3.weight f4 [1, 64]
0	0x3bc01507	0.0058618817
1	0x3e92c842	0.2866841
2	0x3e93c1a5	0.28858677
3	0x3a9e0a24	0.0012057466
4	0xb516e50f	-5.621268e-07
5	0x3ed0d951	0.407908
6	0x3758b975	1.2917783e-05
7	0x3e5fc416	0.21852145
8	0x3a587802	0.00082576287
9	0xb67fac40	-3.8098224e-06
10	0x3e6d62d4	0.23182231
11	0x344f3a06	1.9299486e-07
12	0xb7f2464a	-2.8881379e-05
13	0x3aeef12f	0.0018229837
14	0xb70dd901	-8.45478e-06
15	0xbbd69102	-0.006548048
16	0xbecc2063	-0.3986846
17	0xbaa0bd39	-0.0012263424
18	0xbef12f91	-0.47106603
19	0x3a2b05d2	0.00065239996
20	0xbb854c45	-0.00406793
21	0x3ea11635	0.31462255
22	0xbb23ef76	-0.0025014556
23	0x3973de90	0.00023257197
24	0x39251ca6	0.00015746299
25	0x37d6d065	2.560783e-05
26	0x3e5d5fc2	0.2161856
27	0x3b797333	0.003806305
28	0x3ab83cac	0.0014056168
29	0xb228926e	-9.812181e-09
30	0x39e4c57f	0.00043634695
31	0xb7489253	-1.1954998e-05
32	0x3e1854e2	0.1487613
33	0xbba0984e	-0.0049009686
34	0xb8cab3b0	-9.66558e-05
35	0xbeae302c	-0.34021127
36	0x38b6acfa	8.710656e-05
37	0x395b7cd9	0.00020931977
38	0x358bd80f	1.0419188e-06
39	0xba308818	-0.0006734147
40	0x3a6aebdd	0.0008961538
41	0x3ac25c26	0.0014828488
42	0x3ea96451	0.33084348
43	0xba65f5dd	-0.0008772293
44	0xb78978c4	-1.6387909e-05
45	0x3b24bed3	0.0025138154
46	0x3bc3ade4	0.005971657
47	0xb93fb2c7	-0.00018281779
48	0x3e4389c2	0.19095519
49	0xb7cb67a4	-2.4247747e-05
50	0x3b6abc0f	0.0035817658
51	0x3b78b284	0.00379482
52	0x3a181f28	0.00058029825
53	0xb9036b9b	-0.0001253322
54	0x3e4b7319	0.19868125
55	0xb89f4d48	-7.5961056e-05
56	0xbe593c2f	-0.21214364
57	0x3af4a6b4	0.0018665404
58	0x3e8035fd	0.2504119
59	0xb97b5046	-0.0002396713
60	0x3e8f7c82	0.2802468
61	0x3f1173d0	0.5681734
62	0x38357c79	4.3269687e-05
63	0x3eba9fa6	0.36449927
