agent0_actor_net.pth (torch, 160607 bytes, 6 tensors)

fc1.weight f4 [256, 24]
00000000: 6568 c6bc 20f6 67bd d564 c03c 4b24 b23c
00000010: cdea 903d c239 0abd e464 2cbc 7131 283d
00000020: 7bf1 68bc 31d3 2fbd 7941 113d e294 5e3c
00000030: b502 213d 9426 c13d 20c0 6bbd 8f1e 07bd
00000040: 12ea a6bc 4e81 a1bd 7169 acbc fb2d 8fba
00000050: e011 32be 49f1 5c3e 615f 653c 42f3 71bd
00000060: 6aab 95bc cbdd e0bc df35 993d 0bc1 823d
00000070: e3fe 87bd 7547 3ebd e80b 903c 9701 2b3d
00000080: fa1a 0ebd b6fd 0b3d 4a37 0b3d 3935 803c
00000090: 3d76 843b a45e 8ebd 2406 71bd ed8f 6e3d
000000a0: de3a 39bd f9c6 43bd 572f b53c 0c61 58bb
000000b0: 9b47 d13c 4a88 d9bc b688 a63b 94d7 d83b
000000c0: 7db3 dfbc 59ea 423d ebd1 19bc 7b54 a03a
000000d0: eaa8 5dbd d1ca 31bd 9726 8b3c 16bb b73d
000000e0: 5aeb 923c d504 8a3d 8cf6 033d 05c8 60bd
000000f0: 3c11 11be 4dd8 1bbc b78c b83c 3937 27bd
00000100: 7770 b23d 2b50 a33d faaa 61bd b32d 1dbb
00000110: ae59 1cbe 4bd2 f1bb 608f b2bb 8b3c 6f3d
00000120: 4dc2 9b3c 3a7d 75bd a482 b43d 3a14 553c
00000130: 6bb3 eabd 6e01 a8bd c431 203b 4ebb 973d
00000140: 1d44 983c 0947 78bd 6585 10bc 0c24 233d
00000150: 40a6 bfbd 6524 10be fe76 523c f399 93bb
00000160: 51f9 8f3d 7fb2 473c bd28 9a3d dc51 0a3d
00000170: 69df 7abd 5039 84bd fb5d 2a3d 7e11 67bd
00000180: 551d 933d 9aa8 06bd f44e 97bd 4582 7cbd
00000190: 928e edbc 625e ed3d 3737 edbc dd45 a5bc
000001a0: 0af5 ad3d 2227 cabd a3a2 9a3d d47d 44ba
000001b0: 34e3 ecbd a157 ca3d b3a1 4b3d a1a3 ebbb
000001c0: e316 7b3d e5fa 583c 56da 70bc 63ed 68bd
000001d0: 9dcc 23be a1b6 943d 0224 273c 6304 0a3d
000001e0: 31fa 74bd 9285 273d 83c0 cb3c 7c1d d23d
000001f0: 0035 7bbd fff5 3c3c 0d67 0ebd 780f 163e
00000200: bb82 b1bd f4ed 19bd adda 0a3d a448 b53d
00000210: a20f f03a dfa8 83bd e13e 57bd 662f 933c
00000220: fd18 1fbd 21ee 163d 217a 123c 11be 243d
00000230: 68d5 223c a022 95be a5d4 4dbd 428a fd3c
00000240: 256a 7bbd e42d 2abd 20a1 bebc c09c a4bd
00000250: e270 34bd 4e5e a53d eaff 1bbd 4ef3 ddbd
00000260: c525 82bd 565b c4bd 7b51 85bd 4c34 7dbd
00000270: 9dd3 78bc 943f 7b3d 23f1 64bd 3614 71bc
00000280: 94cb a1bb 1e89 e2bd 4a1c 3abc 88ae 35bc
00000290: 05ad 433d 7784 6abd d480 2f3d c95e 89bd
000002a0: d530 28bd 3ca5 d9bb b81b 3d3c d994 07bd
000002b0: c03f a2bb cfd3 c13c 07c1 22bd 5cb0 cbbd
000002c0: 93ce f2bd 3241 12bd ccf8 4fbc 51bb 03be
000002d0: a497 2b3c 57d4 0ebd 23ad 5dbc 894b c4bd
000002e0: f555 c1bd 865a 7a3c 68db 573d 36e8 e9bd
000002f0: f74b 833d 819a 8e3a 94a9 ecbc 923c 98bd
00000300: 265b cabd 463b c7bd 2665 0ebd 3369 69bb
00000310: a961 55bd 8ad5 bd3c 1a3c 9d3c 8837 413b
00000320: 1968 033d 6ef1 b1bd 3767 fbbb 0683 283d
00000330: ff98 d43c 5c9f 75bd 5d5a b43d b96e 44bd
00000340: 9f68 e9bc 6af8 883c a5f3 633d 5f8f 9fbd
00000350: c9e6 d3bc ce00 cebd 6864 7b3d e8ab 82bd
00000360: 4ae6 763c 7667 15bd c6df ffbc 4cb3 9ebc
00000370: e49e fdbc 7784 e9ba 1a1a fbbb 6d2a 76bd
00000380: c723 ce3c 9600 62bd 1b09 883d 041b 9bbb
00000390: fb7d 693d aa4d a2ba f62b 3f3d 84bb 763d
000003a0: 344d 08bd eba0 95bd 5e4d d0ba 3ce4 323d
000003b0: f64a bfbc 28ef ac3d ddca da3c 9bde a13c
000003c0: 0709 43bd 85fd cd3d 0f7c e73c 777b 0dbd
000003d0: 0414 9f3c ffba 603d 60c3 01bd f079 e03c
000003e0: be0f 78bd e998 eb3d 24a4 333d 32cd 1c3d
000003f0: 4180 363d e440 80bd d5a6 b7bb f810 5fbd
-0.024219701 -0.056631207 0.02348558 0.021745821 0.07076035 -0.03374649 -0.010522101 0.041062776
-0.01421773 -0.042926017 0.03546283 0.013585301 0.039309222 0.09431186 -0.05755627 -0.032988127
-0.020375285 -0.07885991 -0.021046372 -0.0010923737 -0.17389631 0.21576418 0.013999791 -0.05906988
-0.018270213 -0.02744951 0.07480978 0.06384476 -0.06640413 -0.046454865 0.017583802 0.041749563
-0.034693696 0.034177504 0.033988275 0.015650379 0.0040424154 -0.06951645 -0.058843747 0.058242727
-0.045222156 -0.047797177 0.0221173 -0.0033016829 0.02554684 -0.026554246 0.005082215 0.006617496
-0.027307266 0.047586773 -0.009388427 0.0012232208 -0.054116167 -0.04340631 0.016986175 0.08971231
0.01793449 0.06739203 0.032217547 -0.054878253 -0.1416673 -0.009512019 0.022528036 -0.04082415
0.08712857 0.07974275 -0.055094697 -0.0023983538 -0.15268585 -0.007379805 -0.0054492205 0.058407348
0.019013548 -0.05993388 0.0881398 0.013005311 -0.114600025 -0.08203398 0.0024443725 0.074087724
0.018587166 -0.06061462 -0.008820866 0.0398293 -0.093578815 -0.14076383 0.012845753 -0.004504436
0.07029975 0.012188553 0.075273015 0.033769473 -0.061248217 -0.06456244 0.041593533 -0.056413166
0.07183329 -0.032875635 -0.07388106 -0.061647672 -0.028998647 0.11590268 -0.028956993 -0.020174915
0.08494003 -0.09870745 0.07550552 -0.00074955565 -0.11566773 0.09879995 0.049714755 -0.007191137
0.061301123 0.013243412 -0.014700493 -0.056867015 -0.15996023 0.07261396 0.010201456 0.03369559
-0.059808914 0.040898867 0.02487207 0.1025953 -0.06132984 0.011533259 -0.034766246 0.14654338
-0.08667513 -0.037580445 0.03389995 0.08851746 0.0018315206 -0.06428694 -0.0525502 0.017966937
-0.03884219 0.03684819 0.008940251 0.040220324 0.009938575 -0.2912798 -0.05025162 0.030949716
-0.061380524 -0.04154767 -0.02327019 -0.0803771 -0.044052966 0.08074628 -0.038085856 -0.10837422
-0.0635486 -0.095877334 -0.06509682 -0.061817452 -0.015187171 0.06133993 -0.05589403 -0.014714291
-0.0049375985 -0.11061309 -0.011359284 -0.011088975 0.047772426 -0.057255235 0.04284747 -0.06707532
-0.041062195 -0.006642012 0.011542253 -0.033100937 -0.0049514472 0.023660569 -0.039734866 -0.09945747
-0.11855807 -0.035706706 -0.012693595 -0.12864424 0.010473166 -0.03487047 -0.013530049 -0.0958472
-0.09440223 0.0152803715 0.052699476 -0.11421244 0.064109735 0.0010879786 -0.028889455 -0.07433428
-0.098806664 -0.097281024 -0.03476443 -0.0035615682 -0.05209509 0.023173112 0.019193698 0.0029482562
0.032081697 -0.08688627 -0.0076722163 0.04114058 0.02595186 -0.05996643 0.08806298 -0.047957156
-0.02849227 0.016720016 0.05565228 -0.07791018 -0.025866883 -0.10058747 0.06137505 -0.06380445
0.015069554 -0.03647562 -0.031234633 -0.019372605 -0.030959554 -0.0017815967 -0.0076630237 -0.060099054
0.025163544 -0.05517634 0.06642362 -0.004733445 0.05700491 -0.0012382765 0.046672784 0.060237423
-0.03327675 -0.07306083 -0.0015892198 0.043674693 -0.023351174 0.08444053 0.02670806 0.019759467
-0.04761603 0.10058121 0.028257398 -0.034541573 0.019418724 0.054865833 -0.031680465 0.027401894
-0.060561888 0.11503775 0.04385771 0.038281627 0.044555906 -0.06262377 -0.0056046047 -0.054459542

fc1.bias f4 [256]
00000000: 976e 13be e2bb 473e 86d3 d5bd e1a4 9a3d
00000010: 973b 6fbe bba2 5f3d 7156 173e 34a4 543e
00000020: 70f7 c2bd a8ee 78bc beb3 12be 955e c53d
00000030: 661a dabd 3885 51bd 27f3 d8bd f21a 1bbe
00000040: 2731 d93c 4224 d9bd 1ef9 673e ef41 babd
00000050: f104 6f3e 7544 9b3c 3fb4 2fbe 50c5 213e
00000060: 4a3e 5f3e a902 ee3d 398f 1a3e 54ad e7bc
00000070: e49b 43bd 2059 a9bd c7d5 b5bc c84e d9bc
00000080: 1c28 9c3d 9d7b 2f3d 1455 82bb 1032 243d
00000090: c9d8 1b3e 3154 593e ac27 433e d8df a03c
000000a0: 9985 32bd 429d c6bd 153d aabd 00ce c2bc
000000b0: df63 763e 6954 4ebd 2089 d53d 644e 18be
000000c0: e366 aabd c8b8 2bbe 6f7b 4abd fbea 173e
000000d0: d69a 163e c844 243e e7a4 27be f321 f4bd
000000e0: 9a48 3b3d 0734 243d 66a1 b3bc 792f 80bd
000000f0: 878b 5cbd d9a4 2dbd 2805 c9bd d6f6 6c3e
00000100: 6899 3cbd b0db 1abe b20d 36be e589 e9bd
00000110: 4bcb 00be 7d9d 9d3d 0b4f 4abe f87a 82bd
00000120: edf9 5e3e 45fb e93d 00d1 a0bd d9fb f8bc
00000130: 7274 60be ba58 253e dc4f c83c dd81 7dbd
00000140: 9b5c 893d c8cd c6bd 5cd5 80bd 392d 2cbd
00000150: f3be cf3d 1e37 213e eb06 803d 6073 3e3e
00000160: c575 f03d da83 e5bd 3880 1d3a 7f35 273e
00000170: df8d c0bd 6c8f 283e 2412 1a3d 21ba ae3d
00000180: 27a2 5b3d 07f9 063e 2e28 1abd 9cad b93d
00000190: dce5 08be 036c cbbd 8954 193e 9ce1 0bbd
000001a0: 21c9 163d a4aa e1bd a5c5 2e3e 543e b83d
000001b0: 5af5 2cbd d923 da3d 2dc5 023e 17db d8bb
000001c0: e37b 203e 59fd 183e caed cabd f920 9cbc
000001d0: e0cd 0bbe aa45 3c3e 70d4 ca3c f5b9 4bbe
000001e0: 58dc 203e e066 ec3d bb19 253e 4812 6d3d
000001f0: add0 0f3e 3b8e 4a3e 2c4b bebd 8081 80bd
00000200: 5f50 4dbd ce70 193e 262f 0c3d 13e5 3cbd
00000210: 10ae f8bd 1f12 863d 8aab 273d aead ce3d
00000220: 5fe2 efbd db6a b23d fe7f a73d 8274 3dbd
00000230: 6955 70bc 2d3c 323e 1bc6 6e3d 731b ec3d
00000240: d394 9dbd 76c0 393c ad14 2d3b 8fda 16be
00000250: 98f0 1cbe fc04 683d 6978 113e 3eac 153e
00000260: b111 153e d226 d33b 9f41 ec3c 62c8 243e
00000270: 84fd 81bd e1f2 4a3d 3aa8 3bbd 3421 92bd
00000280: 94de 4f3c 01ef 0e3e ba7c 953d 1a67 f8bd
00000290: b926 0bbe d129 163e 6ab7 0d3d 2b14 3a3d
000002a0: 9874 09be ad83 8e3d 32ea aabc 11e1 6d3e
000002b0: 011f 3a3e 75c6 24be 3f2f 03be 9fb4 6fbd
000002c0: d8fe 163e e3cc c23a 2d37 6ebd 1a64 803b
000002d0: db61 24be 3ebb 2bbd 40b2 17bb 62ca 8bbb
000002e0: 2833 8b3c 0465 dd3d 83e3 a23c 5f3e 91bd
000002f0: d8e4 32be 35b1 a73d e9a1 bd3c 5ba8 133e
00000300: 311e 093e 46fa 7cbc 26bb 78bd 9934 023e
00000310: 9789 293e b830 003e 18ac 2f3e 72f6 0c3e
00000320: 5edf ebbb d5f8 47be dd9f 22be a2c8 bf3c
00000330: 7022 4a3e f94f c73d 64c6 3abe 2842 7c3e
00000340: eaeb 003e 484f 2dbc 9f42 5bbd 2839 f03d
00000350: 0581 1dbe ba95 95bc 0ac8 393e e235 443e
00000360: 5bef 053d 95e4 bebd 07d0 dfbd de48 31bd
00000370: 078d 05be 426a 153d c2a8 71be 0ee8 103d
00000380: cf30 323d 7b03 4b3e b80f 72bd 146f 2bbe
00000390: 05f5 2f3e 6b95 323e 1cff 01be 2c7d 073e
000003a0: 120d 1fbe 9aab e2bd 418c 91bc 3a26 07be
000003b0: 1aff 313e a0cf c8bd f312 e4bd e684 9f3d
000003c0: a70a c43c fcd0 663e e47a fa3d e44b 43bd
000003d0: 10a1 533e 9a1c 5c3d ad3f b0bd 50ee be3d
000003e0: 4d43 523e 9c03 c3bd 49b3 3c3e bbba fa3d
000003f0: 8fd8 453e 6d81 973d edaa 1dbe 9243 3d3d
-0.14397655 0.19505265 -0.104407355 0.075509794 -0.23362575 0.05459855 0.14779069 0.20765764
-0.09519851 -0.015193619 -0.14326379 0.09637181 -0.10649566 -0.051152438 -0.10593253 -0.15146998
0.026512695 -0.10602619 0.22653624 -0.09094607 0.23341729 0.018953541 -0.17158602 0.15797925
0.21801105 0.11621601 0.15093698 -0.028280891 -0.04775609 -0.08268952 -0.022196664 -0.026526824
0.07624838 0.042842496 -0.0039774273 0.040086806 0.15219416 0.21223523 0.19058102 0.019637987
-0.04358444 -0.09697963 -0.08312432 -0.02377987 0.24061535 -0.05037347 0.10426545 -0.14873654
-0.08320405 -0.16769707 -0.04943412 0.14835732 0.14707503 0.16041863 -0.16371499 -0.11920538
0.045723535 0.04008868 -0.021927547 -0.06259055 -0.053844 -0.04239354 -0.098154366 0.23141035
-0.046044737 -0.15122867 -0.17778662 -0.114032544 -0.1257755 0.07696054 -0.19756715 -0.06371111
0.21775027 0.11424879 -0.078523636 -0.030393528 -0.2191942 0.16147128 0.024452142 -0.061891425
0.06707116 -0.097072184 -0.06290695 -0.042035315 0.101438425 0.15743682 0.062513195 0.185987
0.11741213 -0.11206789 0.0006008181 0.16329001 -0.0940206 0.16460961 0.037614956 0.08531595
0.053621437 0.13180934 -0.037635975 0.090663165 -0.13368934 -0.09932711 0.14973654 -0.034150705
0.036812905 -0.11018875 0.17067583 0.08996263 -0.042226173 0.10651369 0.12770529 -0.0066179144
0.15672259 0.14940394 -0.09908636 -0.019058691 -0.13652754 0.1838595 0.024759501 -0.19895156
0.15709054 0.11543059 0.16123097 0.057878762 0.14044447 0.19780819 -0.09291682 -0.062747
-0.050125476 0.14984438 0.03422465 -0.0461169 -0.12142575 0.06546425 0.040935077 0.100917205
-0.11713099 0.08711787 0.081787094 -0.04625369 -0.014668801 0.17405768 0.058294397 0.11528673
-0.076944016 0.01133739 0.0026410029 -0.14731811 -0.15326154 0.05664538 0.14206089 0.14616486
0.1455753 0.0064438367 0.028839884 0.16092065 -0.063471824 0.049548034 -0.04581473 -0.07135239
0.012687344 0.1395836 0.0729918 -0.1212904 -0.1358899 0.14664389 0.034598745 0.04542939
-0.13423383 0.06958709 -0.020863626 0.23230387 0.1817589 -0.1609133 -0.12810992 -0.058521863
0.14745653 0.0014862086 -0.05815809 0.003918183 -0.16052954 -0.041926615 -0.0023147017 -0.0042660693
0.016992167 0.10810283 0.019883877 -0.070919745 -0.1747011 0.081880964 0.023148494 0.14419691
0.13390423 -0.015440529 -0.060725354 0.12715377 0.16556393 0.12518585 0.17155492 0.13765886
-0.0071982583 -0.19528516 -0.15881296 0.023411099 0.197397 0.097320504 -0.18239743 0.24634612
0.12589994 -0.010577984 -0.05353033 0.11729652 -0.15381248 -0.018259872 0.18142715 0.1916118
0.03269897 -0.09320942 -0.1092835 -0.043282382 -0.13042079 0.03647829 -0.23599532 0.035377555
0.04350358 0.19825546 -0.05909702 -0.16741592 0.17183311 0.17439811 -0.12694973 0.13231343
-0.1553233 -0.11067887 -0.017767074 -0.13198176 0.1738247 -0.09805226 -0.11136427 0.0778902
0.02393086 0.22540659 0.12230471 -0.047679797 0.20666909 0.053738214 -0.08605895 0.09322798
0.20533486 -0.09522173 0.18427767 0.12242647 0.19320892 0.07397733 -0.15397234 0.04620702

fc2.weight f4 [128, 256]
00000000: 45bb c33d d9a5 453d a7c8 903d 7fa1 af3c
00000010: 3b9f 8bbd 9a6c 3cbc 8d14 dfbb 063d b23c
00000020: 22ca b2bd 295e be3d 3e29 89bd 1eb8 843d
00000030: 820a a6bd 9f6f dd3d 2690 233d 9585 a13d
00000040: 0c2f 10bd 8f1a 813c a89a 9a3d 7ee0 823d
00000050: fa7c c23d 73e1 2dbd 0703 adbb 9565 76bd
00000060: 8c3c c2bd e0d4 3b3e f8e5 a4b9 f3f9 013d
00000070: ad06 3439 174b 09be 4bd1 e7bc fd03 5cbd
00000080: a661 babc 3494 6e3d 5e7a 8a3d 3ced 9abd
00000090: 4dab 0ebd 5273 fa3d d61c 963d 6ccc adbb
000000a0: bd80 4f3d e4f3 c43c 31f1 08bd 6067 c3bd
000000b0: b67e f5bd e774 9cbd 01f4 4cbc ea4a 153e
000000c0: 7178 3bbd b916 26bd f0c3 a9bd 999c bcbd
000000d0: ea78 343d d3a4 863d afc4 893d 3902 423d
000000e0: 01f9 95bd 2b1f 6c3d ecc0 f83c fe74 fcbe
000000f0: 5c74 15bd c0b5 cbbd 66b4 713c 0def 8c3d
00000100: 201e 50bd 0a5a 56bd 2f67 2d3b a3b7 853d
00000110: 0ca3 b1bd 0e01 703c 8ea0 983b 7dd4 dd3c
00000120: 36bc 713d 2ad5 253d 7425 c4bb fa9b 91bd
00000130: 682d eebc 6d2e 0ebe 9de8 a43d 5d9f 723d
00000140: 9ad4 0b3d 76e6 37bd 9bda 62bd e424 2c3d
00000150: 3356 cbbd 6de0 fa3b 02c6 a03c e37e 1d3d
00000160: 96d8 1f3b 0333 633c 1549 463c 164b 233e
00000170: 8aab ba3c 523e f3bc 9c45 81bd b242 b93d
00000180: e25b 14be 9420 093c 8271 203d a67a f83d
00000190: bfea dc39 4a63 98bc 7579 2cbe 43f3 743c
000001a0: 9aa6 32bd 33a4 cc3c 2ec9 32bd 1900 39be
000001b0: 6f3b 22bd 9f68 4e3d 3a70 a6bd b30d 9b3d
000001c0: 3b93 153d 7127 24bd 7f26 523d 5691 993c
000001d0: 5f8a 5b3e 6437 143d ffeb 523c 2c09 a7be
000001e0: 24ee cc3c 3aa6 133e 3e92 54bb 365f 9a3c
000001f0: 4243 443d 9e11 d4bd 5e7e dbbb 64cb 83bd
00000200: 4a97 0d3c 4c2e 36bd 94f3 193e 8a2c 50bc
00000210: 15fc 83bd 6b17 963d 9e8a 463d db14 213d
00000220: 0fc4 323e 9a3c 0d3e 1b82 963d c033 f73d
00000230: fdf3 a6bd f208 94bc c41d da3d a8f5 be3c
00000240: 8916 a3bd d560 a1bd 8955 1abe 45d0 bb3c
00000250: 21cc 413d e764 9dbb 8f67 003d bcbd 253e
00000260: bdf7 df3d 67bc ea3c 1847 1ebc 81a2 d93c
00000270: 8238 173e 9675 e3bc 1697 373d 0a84 bb3c
00000280: 674f b23d 7fe8 f13d 7eb8 ee3d c51a 793d
00000290: 301e 5dbb 7346 0b3d 0c1e 03bd acaa d33c
000002a0: 0c93 793a 5c6e db3d 7677 03bc 3a7a 1f3c
000002b0: 76eb 093d 9613 f43d a85a 0fbe f84b 853c
000002c0: 6264 923c daf5 9ebc 9294 033d d8a6 0dbd
000002d0: 72c0 de3d 60ec 1dbc 22ea 5e3d fc3c 6b3d
000002e0: 667f 2cbc f3e5 3c3e df90 c9bc 0bf8 a1bc
000002f0: 1857 513d e31f 133e 7dfb ccbc 83bb 4a3d
00000300: 6dd9 bebc 73b1 ec3d 1b34 b9bb 4206 bfbd
00000310: 21b9 74bd b4c0 a23d 0cd1 61bd d3d0 f53b
00000320: 71cd 403e 979d 633d 0843 14bd da03 81bc
00000330: a1f0 af3c 102c c33d 544b 8fbd 9b36 97bd
00000340: d469 f23c 3a12 f63d 5db9 e6bc 1ba3 bcbd
00000350: 694e 77bc cd42 b8ba 14d5 c6bc 3d66 dbbb
00000360: 0706 f9bc 08a3 dbbc 0028 e43c b9e7 263e
00000370: 9a7d b3bc 60c6 1b3e 1f2b 253d 7bf4 293d
00000380: 6bf7 8cbc 25e4 2ebd 4b75 0a3d fe44 a9bc
00000390: 94fe 2dbd ce50 ec3d bc71 44bd f235 cdbd
000003a0: 6eab 293e afff 60bc f671 9abd c656 783c
000003b0: 6e81 d73c 20b4 8ebc 0f0d 213e 2827 0a3e
000003c0: 90d9 e53d 6f01 0f3d 2c39 1ebd 78af 0f3e
000003d0: 79e2 8ebc 0e54 6abc cfbc 18bc bfe1 cfbd
000003e0: 42b3 083d fcc3 413d c47b 313d a41c 0c3e
000003f0: d6c0 813c 9f00 90bd 0593 48be 730d 853c
0.09557203 0.048253868 0.070695214 0.021439312 -0.0681748 -0.011500502 -0.0068078698 0.021757614
-0.0872996 0.092953034 -0.066973194 0.0648043 -0.08107473 0.10812306 0.039932393 0.07886807
-0.035201117 0.015759734 0.075490296 0.06390475 0.09496494 -0.042451333 -0.005279902 -0.06015547
-0.09484205 0.18342924 -0.00031451858 0.03173251 0.00017168625 -0.13407551 -0.02829804 -0.05371474
-0.02275164 0.058246806 0.06761621 -0.0756478 -0.034831334 0.12229027 0.07329719 -0.00530391
0.050659884 0.024042077 -0.033433143 -0.095412016 -0.11987059 -0.07639485 -0.012509347 0.14579359
-0.04576916 -0.040549014 -0.08289325 -0.09209556 0.044060625 0.065744065 0.067269675 0.0473654
-0.07322884 0.05764691 0.03036543 -0.49308008 -0.036487922 -0.099467754 0.014752483 0.06881533
-0.05080998 -0.05233196 0.0026459207 0.065291665 -0.08673677 0.014648689 0.0046578115 0.027078861
0.059017383 0.040486492 -0.00598591 -0.07109828 -0.029074386 -0.13884898 0.0805218 0.059234012
0.0341383 -0.04489752 -0.05538426 0.04202737 -0.099285506 0.007656148 0.019625667 0.038451087
0.002439057 0.013867143 0.012102385 0.15946612 0.022786874 -0.029692803 -0.06312105 0.09045924
-0.14488176 0.008369584 0.03917075 0.12132768 0.0004213657 -0.018602032 -0.16843207 0.014950576
-0.043615915 0.02498064 -0.04364889 -0.18066444 -0.03960746 0.050392743 -0.08126874 0.07570972
0.036517363 -0.040076677 0.051306244 0.01874606 0.21439503 0.036185637 0.012873649 -0.32624185
0.025015898 0.14418879 -0.00324358 0.018844228 0.047915705 -0.10354923 -0.0066984138 -0.06435278
0.008642027 -0.044477746 0.15034324 -0.012705931 -0.06444565 0.073286854 0.04847204 0.03932653
0.17457603 0.13792649 0.073490344 0.120704174 -0.08152006 -0.018070672 0.106502086 0.023310497
-0.079632826 -0.07879797 -0.15071692 0.02292646 0.047313813 -0.0048032883 0.03134876 0.16185659
0.10935924 0.02865429 -0.009660505 0.026566746 0.1476765 -0.02776603 0.04482182 0.02289011
0.08706551 0.11811923 0.11656283 0.060816545 -0.0033739917 0.034002732 -0.032011077 0.025838219
0.0009520508 0.10714409 -0.008024087 0.009733731 0.03367182 0.11917798 -0.13999426 0.016271576
0.017870132 -0.01940434 0.03212411 -0.034582943 0.1087655 -0.009638876 0.054422505 0.057431206
-0.010528421 0.18447094 -0.024605213 -0.019771596 0.05110845 0.14367633 -0.025022263 0.04949523
-0.023297036 0.11557283 -0.0056519634 -0.093273655 -0.059746865 0.079469115 -0.055131003 0.0075017004
0.1882837 0.05557021 -0.03619674 -0.015748907 0.021477045 0.09529889 -0.069967896 -0.07383462
0.029591478 0.12015195 -0.02816456 -0.092107974 -0.015094378 -0.0014057994 -0.024271525 -0.0066955374
-0.030398382 -0.026811138 0.027851105 0.16299333 -0.021910477 0.15212393 0.040324327 0.04149292
-0.017207822 -0.042698044 0.033803266 -0.02066278 -0.042479113 0.1153885 -0.047960028 -0.10020055
0.16569301 -0.013732835 -0.075412676 0.015157407 0.026306834 -0.017419875 0.15727638 0.134915
0.112231374 0.034913477 -0.038628742 0.1403178 -0.017441975 -0.014302267 -0.009322359 -0.101504795
0.03337408 0.047306046 0.043330923 0.136828 0.015839022 -0.070313685 -0.19587334 0.016241765

fc2.bias f4 [128]
00000000: 0918 1d3d 857f a23c fac9 3a3d 4783 673d
00000010: 530f 813d 075b 1fbd de74 173d 25ac f13c
00000020: 6265 70bd 808d 263d c785 2b3d c994 983c
00000030: e5df 433d d1c6 8a3d 883a 0c3d 098b b2bc
00000040: 9807 efbc 00c6 c33c b165 763d 10e0 cc3c
00000050: 26f7 8c3d a012 da3b 67f8 b4bc 32a8 683d
00000060: d878 e2bc d58b 803d 94d6 c73d 6710 043d
00000070: 228b 323d d973 713d e93f 6c3d 810f 2f3d
00000080: fb71 393d 60c5 03bd a3af dc3c 002f fd3c
00000090: 7145 8c3d 06df b63b 4f6a 9abc ae89 d8bc
000000a0: 39e5 4d3d 8b4a 1ebd 9352 b33d fe29 113d
000000b0: bd3d 3abd ed1b 4a3d 9851 0ebd 4635 a23d
000000c0: 25e5 9b3c 4afa 27bc 4f9b 703d 8345 b43d
000000d0: 7155 4cbd 0171 fabb 5601 abbc d33d fabc
000000e0: 05e9 a3bb 67b8 25bc 051d b53d 7a04 6f3d
000000f0: 594b 153d a963 3dbd 85cc 413d 65ef a03c
00000100: 37f4 debc 2ad4 8d3d 061d 55bc 6c65 a4bc
00000110: 7c37 02bd 1005 743c 1c65 2ebd 4f80 5f3d
00000120: 9579 76bd e700 a43d 0c9d 813d ea62 803d
00000130: 3ab6 a13c c68f ed3c 77e2 28bb 88e4 793d
00000140: 3ee0 4d3c 1df7 e33b ea0c 1f3d cced febc
00000150: 842d 1cbd eed6 793d 6986 c23b 2169 62bc
00000160: ffb4 8b3c c4a7 0abd 34d6 953c 0780 b1b6
00000170: 7b91 88bd bdf6 843d b2ef c1bc f251 823d
00000180: e13a 3d3d f3dc 6e3d 8cea de3c c977 133d
00000190: 44e2 753d 316e 23bd f514 dcbc a7a8 a2bd
000001a0: ac3b 5d3d 6fe6 40bd acbf ce3c 7fdd 733d
000001b0: 8b8f 8ebc 8ab2 353d 4ae7 4fbd 12f4 e43b
000001c0: 9e68 cfbd 0d4e 2d3b e78c c3bc 8df7 853c
000001d0: b950 303d 13af 7b3d 4314 213d 0f1f 6b3d
000001e0: 2f5e 6f3d a290 663d 301f 35bd 4baa 9cbb
000001f0: afc4 c1ba 9162 073d 7f26 5cbd b906 003d
0.038353 0.019836197 0.045602776 0.05652168 0.06301751 -0.03890517 0.036976688 0.02950103
-0.058690436 0.04066229 0.041875627 0.018625634 0.047820944 0.067762025 0.034235507 -0.021794813
-0.029178426 0.023898125 0.060155574 0.025009185 0.06883077 0.0066550523 -0.022091104 0.05680103
-0.027645513 0.06276671 0.097577244 0.032242205 0.04358972 0.05894837 0.057678137 0.042739395
0.045274716 -0.032170653 0.026939219 0.0309062 0.068491824 0.0055807857 -0.01884952 -0.026432838
0.050267432 -0.03864531 0.08755984 0.035440437 -0.045469034 0.04934304 -0.034745783 0.07920317
0.019030163 -0.010252545 0.058741864 0.08802321 -0.04988617 -0.0076428656 -0.02087466 -0.030547058
-0.0050021433 -0.010114766 0.08843426 0.05835388 0.03644881 -0.04623762 0.047314186 0.019645402
-0.02721606 0.06925233 -0.013007408 -0.020067893 -0.031791195 0.014893785 -0.042576894 0.054565724
-0.060174543 0.080079846 0.063287824 0.06268866 0.019740213 0.02899922 -0.002576975 0.06100896
0.012565671 0.0069569484 0.038830675 -0.03111925 -0.038129345 0.06099599 0.005936433 -0.01381901
0.01705408 -0.0338514 0.018290617 -5.2899154e-06 -0.06668373 0.06492374 -0.023673866 0.06363286
0.04619873 0.058316182 0.02721145 0.036002908 0.060030237 -0.03990001 -0.026865462 -0.07942324
0.054011986 -0.04709476 0.02523788 0.059537407 -0.017402431 0.04435972 -0.050757684 0.0069871033
-0.10127376 0.0026444227 -0.023870898 0.016353393 0.043045733 0.06144626 0.039325964 0.057402667
0.05843943 0.056290276 -0.044219196 -0.0047810427 -0.0014783348 0.033052985 -0.05374765 0.03125641

fc3.weight f4 [2, 128]
00000000: b945 a1bd be21 953d 5570 e23d 784b 26be
00000010: 8f23 c0bd fb7d 1cbe a6e8 20bd 25e0 a9bd
00000020: 7a18 cb3d d7fb a43d f288 df3d 3679 9e3d
00000030: edbc 0d3e 48a6 8b3d ca73 8d3c 7eee 8bbd
00000040: 0268 98bc eb55 dcbd 8c16 8e3d 99b7 643d
00000050: 0fcf c23d 09f2 793d 9a4e 97bd bb44 713d
00000060: 9930 b33d cb2a 9a3d adac 143d 743f 98bd
00000070: 7b7c 9e3d 8458 babd 037b e3bd 22fc bbbd
00000080: b3fe 8e3d 7ba7 403d b078 c6bd 1d3c 9d3d
00000090: 3710 af3d 1d43 ee3d 3536 113d b838 c33d
000000a0: 91c4 f0bd 783e 6a3d 848c d63d 1a8c be3d
000000b0: 478c c5bd 4e39 843d f190 b8bd a74d 95be
000000c0: 12ca adbd 96f8 c33d 63a2 c7bd e79f 883d
000000d0: 6cce 8c3d 2316 04bd d14d a33d a628 123e
000000e0: 4896 d63d eb9f 1d3d f084 aa3e 404a 383d
000000f0: 3e9f 07be d999 893d bf4a 89bd 3012 cb3d
00000100: 8013 fc3d 57b7 9a3d ddb7 c6bd 5c19 40bd
00000110: 34ba c03d be0c 163d faa7 fb3d dafa e53c
00000120: 2dbe 493e f808 1f3d 7eb5 83bd ccdd d9bd
00000130: aa56 b3bd ac1f b9bd 54a7 08be a23a 013e
00000140: d528 b9bd dcc8 02be c3fd 9abd eeca bfbd
00000150: f8d3 16bd f7bc 8dbd f0cc de3c de39 7dbd
00000160: e03a dabd d921 683d ec8f 4d3d b895 093d
00000170: 7033 e53d b313 bf3d 3bcb 3a3d 67d8 9e3d
00000180: 203e 3b3d 599d 9abd 5bf1 31bd ca59 b2bd
00000190: 229f 88bd b802 b13c dd8e acbd 1251 04be
000001a0: 277d e4bd e5a0 24bd d79f 423d 7fba a6bd
000001b0: c6e2 ffbd 486c 043e 7c6d 463d ee8b a5bd
000001c0: 4282 a83e aa29 7c3d 196b 9fbd df08 023e
000001d0: aab9 c03d c0f6 783d 2917 bdbd 2614 0d3e
000001e0: fb07 9f3d 1474 02be 87bb 6f3d b8db 5d3d
000001f0: e825 703d bcde bc3d 7949 b1bd a607 c1bd
00000200: ae99 3dbd 20cb 2c3e 1c3b c5bd 7fad 74bd
00000210: fd31 84bd 2b85 69bd 99a7 163d 1e18 353b
00000220: 07de 063e d47d 703c be19 073e 7d21 283e
00000230: daff 933c 94a3 a13d cdd6 8f3e ea20 81bd
00000240: 80db 1abe 5268 cb3d 7383 b2bd 5f62 a53e
00000250: 5c93 8a3d 05fe f83d 349a 2fbd 7ff8 0e3e
00000260: 7c80 ae3d a150 463e 982f ec3d 5cc6 dfbd
00000270: 3769 893d 109a b0bd a70e a8bd 4a55 d93d
00000280: 8a55 013e 703d 6b3e c60c 5a3c 3df9 3a3e
00000290: e227 0e3d 4135 003c 01a7 ba3d 65d7 a3bd
000002a0: 0f8f 8fbd f3a3 893d f599 d03e 9210 e73c
000002b0: 88dc 1fbd 5ae3 7a3d edb5 39bd a3e9 e4bd
000002c0: c52d 4bbd 050c a0bc 8f98 fbbc 71a1 82bd
000002d0: fccd b9bd b023 47be a02b 153e e4f0 bebd
000002e0: 722f 25bd 61a2 9b3d ee24 0ebf 7fd4 1d3e
000002f0: f85f 14bd f26d 313d ca18 95bd 21b4 513e
00000300: 222e 5a3c 7f52 11be 54c9 79bb 61fc 78bd
00000310: 8362 163e e513 b53e a733 433d 3e1c cc3d
00000320: f1eb 86bd 6cf9 a73d e952 88bd fe32 90bd
00000330: 3b77 08bd 434f 67bd 25dc 8ebd e9dc 06bd
00000340: ec87 5fbd b202 a9bd b7cd 26be 75b3 6cbd
00000350: ad9a 663e e635 e6bc 69f8 17be f4ea 20bc
00000360: ccab c9bc ae0f 663e f96f 043e 3b5f b13d
00000370: c6f0 f1bd 3d31 aabc a514 183e 68f4 0a3e
00000380: d5b9 cd3d 1b03 86bd a9da 873d dd5d bcbc
00000390: 066b 52bd 8064 e8bd 2115 71bd 6e5c 123f
000003a0: e11a 3d3d 0441 86bd f4cf b23d d910 76bd
000003b0: 69a2 443f 6af8 603e 6444 b0bb 9321 a6bc
000003c0: 7656 503e efad 503e 45a5 32bd bd93 15bd
000003d0: 72f5 8d3d 11ff 573d 4992 a1bd 6814 a33d
000003e0: 63ac 663e 2f6d b1bd 332a 3c3e f7df cabd
000003f0: 6d96 a8bd c857 edbc 24fc 0abd 0aad f8bc
-0.07874627 0.072818264 0.11056582 -0.16239727 -0.09381782 -0.15282433 -0.03928437 -0.08294705
0.09916778 0.08055847 0.10914792 0.07737963 0.138416 0.06818825 0.017267127 -0.06832598
-0.018604282 -0.10758575 0.06937894 0.055839155 0.095121495 0.06102184 -0.07388039 0.058903437
0.08749504 0.07527693 0.03629749 -0.07433978 0.077385865 -0.09098914 -0.11107447 -0.0917895
0.06982174 0.04703472 -0.09690988 0.07677481 0.085480146 0.116338946 0.035452086 0.095323026
-0.11756242 0.05718848 0.1047602 0.09304066 -0.096458964 0.064562425 -0.090120204 -0.29160807
-0.084858075 0.095688984 -0.0974777 0.06671124 0.06875309 -0.032247674 0.07973827 0.14273319
0.104778826 0.038482588 0.33304548 0.044992685 -0.1324434 0.06718797 -0.0670371 0.09915578
0.12308407 0.075545006 -0.09703038 -0.046899185 0.094105154 0.036633246 0.12287898 0.028073717
0.19701453 0.038826913 -0.06431101 -0.106380075 -0.08756764 -0.09039244 -0.1334508 0.12620023
-0.09040991 -0.12771934 -0.075679325 -0.09364878 -0.036823243 -0.06920808 0.027197331 -0.061822765
-0.10655761 0.056672905 0.050186083 0.03359005 0.111914515 0.09329929 0.045603972 0.07756119
0.045713544 -0.07549543 -0.043443065 -0.08708532 -0.06670977 0.021607742 -0.084256865 -0.12921551
-0.111566834 -0.040192503 0.047515716 -0.0814104 -0.124944255 0.12931931 0.048444256 -0.0808333
0.3291188 0.06156317 -0.07784099 0.12698697 0.094104126 0.060782194 -0.09232933 0.13777217
0.07765194 -0.12739593 0.05852845 0.05416462 0.0586299 0.09222171 -0.08656592 -0.09425287
-0.04628914 0.16874361 -0.09630415 -0.05973577 -0.06454847 -0.057011764 0.036780927 0.0027632783
0.13170634 0.014678437 0.13193414 0.16419025 0.018066335 0.07892528 0.28093567 -0.06305106
-0.15122795 0.09932007 -0.08716478 0.32301614 0.06766388 0.121578254 -0.04287167 0.13961981
0.085206 0.19366695 0.11532515 -0.10926506 0.06709521 -0.08623135 -0.0820592 0.10611971
0.12630287 0.22972655 0.0133087095 0.1825914 0.034706004 0.007825197 0.09113885 -0.080000676
-0.07009708 0.06720724 0.4074246 0.028206144 -0.039028674 0.061251976 -0.045339514 -0.11177375
-0.049604196 -0.019536981 -0.030712394 -0.06378449 -0.090724915 -0.19447207 0.14567423 -0.0932329
-0.04032845 0.07599331 -0.555251 0.15413092 -0.036224335 0.043317743 -0.07280119 0.2047887
0.013316663 -0.14191626 -0.0038114386 -0.060787562 0.14686017 0.3536674 0.04765668 0.09966324
-0.06587971 0.0820187 -0.06656439 -0.07040976 -0.033316832 -0.056472074 -0.06975583 -0.03292552
-0.054572985 -0.08252467 -0.16289411 -0.05778833 0.22519942 -0.028101873 -0.14840855 -0.009821642
-0.024618052 0.22466919 0.12933339 0.08660742 -0.11813502 -0.020775432 0.14851625 0.13569796
0.1004521 -0.06543561 0.06633503 -0.022993976 -0.051371597 -0.11347294 -0.05885804 0.57172287
0.04616821 -0.065553695 0.0873107 -0.06007466 0.7681032 0.21969762 -0.0053792465 -0.020279681
0.20345482 0.2037885 -0.043614645 -0.036517847 0.069315806 0.052733485 -0.0788923 0.079628766
0.22526698 -0.08663403 0.18375473 -0.09905999 -0.082318164 -0.028972521 -0.033931866 -0.030355949

fc3.bias f4 [2]
00000000: 37c8 72bd 0e13 2fbd
-0.05927297 -0.04274278
