agent1_actor_net.pth (torch, 160607 bytes, 6 tensors)

fc1.weight f4 [256, 24]
0.12269411 0.036041476 0.05460981 0.0058441693 0.065488674 0.035935532 0.007892866 0.015042866
0.03570597 -0.1899998 0.04948397 -0.029693324 -0.017106142 0.024962166 0.0491649 -0.021061802
-0.06375107 -0.19678609 0.045185972 0.05995074 -0.09741559 0.036480233 0.014642667 0.112243116
-0.04240847 -0.08042583 -0.012608579 -0.073033616 0.0795712 -0.06622016 0.033699457 -0.045042027
0.034339853 -0.2761855 0.027423486 0.014107274 -0.0037405067 0.020148877 -0.015873278 0.07586451
-0.042203926 -0.24220315 0.04788668 0.12565166 -0.06473195 0.089253075 0.011308536 0.063414015
-0.016377175 -0.0014893112 0.048776075 -0.035865676 -0.03143708 0.04126765 0.0854743 -0.044514664
0.0679513 -0.001649229 -0.034746423 0.07135771 -0.006924508 -0.08698405 -0.041963335 0.010510361
-0.063909754 -0.013007172 0.047303777 0.0069210175 -0.07844692 -0.16845748 -0.016927661 0.0042065307
-0.022198394 -0.07685621 -0.024717037 -0.055158995 0.016048243 -0.1280984 -0.015876248 -0.080420524
-0.048084244 -0.24234468 -0.020274917 -0.018669471 -0.07298385 0.041605286 -0.029746065 0.046742838
-0.028743258 -0.18132661 -0.00015214556 0.08125844 -0.16956452 0.26103717 -0.007193425 0.11345287
0.02844515 -0.048133522 -0.03635347 0.0032183118 0.0153612215 -0.18628415 -0.015636645 0.0022233836
0.03634504 -0.059975892 0.0125343 -0.026369022 0.06373944 0.011792205 -0.087188765 -0.061801724
-0.07267632 -0.01630245 -0.015980894 0.036595803 0.11828842 0.12879553 -0.037408218 -0.039731197
-0.030779116 0.12275753 0.0071166223 -0.033305746 -0.1918973 0.11473525 0.016232805 -0.008706884
0.015560917 0.1501823 -0.02623514 0.0814782 -0.03704173 -0.11751347 0.017119281 0.0296502
-0.08974401 0.14868958 -0.013590044 0.05849237 0.03915102 -0.32058042 0.008785569 0.027139137
-0.054966785 0.037979685 -0.0028157267 0.06799754 -0.023937032 -0.14969414 0.023488704 0.03147482
-0.035736278 0.07639015 0.062836334 0.0053643566 0.003393764 -0.17716381 -0.0053554922 0.089304246
-0.027078258 0.03426395 -0.04915952 -0.037309356 -0.06636004 -0.10427509 0.01954635 -0.04324246
-0.048103478 -0.031224925 0.014716698 0.022946056 -0.09124377 0.0385524 0.026028095 0.032154076
-0.08582324 -0.10506 0.0132421795 -0.043464493 0.05932841 0.02603457 0.013424061 -0.06388096
-0.101867564 -0.03281719 -0.037218448 -0.017931778 0.08426865 -0.065926485 0.031611457 -0.010131796
-0.015985487 -0.052322693 0.030500323 -0.16464466 -0.019809125 0.028957006 -0.03542978 -0.14027116
0.046957105 0.02519248 0.011903896 -0.06860887 0.0682202 0.043703876 0.006367583 -0.03668372
-0.06960858 -0.024520764 -0.00428957 -0.023567878 0.12588891 0.12055657 -0.011028258 -0.038707584
-0.04875328 0.0061786245 -0.027156975 -0.050723754 0.10017597 0.20287699 -0.011651317 0.0508896
-0.025115224 -0.045964234 -0.03708839 -0.025551116 0.07003102 0.17802984 -0.03723035 0.06521328
-0.08503375 0.0678253 -0.053774904 0.06674944 0.024236355 0.17171468 -0.03255747 -0.00849134
0.045227166 -0.020158513 0.07766508 0.013731139 -0.0093791 0.016432038 0.047566418 0.027719213
0.014721064 0.0047499305 -0.049190905 0.022692781 -0.0010042491 0.031465545 0.05938035 -0.015602161
00000000: 0d47 fb3d 3aa0 133d 89ae 5f3d 7280 bf3b
00000010: ed1e 863d 2331 133d 1451 013c 5a76 763c
00000020: 6c40 123d 4f8f 42be b4af 4a3d 6a3f f3bc
00000030: 2e22 8cbc 757d cc3c 2261 493d cd89 acbc
00000040: ec8f 82bd 4b82 49be ed14 393d e88e 753d
00000050: d381 c7bd 4c6c 153d cce7 6f3c b8df e53d
00000060: 81b4 2dbd 4cb6 a4bd 3794 4ebc a692 95bd
00000070: 3af6 a23d 6f9e 87bd 7108 0a3d fd7d 38bd
00000080: f2a7 0c3d 3068 8dbe 38a7 e03c 3222 673c
00000090: 4a23 75bb 420f a53c ad08 82bc da5e 9b3d
000000a0: 06de 2cbd 1a04 78be d324 443d d4aa 003e
000000b0: 2f92 84bd 51ca b63d 7047 393c 35df 813d
000000c0: 6d29 86bc fe34 c3ba 6cc9 473d e3e7 12bd
000000d0: 2bc4 00bd 4408 293d 260d af3d 0255 36bd
000000e0: 0d2a 8b3d f12a d8ba 4452 0ebd fe23 923d
000000f0: fce6 e2bb b224 b2bd bfe1 2bbd a633 2c3c
00000100: 1ee3 82bd 091c 55bc 9bc1 413d b4c9 e23b
00000110: c7a8 a0bd 1e80 2cbe e1ab 8abc f0d6 893b
00000120: 68d9 b5bc ca66 9dbd 627b cabc 66ee 61bd
00000130: 9b77 833c 3a2c 03be e80e 82bc 84b3 a4bd
00000140: fcf3 44bd 3429 78be 9517 a6bc b8f0 98bc
00000150: 8f78 95bd 4e6a 2a3d 05ae f3bc 6b75 3f3d
00000160: fb76 ebbc afad 39be 4389 1fb9 d36a a63d
00000170: 52a2 2dbe aaa6 853e d3b6 ebbb fa59 e83d
00000180: ce05 e93c a827 45bd 60e7 14bd 50ea 523b
00000190: a2ad 7b3c 46c1 3ebe 6c18 80bc 30b6 113b
000001a0: 89de 143d 48a9 75bd aa5c 4d3c d903 d8bc
000001b0: d389 823d 1834 413c 0690 b2bd ce23 7dbd
000001c0: 53d7 94bd b78c 85bc 5dea 82bc 7be5 153d
000001d0: 3341 f23d fae2 033e 5c39 19bd 2ebd 22bd
000001e0: 7c24 fcbc 4d68 fb3d 8e32 e93b 9b6b 08bd
000001f0: ba80 44be 51fa ea3d a9fa 843c 52a7 0ebc
00000200: 37f3 7e3c 64c9 193e 14eb d6bc 0bde a63d
00000210: 12b9 17bd e7aa f0bd bc3d 8c3c fae4 f23c
00000220: b5cb b7bd 1542 183e c7a8 5ebc b295 6f3d
00000230: d25c 203d 1e23 a4be 59f1 0f3c e552 de3c
00000240: da24 61bd 9690 1b3d 0e88 38bb 4b42 8b3d
00000250: 9817 c4bc 6c49 19be 626b c03c beeb 003d
00000260: 3460 12bd 7072 9c3d 56b0 803d 7cc7 af3b
00000270: e969 5e3b 6e6a 35be 207d afbb 25e5 b63d
00000280: 39d3 ddbc 5b58 0c3d 7e5b 49bd b2d1 18bd
00000290: c6e7 87bd 2e8e d5bd ab1f a03c 011f 31bd
000002a0: 2708 45bd 6acb ffbc 4e1e 713c 5ef9 bb3c
000002b0: 04de babd 1fe9 1d3d df38 d53c feb3 033d
000002c0: 18c4 afbd b329 d7bd baf5 583c d307 32bd
000002d0: 5902 733d 7346 d53c 98f0 5b3c 05d4 82bd
000002e0: f19f d0bd 516b 06bd 5f72 18bd aae5 92bc
000002f0: 0b95 ac3d 7704 87bd 047b 013d d5ff 25bc
00000300: fff3 82bc 5250 56bd d0db f93c 9c98 28be
00000310: bf46 a2bc 3e37 ed3c d11e 11bd 3ea3 0fbe
00000320: 1856 403d 7660 ce3c 8f08 433c cf82 8cbd
00000330: 08b7 8b3d d602 333d 28a7 d03b ab41 16bd
00000340: f18e 8ebd c5df c8bc 858f 8cbb 6c11 c1bc
00000350: 06e9 003e 5de6 f63d deaf 34bc d88b 1ebd
00000360: 85b1 47bd 0f76 ca3b 4e78 debc b6c3 4fbd
00000370: 0f29 cd3d fcbe 4f3e 2ae5 3ebc 9d71 503d
00000380: 71be cdbc fe44 3cbd ffe9 17bd 9350 d1bc
00000390: 6c6c 8f3d 744d 363e da7e 18bd 8a8e 853d
000003a0: 2d26 aebd fee7 8a3d 1343 5cbd eeb3 883d
000003b0: 528b c63c f9d5 2f3e fb5a 05bd 431f 0bbc
000003c0: 1f40 393d 7723 a5bc df0e 9f3d 92f8 603c
000003d0: ccaa 19bc 7b9c 863c 01d5 423d 6713 e33c
000003e0: 9e30 713c 4ea5 9b3b 677c 49bd 36e6 b93c
000003f0: 02a1 83ba 04e2 003d cf38 733d 35a0 7fbc

fc1.bias f4 [256]
0.052943986 0.084616385 0.16219167 -0.23362091 -0.10779126 0.18161164 -0.18541577 0.1828718
-0.18377513 0.05192434 0.0037877145 0.04197465 0.3945276 0.3135855 0.12600327 0.114570476
0.011695478 -0.14120956 -0.13077356 0.10181311 0.08847647 -0.066570155 -0.07441936 0.0075430954
0.05328209 -0.0016739687 0.06998407 0.1707194 -0.025430575 0.26311094 0.20394908 0.033358283
0.18833609 0.016557915 -0.1390828 0.028990919 0.0930901 -0.14150217 -0.088281825 -0.19142684
0.08580833 0.13773166 -0.09891359 0.19779794 -0.17916761 -0.0012099231 0.1308896 -0.06852128
0.011853365 -0.06692126 0.0012080368 -0.03400414 0.033953685 0.029726472 0.12825385 -0.113451295
0.06278953 -0.0062266053 -0.11561533 0.043549497 -0.07070532 -0.16000724 0.13140735 -0.13074628
-0.030663813 -0.0050689755 0.15756446 0.19575496 0.082047045 -0.07980121 0.22921759 0.013397008
0.1734569 -0.015282063 0.35358265 -0.13713197 -0.10463376 0.042551477 -0.1970487 -0.017942794
0.017639987 -0.087332256 0.29021087 -0.15680246 -0.105213866 -0.09988175 0.10668103 -0.31749305
-0.24079975 0.22079946 0.4046119 -0.085924074 -0.04760526 0.08433466 0.06601196 0.019193232
-0.047308963 -0.035166066 0.29576945 -0.058910985 0.26687402 -0.03409348 0.2200079 0.022473708
-0.04924717 -0.20627889 -0.10474016 -0.09018365 -0.027267808 -0.16022485 0.20222014 -0.059047703
0.0025095744 0.07850098 0.108661614 -0.20166814 0.20371525 0.23128992 0.39077553 -0.08812839
-0.1043586 0.0060306536 0.088523716 0.074190944 -0.091727585 -0.069985084 0.12038778 -0.12640275
-0.11810995 0.047938775 0.2558263 0.35184965 -0.06258808 0.21118864 -0.045383994 -0.18502004
0.19494902 0.092188194 -0.09254271 0.024151413 -0.1423647 0.34464663 -0.10153035 -0.19108996
-0.077292375 0.10895109 0.0091453865 0.07211839 -0.07355437 0.06648153 0.18796003 0.07129526
0.054049477 -0.095529824 0.20283979 -0.017451724 0.3265824 0.21626535 -0.036435105 -0.032461006
0.1939125 0.032891553 -0.037132654 -0.008712875 0.09319381 -0.19151512 0.11519149 0.1513478
0.2705949 -0.099296875 -0.02709681 0.16008505 -0.025944872 0.20865451 0.18589412 0.014023264
0.12304361 -0.18177697 0.050256368 0.026738638 0.16910765 -0.20767343 0.12202942 -0.024123494
-0.067092605 -0.15764725 0.051599152 -0.17978022 0.014485132 -0.31551552 0.10107391 0.22895065
-0.23417883 -0.01858299 0.023663975 0.1767976 -0.18632996 0.026472976 -0.14865066 -0.16406256
-0.027619738 -0.1470679 -0.0077973916 -0.05837447 -0.14833155 0.23735826 0.37798384 -0.005232435
0.18520245 0.061910428 -0.1655173 -0.019743131 0.18372074 -0.1247163 -0.1528822 0.08650474
-0.044474933 -0.05118766 0.04938243 -0.14069244 0.12730023 -0.06430532 -0.061824024 0.18100634
-0.097848095 0.01592944 -0.038878076 0.19299519 0.10993699 -0.0050104014 0.24065049 0.2013952
-0.005189415 0.0026203503 0.28305638 0.16403577 0.241216 0.04729513 -0.04956281 0.12775311
-0.193414 0.21106619 0.107592896 -0.16772662 -0.057319034 -0.1415932 -0.082594484 -0.14649309
-0.0396585 -0.16792229 -0.14072636 -0.11074214 -0.20506547 0.018290456 0.24751133 -0.05814068
00000000: cbdb 583d 5b4b ad3d 9315 263e 523a 6fbe
00000010: aac1 dcbd 67f8 393e a2dd 3dbe bf42 3b3e
00000020: 8c2f 3cbe 9eae 543d 4e3b 783b 9ced 2b3d
00000030: 86ff c93e 478e a03e 0007 013e eda3 ea3d
00000040: 649e 3f3c 3d99 10be 81e9 05be 6483 d03d
00000050: 2733 b53d ef55 88bd 2d69 98bd 122c f73b
00000060: 523e 5a3d 1269 dbba cf53 8f3d 11d1 2e3e
00000070: c853 d0bc 7ab6 863e 07d8 503e b2a2 083d
00000080: 2ddb 403e 77a4 873c b96b 0ebe 5d7e ed3c
00000090: 06a6 be3d f2e5 10be 1acd b4bd 6605 44be
000000a0: 47bc af3d 8709 0d3e 3593 cabd 8b8b 4a3e
000000b0: b777 37be 4896 9eba ec07 063e e354 8cbd
000000c0: 9e34 423c 030e 89bd fd56 9e3a ed47 0bbd
000000d0: 0513 0b3d ee84 f33c fa54 033e 2759 e8bd
000000e0: cc97 803d 8d08 ccbb bbc7 ecbd f560 323d
000000f0: f3cd 90bd f0d8 23be a68f 063e 5ae2 05be
00000100: ad32 fbbc a619 a6bb 9458 213e fd73 483e
00000110: 4808 a83d d16e a3bd 04b8 6a3e 207f 5b3c
00000120: b09e 313e 9e61 7abc c908 b53e 536c 0cbe
00000130: 3a4a d6bd 754a 2e3d 22c7 49be c4fc 92bc
00000140: bc81 903c 41db b2bd 8596 943e d390 20be
00000150: 5e7a d7bd ce8e ccbd 957b da3d 738e a2be
00000160: 3694 76be 4119 623e 4a29 cf3e f6f8 afbd
00000170: bcfd 42bd a6b7 ac3d 4731 873d 203b 9d3c
00000180: 0bc7 41bd 4b0a 10bd 186f 973e a54c 71bd
00000190: b6a3 883e 9ba5 0bbd c049 613e c81a b83c
000001a0: 67b7 49bd c63a 53be 0282 d6bd 35b2 b8bd
000001b0: bd60 dfbc fc11 24be cc12 4f3e 01dc 71bd
000001c0: ac77 243b 1fc5 a03d fb89 de3d 1882 4ebe
000001d0: bb9a 503e 44d7 6c3e bb13 c83e a87c b4bd
000001e0: f6b9 d5bd ca9c c53b ec4b b53d 6cf1 973d
000001f0: acdb bbbd 5754 8fbd de8d f63d b96f 01be
00000200: a1e3 f1bd 735b 443d aafb 823e a325 b43e
00000210: 2e2e 80bd d641 583e 91e4 39bd e575 3dbe
00000220: b7a0 473e 2acd bc3d 0887 bdbd 2fd9 c53c
00000230: 0dc8 11be 8675 b03e 25ef cfbd 16ad 43be
00000240: 774b 9ebd c021 df3d 88d6 153c ceb2 933d
00000250: aca3 96bd 7827 883d 9878 403e 4003 923d
00000260: fc62 5d3d 24a5 c3bd 3cb5 4f3e ebf6 8ebc
00000270: cf35 a73e aa74 5d3e fa3c 15bd d5f5 04bd
00000280: 0091 463e 4bb9 063d 6918 18bd 72c0 0ebc
00000290: 65dc be3d 8a1c 44be 84e9 eb3d ebfa 1a3e
000002a0: 6a8b 8a3e 295c cbbd 21fa ddbc 56ed 233e
000002b0: 578a d4bc 87a9 553e 075b 3e3e d5c1 653c
000002c0: 4afe fb3d be23 3abe 9fd9 4d3d fd0a db3c
000002d0: 8e2a 2d3e 58a8 54be 90ea f93d a29e c5bc
000002e0: d967 89bd 486e 21be a259 533d 4e18 38be
000002f0: 0c53 6d3c 408b a1be d7ff ce3d 0a72 6a3e
00000300: 93cc 6fbe 5b3b 98bc f4da c13c 6e0a 353e
00000310: 48cd 3ebe dbdd d83c e137 18be 0400 28be
00000320: ca42 e2bc f898 16be 4381 ffbb 111a 6fbd
00000330: 3ae4 17be 0b0e 733e 1987 c13e d974 abbb
00000340: b6a5 3d3e ca95 7d3d 5e7d 29be 59bc a1bc
00000350: 4a21 3c3e 426b ffbd 278d 1cbe 6629 b13d
00000360: 592b 36bd 27aa 51bd 3b45 4a3d ae11 10be
00000370: fe5a 023e 82b2 83bd 303b 7dbd ba59 393e
00000380: 9564 c8bd 757e 823c 9e3e 1fbd 88a0 453e
00000390: a526 e13d 4b2e a4bb 156d 763e 8b3a 4e3e
000003a0: f80b aabb 2fba 2b3b c4ec 903e fef8 273e
000003b0: 5401 773e 8ab8 413d 6002 4bbd b6d1 023e
000003c0: 520e 46be bc21 583e aa59 dc3d 87c0 2bbe
000003d0: 5dc7 6abd cffd 10be 4c27 a9bd 4902 16be
000003e0: f470 22bd d2f3 2bbe 921a 10be c6cc e2bd
000003f0: affc 51be ded5 953c 9c73 7d3e ec24 6ebd

fc2.weight f4 [128, 256]
0.00037703806 -0.04153019 -0.0054843468 0.068667196 0.095943965 -0.16777508 0.050960563 0.00782217
0.12358803 0.027522592 0.035006188 -0.031295344 -0.04023113 -0.33799106 -0.14603549 -0.07144208
0.08396156 0.036850944 -0.061082985 0.100594945 -0.029883133 0.03990597 0.039104667 -0.01544159
0.039702907 0.042982105 0.063925624 0.09295866 0.008674013 -0.09343598 0.07354213 0.05931629
0.05501729 0.05017344 0.009410057 0.057192866 -0.039094638 0.1027965 -0.066760965 0.05731416
0.045767296 0.008766357 -0.007229936 0.023955029 0.054443225 -0.2134436 0.14414433 -0.06780659
0.059135973 0.0051099057 0.06520597 0.06879718 -0.14498383 0.03704761 0.027237782 0.08252061
0.0036568162 -0.022820966 -0.07691593 -0.018411685 -0.017739985 -0.0066181873 -0.022960465 -0.031429067
0.038061943 -0.13847217 0.12097819 0.060987994 0.05083123 -0.05925785 0.10248604 -0.021223508
-0.18738748 0.082800806 -0.034997664 0.011505293 -0.015143455 -0.12085226 -0.20604639 -0.031225419
-0.07484603 0.09663164 0.08521658 0.048871547 -0.07383606 -0.15197669 0.022941675 -0.00250286
0.042744014 0.019399488 0.024477018 0.05736823 0.017747864 0.14714587 0.06900069 -0.051914997
0.07316361 -0.003179654 0.036173016 0.04017371 0.24162325 0.361766 -0.09056678 0.028266376
0.0015870758 0.052919723 0.04774428 0.005135075 -0.08983443 -0.015819099 0.024892882 0.06806951
0.12042656 -0.116602145 -0.038861547 -0.09345445 -0.13649556 -0.42048183 -0.2207153 0.04516214
-0.0005780225 0.18493843 0.048860293 -0.008164171 -0.016759142 0.048667386 0.09232937 0.059015416
-0.13831928 -0.07715085 -0.23352227 0.000360153 0.10447043 -0.03497473 0.035058282 -0.022275671
0.0635136 0.0056429296 0.041741926 -0.054612126 0.04424476 -0.10684426 0.004343174 0.04043542
0.018120196 -0.0056350264 -0.0001060754 -0.015611327 -0.029449498 -0.036446467 -0.06488568 -0.0254267
-0.04502744 -0.0041948166 -0.08082517 0.08791556 0.00040750916 -0.06980614 -0.03174626 -0.06749554
0.13734075 0.10090814 0.09810621 0.046303637 -0.04018947 0.0507171 -0.004522023 -0.023425832
0.039181404 -0.17495473 -0.05739131 -0.23695865 0.20209034 -0.002919693 0.101378836 0.13288672
-0.039002597 0.049070433 -0.012897829 -0.1083834 -0.043257687 0.047527798 0.08435919 0.03227379
0.17475444 0.002792649 -0.0076726903 0.011579327 -0.039047796 0.08592613 -0.040482443 0.04458365
0.04313368 -0.017853407 -0.023392785 0.09512109 -0.038140696 0.29074478 0.11391624 0.0465788
0.066568516 -0.061929118 -0.03678906 -0.008242194 0.049065277 0.08505706 -0.044181168 -0.04112409
0.052981775 -0.036784153 -0.0053874785 0.034333576 -0.07019201 0.09079993 0.011588241 -0.016718
0.0507432 0.016396409 0.012633571 0.007315101 0.057651408 0.042125568 0.23834834 0.007559078
0.06798076 -0.039552107 -0.12680325 0.03952846 -0.29920587 -0.061875824 0.07631629 0.021755442
0.09258794 -0.06166881 0.015138021 -0.08120885 -0.11338656 -0.26167366 0.0010406437 0.122271106
0.120804586 -0.046283968 -0.021991331 0.106705315 -0.011123069 -0.13963492 0.116773576 0.041355196
0.08323762 -0.06767958 0.086022414 0.019563958 -0.049372073 0.057668973 -0.08109313 0.018753527
00000000: 31ad c539 8f1b 2abd 09b6 b3bb 63a1 8c3d
00000010: 457e c43d 3bcd 2bbe 06bc 503d 8f28 003c
00000020: b91b fd3d 0f77 e13c a662 0f3d 8c2f 00bd
00000030: 66c9 24bd 2a0d adbe 548a 15be 3a50 92bd
00000040: 0af4 ab3d 04f1 163d 2732 7abd b904 ce3d
00000050: 79cd f4bc 7174 233d 372c 203d b9fe 7cbc
00000060: 849f 223d 010e 303d 70eb 823d 1c61 be3d
00000070: 731d 0e3c 5d5b bfbd 429d 963d a3f5 723d
00000080: cf59 613d aa82 4d3d a42c 1a3c 1143 6a3d
00000090: b321 20bd f986 d23d f9b9 88bd 41c2 6a3d
000000a0: 7d76 3b3d c4a0 0f3c 19e9 ecbb 563d c43c
000000b0: dcff 5e3d f690 5abe 929a 133e 2ede 8abd
000000c0: 9038 723d ff70 a73b b58a 853d 89e5 8c3d
000000d0: a476 14be 3cbf 173d c521 df3c 9100 a93d
000000e0: 32a7 6f3b 09f3 babc 1986 9dbd 1ad4 96bc
000000f0: 7253 91bc 61dd d8bb 9617 bcbc c4bb 00bd
00000100: d7e6 1b3d a6cb 0dbe 6ac3 f73d 8cce 793d
00000110: 6834 503d 5cb8 72bd 33e4 d13d ecdc adbc
00000120: 81e2 3fbe 7893 a93d b659 0fbd b280 3c3c
00000130: 411c 78bc 6481 f7bd d3fd 52be 73cc ffbc
00000140: e048 99bd cfe6 c53d 0886 ae3d 882d 483d
00000150: 5c37 97bd c79f 1bbe 2ef0 bb3c 0607 24bb
00000160: 5914 2f3d adeb 9e3c 0784 c83c f3fa 6a3d
00000170: f863 913c 68ad 163e 3c50 8d3d d2a4 54bd
00000180: ced6 953d be61 50bb 282a 143d 308d 243d
00000190: 166c 773e 6539 b93e 137b b9bd e38e e73c
000001a0: 6d05 d03a 5ac2 583d 828f 433d 2244 a83b
000001b0: 1dfb b7bd 0e97 81bc 28ec cb3c 0768 8b3d
000001c0: 33a2 f63d 1bcd eebd 492d 1fbd 0c65 bfbd
000001d0: 7ec5 0bbe 6549 d7be 3103 62be f0fb 383d
000001e0: 6f86 17ba 8060 3d3e bb21 483d 04c3 05bc
000001f0: 784a 89bc 7457 473d 2e17 bd3d 26ba 713d
00000200: 92a3 0dbe 4401 9ebd 7620 6fbe ebd2 bc39
00000210: 98f4 d53d aa41 0fbd 4699 0f3d 787b b6bc
00000220: 6b13 823d 53e8 b83b 95f9 2a3d f7b0 5fbd
00000230: fe39 353d 2ad1 dabd 2f51 8e3b 9c9f 253d
00000240: ce70 943c 07a6 b8bb cc74 deb8 a7c6 7fbc
00000250: 1340 f1bc e448 15bd c9e2 84bd a84b d0bc
00000260: b16e 38bd ac74 89bb ab87 a5bd 130d b43d
00000270: f4a6 d539 86f6 8ebd 5e08 02bd 1a3b 8abd
00000280: 0ea3 0c3e eda8 ce3d e9eb c83d e2a8 3d3d
00000290: b79d 24bd bcbc 4f3d 7a2d 94bb 88e7 bfbc
000002a0: ae7c 203d 5527 33be 2613 6bbd 4aa5 72be
000002b0: c5f0 4e3e 5258 3fbb b59f cf3d 7513 083e
000002c0: 30c1 1fbd 14fe 483d 6a51 53bc 1ef8 ddbd
000002d0: f92e 31bd 82ac 423d 83c4 ac3d 8631 043d
000002e0: d4f2 323e e004 373b 316b fbbb 38b7 3d3c
000002f0: 95f0 1fbd 0afa af3d ebd0 25bd 589d 363d
00000300: f1ac 303d 4f41 92bc 3aa2 bfbc d9ce c23d
00000310: 6b39 1cbd 80dc 943e eb4c e93d 69c9 3e3d
00000320: 1355 883d 63a9 7dbd 20b0 16bd 440a 07bc
00000330: acf8 483d 6532 ae3d 50f7 34bd bc71 28bd
00000340: 6b03 593d fbaa 16bd 7289 b0bb 5da1 0c3d
00000350: d4c0 8fbd 50f5 b93d 9bdc 3d3c 30f4 88bc
00000360: 1ad8 4f3d c351 863c 0afd 4e3c 84b3 ef3b
00000370: e223 6c3d dc8b 2c3d 9611 743e 24b2 f73b
00000380: 7f39 8b3d 6401 22bd b6d8 01be 98e8 213d
00000390: 8331 99be 8171 7dbd b74b 9c3d 7838 b23c
000003a0: bf9e bd3d 6f98 7cbd 7605 783c d350 a6bd
000003b0: 3637 e8bd 17fa 85be 3566 883a 4669 fa3d
000003c0: 6568 f73d 4294 3dbd 2a27 b4bc 5188 da3d
000003d0: 883d 36bc 75fc 0ebe fc26 ef3d 1164 293d
000003e0: 7c78 aa3d 979b 8abd 852c b03d 9844 a03c
000003f0: 5f3a 4abd 4d36 6c3d 2814 a6bd ffa0 993c

fc2.bias f4 [128]
0.033588648 -0.010525988 0.051051073 0.019324934 0.07483034 -0.0644312 -0.11610167 0.045909744
0.093606174 0.09994248 -0.0011523556 0.08092224 0.06598208 0.04066235 0.00810459 -0.05240616
0.0045451587 -0.04849579 -0.045677666 -0.045731556 0.08390072 0.04927783 0.092982195 0.0139497975
0.066496104 0.023268456 0.02929476 0.084774315 0.067852974 0.09683909 0.03271799 0.13633314
-0.0010634239 0.030169498 0.041275453 -0.062518194 0.026131116 0.05305503 -0.056732427 0.047714148
0.005761228 0.026004873 -0.03904965 0.03393973 0.030339798 0.03803777 -0.055052668 -0.060082436
0.13638 -0.018923625 -0.025062222 -0.061639152 -0.03342031 -0.04762908 0.121764384 0.072872266
-0.002278138 0.06127645 -0.025257861 0.04953638 0.009760858 -0.0058310013 -0.0013656871 0.020104107
0.09137228 -0.006210318 -0.066106826 0.07386033 0.013649855 -0.07137234 -0.0145843085 0.05396705
0.014444199 -0.0046225623 -0.0047180345 -0.065493025 0.11117065 0.07076663 -0.063631 0.012047014
0.024917517 -0.0018514716 0.0635184 0.04477668 0.08146533 -0.024229137 0.07147384 -0.012458678
0.057918455 0.03343823 0.029461667 0.05306625 0.03827301 -0.057293303 0.056411736 0.015413897
0.16079728 -0.054653488 0.14866503 0.03098398 0.024828631 0.04228077 0.123564936 0.05594199
-0.05714963 -0.07901311 0.11761325 0.0008348722 -0.039846163 -0.033203088 0.0208453 -0.063540876
0.11263788 0.038337752 0.03345819 0.03184548 -0.009419614 -0.056183163 -0.047189075 -0.042791713
0.010939407 0.017441489 -0.059299827 0.05144724 -0.04890765 0.04603577 -0.011161141 -0.012679374
00000000: 4094 093d 3275 2cbc ee1a 513d 534f 9e3c
00000010: a640 993d 81f4 83bd b6c6 edbd db0b 3c3d
00000020: 98b4 bf3d a5ae cc3d a30a 97ba 8fba a53d
00000030: 9d21 873d 908d 263d 1dc9 043c d7a7 56bd
00000040: 8eef 943b 86a3 46bd 8118 3bbd 0351 3bbd
00000050: 24d4 ab3d 8dd7 493d 736d be3d b18d 643c
00000060: 1c2f 883d 7d9d be3c 91fb ef3c 289e ad3d
00000070: 80f6 8a3d 9353 c63d 4d03 063d ea9a 0b3e
00000080: 9662 8bba 0626 f73c 7310 293d 8a09 80bd
00000090: ec10 d63c 3b50 593d 4360 68bd e96f 433d
000000a0: afc8 bc3b 2c08 d53c 87f2 1fbd 6304 0b3d
000000b0: 2b8b f83c 7ecd 1b3d e87e 61bd 0019 76bd
000000c0: 33a7 0b3e b805 9bbc 4a4f cdbc 5679 7cbd
000000d0: bce3 08bd b616 43bd 9b5f f93d 0e3e 953d
000000e0: d04c 15bb 04fd 7a3d 93e9 cebc a9e6 4a3d
000000f0: 01ec 1f3c fc11 bfbb db00 b3ba 5eb1 a43c
00000100: 6421 bb3d ec7f cbbb 0463 87bd 1644 973d
00000110: a4a3 5f3c a92b 92bd 06f3 6ebc 8e0c 5d3d
00000120: 5da7 6c3c dd78 97bb be99 9abb 3521 86bd
00000130: 70ad e33d 18ee 903d f850 82bd d760 453c
00000140: d21f cc3c 14ad f2ba ef15 823d c167 373d
00000150: 4cd7 a63d 2f7c c6bc e060 923d 7c1f 4cbc
00000160: e73b 6d3d 87f6 083d 9859 f13c ff5b 593d
00000170: 29c4 1c3d 62ac 6abd fe0f 673d 928a 7c3c
00000180: 0ba8 243e 56dc 5fbd a53b 183e 1ed2 fd3c
00000190: 6a65 cb3c 9a2e 2d3d 9d0f fd3d 6e23 653d
000001a0: bb15 6abd a0d1 a1bd 37df f03d 53db 5a3a
000001b0: bb35 23bd f6ff 07bd c3c3 aa3c b821 82bd
000001c0: b0ae e63d 0c08 1d3d 740b 093d 6870 023d
000001d0: ba54 1abc 5120 66bd 5549 41bd 5d46 2fbd
000001e0: 333b 333c 74e1 8e3c 60e4 72bd 57ba 523d
000001f0: 6353 48bd 0190 3c3d 38dd 36bc 26bd 4fbc

fc3.weight f4 [2, 128]
0.2291949 0.43260533 0.22830239 0.092953384 -0.25568184 0.055439867 0.3312509 0.01594101
-0.045018125 -0.039763752 0.027739733 -0.18328646 -0.00916884 -0.11948801 0.20906809 0.016922876
0.37575248 0.10583915 0.05655037 -0.030003462 0.040176284 0.103189714 -0.069055796 0.18353398
0.09722802 0.009148093 0.051630214 0.09373339 -0.05404307 0.10606021 -0.027547795 0.2738007
0.02860393 -0.030550074 -0.032314982 0.12415307 -0.06705542 0.24549995 0.14838639 0.115660354
0.03700981 -0.005356078 -0.02723285 -0.02614562 0.07137589 -0.2992991 0.030624501 0.049098045
0.3160738 0.021009292 0.05175527 0.10808881 0.043901186 0.13013986 0.14840509 0.20527932
0.270191 -0.027157106 0.14681767 -0.034355965 0.046095975 0.23406234 0.073753566 0.1274132
-0.031480398 0.04642138 0.1936219 -0.0076714237 0.16521727 0.033179294 0.066540346 -0.06908512
0.07906268 -0.041006967 -0.102022275 0.048735414 -0.26516652 0.22388852 0.054095626 -0.04666412
0.008192374 -0.027563103 -0.009441936 -0.036902715 0.15614958 0.092984945 -0.013172911 -0.030108644
-0.0005961139 -0.0021766433 0.14910011 -0.022607528 0.2285939 0.12029194 0.022377862 0.10055723
0.41857663 0.22203296 0.49382922 0.017690677 0.52455825 0.26997438 -0.041247733 0.063587
0.078091264 0.026211824 -0.038444832 0.06807887 0.14714609 -0.11881177 0.39619562 0.049203612
0.19567247 0.039914846 -0.04594713 -0.05355928 -0.03593631 0.017711263 0.35501966 0.07849692
0.036664046 -0.08128181 0.060877077 0.014541076 0.08072722 0.07843367 0.03638076 0.11558715
0.01593279 -0.02162056 0.43367225 -0.30178496 -0.21249743 0.051667146 -0.17150007 -0.4967135
-0.07282213 0.076072656 -0.12777501 -0.049737427 0.20376764 0.28200087 0.08610377 -0.23476206
0.5336616 0.35672468 0.31688717 0.52068496 -0.23580618 -0.08588661 0.061696522 -0.1922306
-0.089125626 0.43419474 0.031247478 -0.18389371 -0.0468561 -0.0876462 -0.030492052 -0.16672207
-0.19253004 -0.017960746 0.063638605 0.1477143 0.14967264 -0.15019518 -0.12725653 0.07346524
-0.31713712 -0.37957838 0.2521056 0.1367507 -0.071287915 -0.47702157 -0.050971024 -0.07669103
-0.11226871 -0.21394378 -0.05235834 -0.05853176 0.2281835 -0.025610805 -0.17665994 -0.14053875
0.39508176 0.092942365 0.38465026 0.124372 -0.24288562 -0.05664642 -0.0985461 -0.091837496
-0.030635033 -0.0532671 0.0582439 0.30243003 -0.19477504 0.25956336 0.7089946 0.122819066
0.0507582 -0.019642271 -0.13044253 -0.03567368 -0.36677882 -0.009543668 0.10630732 -0.109649785
-0.2951108 0.017195698 -0.17333971 -0.019128678 -0.1894461 0.3056197 0.13324547 0.052155755
0.47141603 -0.13557127 -0.092703395 -0.18624695 -0.12969762 -0.14649512 0.43587688 0.18483853
-0.0116251325 -0.00848291 0.1173073 -0.09346185 0.002400287 -0.13226968 -0.04892268 0.24665213
-0.06425175 0.12804292 0.08033427 0.6078517 0.054201327 -0.050705075 -0.16653745 0.030641444
-0.062202334 -0.21466368 -0.068937324 0.0067968494 0.1526292 0.5962124 -0.07977945 -0.18059497
-0.40291435 -0.15244107 0.1639976 0.25820732 0.23194294 -0.0611558 -0.19117318 -0.18010266
00000000: 11b2 6a3e 727e dd3e 1ac8 693e 585e be3d
00000010: bbe8 82be ea14 633d b899 a93e b996 823c
00000020: ed64 38bd 51df 22bd 703e e33c 72af 3bbe
00000030: e738 16bc 21b6 f4bd f215 563e d8a1 8a3c
00000040: a162 c03e 32c2 d83d 5ca1 673d d2c9 f5bc
00000050: e38f 243d 2155 d33d 206d 8dbd 55f0 3b3e
00000060: 7c1f c73d e2e1 153c 347a 533d 4bf7 bf3d
00000070: 445c 5dbd 1836 d93d eaab e1bc 9b2f 8c3e
00000080: ca52 ea3c 2644 fabc b75c 04bd f743 fe3d
00000090: 5a54 89bd 5764 7b3e 9af2 173e 56df ec3d
000000a0: 9997 173d 0a82 afbb 6d17 dfbc 572f d6bc
000000b0: 862d 923d bb3d 99be 3ce0 fa3c 081b 493d
000000c0: 6dd4 a13e ae1b ac3c 56fd 533d ab5d dd3d
000000d0: bbd1 333d 6243 053e 81f7 173e be34 523e
000000e0: 7a56 8a3e 9478 debc 5f57 163e d7b8 0cbd
000000f0: 22cf 3c3d 0aae 6f3e 1c0c 973d 9b78 023e
00000100: 97f1 00bd 5824 3e3d d244 463e 9160 fbbb
00000110: b72e 293e 03e7 073d 4e46 883d 807c 8dbd
00000120: 9deb a13d ecf6 27bd 0ef1 d0bd c99e 473d
00000130: e8c3 87be 0843 653e 6093 5d3d e022 3fbd
00000140: 4f39 063c 04cc e1bc 5ab2 1abc 4d27 17bd
00000150: ade5 1f3e e46e be3d 31d3 57bc 67a6 f6bc
00000160: 8744 1cba 04a6 0ebb b3ad 183e 6c33 b9bc
00000170: 8514 6a3e 9f5b f63d c751 b73c f3f0 cd3d
00000180: ad4f d63e 9c5c 633e 2fd7 fc3e 0aec 903c
00000190: 7349 063f 153a 8a3e 62f3 28bd e739 823d
000001a0: 50ee 9f3d 2eba d63c 5478 1dbd ef6c 8b3d
000001b0: 77ad 163e 9653 f3bd 27da ca3e ba89 493d
000001c0: 5d5e 483e c07d 233d 0f33 3cbd fa60 5bbd
000001d0: f431 13bd 3617 913c 23c5 b53e fec2 a03d
000001e0: 0a2d 163d 1477 a6bd 3e5a 793d b13d 6e3c
000001f0: 5054 a53d d5a1 a03d fe03 153d f5b8 ec3d
00000200: 7b85 823c 9a1d b1bc 4a0a de3e 8f83 9abe
00000210: ed98 59be eea0 533d b79d 2fbe 3b51 febe
00000220: c523 95bd fbcb 9b3d 74d7 02be 79b9 4bbd
00000230: 77a8 503e 6b62 903e 2c57 b03d 7765 70be
00000240: 0c9e 083f 9ea4 b63e 093f a23e 9c4b 053f
00000250: 2d77 71be 52e5 afbd 7eb5 7c3d 19d8 44be
00000260: 7f87 b6bd c64e de3e b6fa ff3c a24e 3cbe
00000270: 2fec 3fbd da7f b3bd 78ca f9bc 31b9 2abe
00000280: 9826 45be 6a22 93bc f554 823d 6b42 173e
00000290: c943 193e c4cc 19be 894f 02be f274 963d
000002a0: cc5f a2be 1958 c2be fc13 813e 6008 0c3e
000002b0: 66ff 91bd 2c3c f4be fec6 50bd 3010 9dbd
000002c0: 23ed e5bd 1414 5bbe b375 56bd 00bf 6fbd
000002d0: efa8 693e c0cd d1bc 58e6 34be 64e9 0fbe
000002e0: 2848 ca3e 9158 be3d e1f0 c43e bfb6 fe3d
000002f0: 02b7 78be 1406 68bd 8ad2 c9bd 4c15 bcbd
00000300: 52f6 fabc 9a2e 5abd 2891 6e3d 1cd8 9a3e
00000310: 1c73 47be 7de5 843e ac80 353f 9088 fb3d
00000320: d5e7 4f3d d4e8 a0bc ba92 05be 911e 12bd
00000330: 6fca bbbe 0b5d 1cbc a7b7 d93d 1190 e0bd
00000340: c318 97be fedd 8c3c f77f 31be bfb3 9cbc
00000350: 29fe 41be 2f7a 9c3e 8071 083e 46a1 553d
00000360: 715d f13e 32d3 0abe 47db bdbd 85b7 3ebe
00000370: 74cf 04be d102 16be 412b df3e 5046 3d3e
00000380: 5777 3ebc e7fb 0abc cf3e f03d ed68 bfbd
00000390: 224e 1d3b b471 07be 2663 48bd 6092 7c3e
000003a0: 6c96 83bd af1d 033e 4b86 a43d 2b9c 1b3f
000003b0: 3602 5e3d 20b0 4fbd cb88 2abe c403 fb3c
000003c0: e0c7 7ebd ccd0 5bbe 032f 8dbd 1bb8 de3b
000003d0: d44a 1c3e 60a1 183f 6963 a3bd e3ed 38be
000003e0: ca4a cebe 8319 1cbe fdee 273e c033 843e
000003f0: 7382 6d3e 817e 7abd e7c2 43be d56c 38be

fc3.bias f4 [2]
-0.07721627 -0.14854385
00000000: 9023 9ebd e11b 18be
