agent1_critic_net.pth (torch, 374111 bytes, 5 tensors)

fc1.weight f4 [512, 52]
0	0x3cce5297	0.025185866
1	0x3bbca16b	0.005756547
2	0xbb942944	-0.004521521
3	0xbbdbe1fa	-0.006710288
4	0xbbe2cd64	-0.006921457
5	0xbadbf0de	-0.0016780158
6	0xbb942944	-0.004521521
7	0xbbdbe1fa	-0.006710288
8	0x3cffb796	0.03121547
9	0x3b908577	0.0044104415
10	0xba948f3b	-0.001133419
11	0xbc691f2c	-0.014228623
12	0xbbe6b98c	-0.007041162
13	0xbbb4282b	-0.0054979525
14	0xba948f3b	-0.001133419
15	0xbc691f2c	-0.014228623
16	0x3d250784	0.04029037
17	0x3b19c7d6	0.0023465059
18	0x3be9c310	0.007133849
19	0xbc9fe3e3	-0.019517845
20	0xbbc0af0b	-0.0058802417
21	0xbbe9a922	-0.007130758
22	0x3be9c310	0.007133849
23	0xbc9fe3e3	-0.019517845
24	0x3ce9b4a6	0.028528523
25	0x3bc838ed	0.0061103017
26	0xbc3ab7de	-0.011396376
27	0x3ab9d5e2	0.0014178122
28	0x3be2cd64	0.006921457
29	0xbadbf0de	-0.0016780158
30	0xbc3ab7de	-0.011396376
31	0x3ab9d5e2	0.0014178122
32	0x3ce968d8	0.028492376
33	0x3bac3be6	0.005256164
34	0xbb98f35c	-0.0046676826
35	0xbbb32a50	-0.0054676905
36	0x3be6b98c	0.007041162
37	0xbbb4282b	-0.0054979525
38	0xbb98f35c	-0.0046676826
39	0xbbb32a50	-0.0054676905
40	0x3cfa4abc	0.030553214
41	0x3ba1739f	0.004927113
42	0xbba916d3	-0.0051601916
43	0xbb643d18	-0.0034826454
44	0x3bc0af0b	0.0058802417
45	0xbbe9a922	-0.007130758
46	0xbba916d3	-0.0051601916
47	0xbb643d18	-0.0034826454
48	0x3b766e2c	0.0037602289
49	0x3b5a4f9f	0.0033311618
50	0xbbcf9354	-0.0063347016
51	0xbb99c283	-0.004692377
52	0x3c14fc0a	0.009093294
53	0x38bce4bd	9.0071444e-05
54	0xba4aeccf	-0.00077409757
55	0xba081645	-0.00051913067
56	0xb780b145	-1.5341337e-05
57	0xb950d204	-0.00019914663
58	0xba4aeccf	-0.00077409757
59	0xba081645	-0.00051913067
60	0x3c2589e7	0.010103679
61	0x37c2d4ba	2.322566e-05
62	0xbab12f4f	-0.0013518127
63	0xb9d634fd	-0.0004085674
64	0xb9188e11	-0.00014548773
65	0xb9c82fdd	-0.00038182634
66	0xbab12f4f	-0.0013518127
67	0xb9d634fd	-0.0004085674
68	0x3c448c78	0.011996381
69	0xb7ea4c05	-2.7930373e-05
70	0xb9e9e5ea	-0.00044612522
71	0xba7e8690	-0.00097093824
72	0xb9329ead	-0.00017034514
73	0xba13f449	-0.00056440063
74	0xb9e9e5ea	-0.00044612522
75	0xba7e8690	-0.00097093824
76	0x3ba9e66b	0.0051849387
77	0x38d435a8	0.00010118942
78	0xb9a8c168	-0.00032187556
79	0xba830af1	-0.0009997768
80	0x3780b145	1.5341337e-05
81	0xb950d204	-0.00019914663
82	0xb9a8c168	-0.00032187556
83	0xba830af1	-0.0009997768
84	0x3beb07b2	0.007172548
85	0x3809fbaa	3.2897726e-05
86	0xba23af41	-0.00062440714
87	0xba51bfc7	-0.00080012943
88	0x39188e11	0.00014548773
89	0xb9c82fdd	-0.00038182634
90	0xba23af41	-0.00062440714
91	0xba51bfc7	-0.00080012943
92	0x3c30ab58	0.010783039
93	0xb79f9a1a	-1.9026036e-05
94	0xba1aab5d	-0.0005900169
95	0xba0a8a78	-0.00052849157
96	0x39329ead	0.00017034514
97	0xba13f449	-0.00056440063
98	0xba1aab5d	-0.0005900169
99	0xba0a8a78	-0.00052849157
100	0xb89a8b58	-7.369247e-05
101	0xb8fa6842	-0.000119403485
102	0x3900299b	0.0001222253
103	0x38f8c6a2	0.0001186256
104	0x3b04fee1	0.0020293521
105	0x37ee147b	2.8381348e-05
106	0xb96083fd	-0.00021411474
107	0xb8ae9e49	-8.3264495e-05
108	0x36a0c0d9	4.790822e-06
109	0xb895d2f7	-7.144169e-05
110	0xb96083fd	-0.00021411474
111	0xb8ae9e49	-8.3264495e-05
112	0x3b2d4bae	0.0026442814
113	0x3796d40d	1.7980137e-05
114	0xb9b0ebe9	-0.00033745103
115	0xb8de194d	-0.000105904975
116	0xb7b8123e	-2.1943004e-05
117	0xb8c7333f	-9.498605e-05
118	0xb9b0ebe9	-0.00033745103
119	0xb8de194d	-0.000105904975
120	0x3b7540dd	0.0037422695
121	0x37287ad2	1.0042177e-05
122	0xb9b9ae55	-0.00035415837
123	0xb9b87e19	-0.00035189165
124	0xb89dffff	-7.5340264e-05
125	0xb9005220	-0.00012237625
126	0xb9b9ae55	-0.00035415837
127	0xb9b87e19	-0.00035189165
128	0x3ac9069a	0.001533705
129	0x37179803	9.035694e-06
130	0xba09b2fb	-0.00052528054
131	0xb8bf0d39	-9.1100526e-05
132	0xb6a0c0d9	-4.790822e-06
133	0xb895d2f7	-7.144169e-05
134	0xba09b2fb	-0.00052528054
135	0xb8bf0d39	-9.1100526e-05
136	0x3b2c6a69	0.0026308543
137	0x35200550	5.9612375e-07
138	0xb9c2db72	-0.00037166063
139	0xb841e410	-4.6227186e-05
140	0x37b8123e	2.1943004e-05
141	0xb8c7333f	-9.498605e-05
142	0xb9c2db72	-0.00037166063
143	0xb841e410	-4.6227186e-05
144	0x3b5ffdbc	0.0034178337
145	0xb6c59065	-5.8878672e-06
146	0xb978f97b	-0.00023744062
147	0xb81d308a	-3.7476922e-05
148	0x389dffff	7.5340264e-05
149	0xb9005220	-0.00012237625
150	0xb978f97b	-0.00023744062
151	0xb81d308a	-3.7476922e-05
152	0x37ed791c	2.8308998e-05
153	0x37d16683	2.4962477e-05
154	0xb4ee5b10	-4.439721e-07
155	0xb6afe72b	-5.242318e-06
156	0x3cea9510	0.028635532
157	0xbaa92d2c	-0.0012907139
158	0xbb6de967	-0.0036302449
159	0xbb8f0313	-0.00436438
160	0xbbab3976	-0.0052253557
161	0xbcf3a4f3	-0.02974174
162	0xbb6de967	-0.0036302449
163	0xbb8f0313	-0.00436438
164	0x3cac6a72	0.02104685
165	0xbbbad85d	-0.005702062
166	0xbc61df9f	-0.013786226
167	0xbc81dbdc	-0.015851907
168	0xbb505474	-0.003178862
169	0xbca053fd	-0.019571299
170	0xbc61df9f	-0.013786226
171	0xbc81dbdc	-0.015851907
172	0x3cb62f16	0.02223925
173	0xbb4fa316	-0.00316829
174	0xbc10043b	-0.008790071
175	0x3b08d1cb	0.0020877
176	0xbb4d51f2	-0.003132936
177	0xbc973aff	-0.018460749
178	0xbc10043b	-0.008790071
179	0x3b08d1cb	0.0020877
180	0x3cec5c80	0.028852701
181	0x3bde8e3b	0.0067918575
182	0xbc0fbc23	-0.008772883
183	0x3c22a0d3	0.009926039
184	0x3bab3976	0.0052253557
185	0xbcf3a4f3	-0.02974174
186	0xbc0fbc23	-0.008772883
187	0x3c22a0d3	0.009926039
188	0x3cdb9ae0	0.026807249
189	0x3b9307da	0.00448702
190	0x3af93dac	0.0019015572
191	0x3c002a16	0.007822534
192	0x3b505474	0.003178862
193	0xbca053fd	-0.019571299
194	0x3af93dac	0.0019015572
195	0x3c002a16	0.007822534
196	0x3ce15719	0.027507352
197	0x3baca2fe	0.0052684536
198	0xbc1199d2	-0.008886771
199	0x3bff9b7e	0.0078005185
200	0x3b4d51f2	0.003132936
201	0xbc973aff	-0.018460749
202	0xbc1199d2	-0.008886771
203	0x3bff9b7e	0.0078005185
204	0x3bcb3d6b	0.00620239
205	0x3b47ed48	0.003050642
206	0xbb953283	-0.0045531406
207	0xbb3b6488	-0.0028593857
208	0x3cd7496a	0.026280124
209	0x3b72ef00	0.0037068725
210	0xbb438c64	-0.0029838318
211	0x39afda72	0.00033541356
212	0x3b0130ac	0.0019712849
213	0xba7eeb70	-0.0009724414
214	0xbb438c64	-0.0029838318
215	0x39afda72	0.00033541356
216	0x3ced8218	0.028992698
217	0x3b8255df	0.003977522
218	0xbae406e4	-0.0017397073
219	0xbb077bc9	-0.0020673147
220	0x3acc2b00	0.001557678
221	0xbb0a3add	-0.0021092214
222	0xbae406e4	-0.0017397073
223	0xbb077bc9	-0.0020673147
224	0x3cfdc729	0.030978756
225	0x3b8776ae	0.004134021
226	0xbb1b2a79	-0.0023676439
227	0xbbc6ce34	-0.006067062
228	0x3af1734b	0.0018421201
229	0xbb37134e	-0.002793509
230	0xbb1b2a79	-0.0023676439
231	0xbbc6ce34	-0.006067062
232	0x3cc47de7	0.023985816
233	0x3b98b704	0.004660489
234	0xbbc12e7b	-0.0058954335
235	0xbb0a5a48	-0.002111094
236	0xbb0130ac	-0.0019712849
237	0xba7eeb70	-0.0009724414
238	0xbbc12e7b	-0.0058954335
239	0xbb0a5a48	-0.002111094
240	0x3ced7571	0.028986664
241	0x3b9ee57f	0.0048491354
242	0x3a45a205	0.00075390964
243	0x3b084bc4	0.0020797113
244	0xbacc2b00	-0.001557678
245	0xbb0a3add	-0.0021092214
246	0x3a45a205	0.00075390964
247	0x3b084bc4	0.0020797113
248	0x3d05b220	0.032640576
249	0x3ba69ab1	0.0050843586
250	0xbb1c9bbd	-0.0023896538
251	0x3b5633fe	0.0032684798
252	0xbaf1734b	-0.0018421201
253	0xbb37134e	-0.002793509
254	0xbb1c9bbd	-0.0023896538
255	0x3b5633fe	0.0032684798

fc1.bias f4 [512]
0	0xbbd4a1c3	-0.00648901
1	0xb90b5d58	-0.00013290846
2	0xb7f6d4f4	-2.942465e-05
3	0xbbe84cc7	-0.0070892307
4	0xbb83b0da	-0.004018885
5	0xb9d57bfb	-0.00040718899
6	0xbae3e312	-0.0017386398
7	0xb9f12dff	-0.00046001372
8	0xbc3f7485	-0.011685495
9	0xbbdfb3f0	-0.00682687
10	0xbd3684c1	-0.044560198
11	0xbaeaa7cf	-0.0017902794
12	0xbceba5be	-0.028765555
13	0xb6c8b1c6	-5.98116e-06
14	0xbb2982b5	-0.002586526
15	0xbafd98f0	-0.0019347947
16	0xbb314b2e	-0.0027052867
17	0xb8aa5a17	-8.123012e-05
18	0xb9111eea	-0.00013839794
19	0xba0ae8a1	-0.00052989466
20	0xb992f15a	-0.0002802711
21	0xb8dc7c99	-0.000105136256
22	0xb86f685a	-5.7079225e-05
23	0xb96ac61b	-0.00022389779
24	0xbc964bac	-0.01834663
25	0xbc5b4c2d	-0.013384861
26	0xb85e2133	-5.2959844e-05
27	0xb8af7a84	-8.3674706e-05
28	0xbce21b16	-0.027600806
29	0xbcb10593	-0.021609103
30	0xbae92c21	-0.0017789641
31	0x3a3538df	0.00069130765
32	0xba352246	-0.0006909709
33	0xb9902d92	-0.00027499773
34	0xb95269b7	-0.00020066542
35	0xba19a3c9	-0.00058608927
36	0x3631a83e	2.6472985e-06
37	0xbc8ae5fc	-0.016955368
38	0xbb7f34f0	-0.0038941465
39	0xbb5e54d1	-0.0033925066
40	0xb9ed84f9	-0.00045303235
41	0xb9a2618f	-0.00030971735
42	0xb96ed7ce	-0.00022777842
43	0xbb6c7005	-0.003607751
44	0xbc202495	-0.009774347
45	0xbc111bdd	-0.008856741
46	0xbc393b51	-0.011305646
47	0xbcc8228f	-0.024430541
48	0xb87b0747	-5.984984e-05
49	0xbbe8b0e5	-0.0071011656
50	0xbd006602	-0.031347282
51	0xbc260ffb	-0.010135646
52	0xbb8da40c	-0.0043225344
53	0xba98ebea	-0.0011666988
54	0xb6a0a145	-4.787146e-06
55	0xb9547119	-0.00020260028
56	0xbcc90ca2	-0.024542157
57	0xb8cdb570	-9.808957e-05
58	0xbabbd918	-0.0014331667
59	0x3a70e00f	0.0009188661
60	0xb8d2c701	-0.00010050648
61	0xbc312317	-0.010811589
62	0xb941cbe8	-0.00018481875
63	0xbc348e11	-0.011020199
64	0xbaf4dd7d	-0.0018681731
65	0xba400ce6	-0.0007326141
66	0xbcfbad5e	-0.030722316
67	0xbb0b4447	-0.0021250413
68	0xb9a0c187	-0.00030661767
69	0xb9180025	-0.00014495903
70	0xba834b8d	-0.0010017023
71	0x38b85daf	8.791254e-05
72	0xbab58590	-0.0013849009
73	0xb8d38cb8	-0.00010087475
74	0xbb7bf69e	-0.0038446556
75	0xba9bfcfc	-0.0011900957
76	0xba0ad1d0	-0.0005295547
77	0xbac71b3b	-0.001519061
78	0x38ec8dd2	0.00011279773
79	0xb8f59e02	-0.000117119416
80	0xb8bedf52	-9.101503e-05
81	0x3d0fd2a8	0.035113007
82	0xbb85b121	-0.0040799533
83	0xb9cbb22a	-0.0003885192
84	0xbaaa9eb2	-0.0013017266
85	0xbac3eb24	-0.0014947397
86	0x37230daf	9.718743e-06
87	0xbc0e7f26	-0.008697307
88	0xbbb9b071	-0.0056667854
89	0xb9b37d08	-0.00034234696
90	0xbaefbde9	-0.001829085
91	0xbaa0be89	-0.0012263815
92	0xb92255ce	-0.00015481489
93	0xbd0ec959	-0.03485999
94	0xb8bb2ea6	-8.925544e-05
95	0x39949397	0.00028338723
96	0x39f81a84	0.00047322002
97	0xb98d7f88	-0.00026988634
98	0xbc8b66bf	-0.017016767
99	0xba9466bc	-0.0011322121
100	0xbc02c717	-0.007982037
101	0xba9a30fa	-0.0011763864
102	0xba26a5cc	-0.0006357103
103	0xbc68569a	-0.014180804
104	0xbd424733	-0.047431182
105	0xba6aed7f	-0.0008961781
106	0xba005f1a	-0.0004896984
107	0xb89b5c92	-7.4082185e-05
108	0xbc43ae5b	-0.011943425
109	0xbc9ed9cd	-0.019390965
110	0xbb8c8846	-0.004288706
111	0xbc155e42	-0.009116711
112	0xbb4b0799	-0.003097987
113	0xb91eeb8b	-0.00015155801
114	0xb94c609b	-0.00019490944
115	0xba5f48eb	-0.00085176405
116	0xb8f435f4	-0.00011644876
117	0xbb750a57	-0.0037390196
118	0xbab9c594	-0.0014173263
119	0xbae9c22a	-0.0017834355
120	0xbc65517d	-0.013996479
121	0x389d066f	7.487542e-05
122	0xba6837bc	-0.0008858403
123	0x3c04c794	0.008104224
124	0xb6835878	-3.9144034e-06
125	0xbcaf72b8	-0.021417007
126	0xba1fd551	-0.0006097155
127	0xb9931609	-0.00028054442
128	0xba8538f4	-0.0010164068
129	0xb797dbe6	-1.8103001e-05
130	0xb8181455	-3.625856e-05
131	0xba1c56c4	-0.0005963857
132	0xba306c8a	-0.0006730041
133	0xba99a250	-0.0011721347
134	0xbbb87eca	-0.005630349
135	0xbca36bab	-0.019948801
136	0xbbcbc703	-0.0062187924
137	0xbc78646b	-0.01516066
138	0xbb2fc274	-0.0026818784
139	0xbb6f7a5a	-0.0036541433
140	0xbbbbd4d6	-0.005732159
141	0xb8fe650e	-0.00012130487
142	0xb91e466b	-0.00015094287
143	0xb89a6c45	-7.363459e-05
144	0xbbd82023	-0.006595628
145	0xbc4def53	-0.012569266
146	0xb8861df6	-6.3951986e-05
147	0xb9d1db47	-0.0004002696
148	0xbc97d6aa	-0.018534977
149	0xbd5049e9	-0.050851736
150	0xbb8eeecf	-0.0043619643
151	0xba6cf508	-0.0009039198
152	0xbc0807af	-0.008302613
153	0xbb787e86	-0.003791721
154	0xba54f56a	-0.0008123728
155	0xbc4aad6b	-0.012370448
156	0xb6cbc964	-6.0733164e-06
157	0xb9bf37ef	-0.00036472033
158	0xba9cb449	-0.0011955585
159	0xbaee0533	-0.0018159508
160	0xb96772be	-0.00022072622
161	0xbcb5b008	-0.022178665
162	0xbc554fa6	-0.013019478
163	0xbc5b737f	-0.013394236
164	0xbbc3b2d5	-0.005972246
165	0xbaeb97d8	-0.001797433
166	0xba8b8cf8	-0.001064687
167	0xbb5313ca	-0.003220784
168	0xbba4c556	-0.005028407
169	0xbd48a2ad	-0.048983265
170	0xbb51bef6	-0.003200469
171	0xba59ec76	-0.00083131285
172	0xba99c0ba	-0.0011730411
173	0xbb022981	-0.0019861164
174	0xb880241c	-6.1102415e-05
175	0xb8f57988	-0.00011705147
176	0xbc7bee3c	-0.015376624
177	0xbc30b7a1	-0.010785968
178	0xba5fb2a4	-0.00085333944
179	0xb96f66df	-0.00022831139
180	0xba065e83	-0.00051257777
181	0xbb38f1ce	-0.0028220299
182	0xb9806a44	-0.00024493237
183	0xbb07ee53	-0.0020741418
184	0xbcabf364	-0.020990081
185	0xbc8b2ecf	-0.016990094
186	0xbc4c3ee9	-0.012466171
187	0xbb446504	-0.0029967437
188	0xbb05db56	-0.0020424924
189	0xba2134ba	-0.00061495195
190	0xbb9170ab	-0.00443848
191	0xba12f36b	-0.000560573
192	0xbadf7923	-0.0017049651
193	0xb99cb7a4	-0.00029891462
194	0xbb2903aa	-0.0025789537
195	0xba8065ce	-0.0009795965
196	0xb8f8f0bf	-0.00011870404
197	0xb9a8b269	-0.00032176383
198	0xb9859d72	-0.00025485043
199	0x39c94543	0.00038389312
200	0xbc5e663b	-0.013574178
201	0xbcb8fb2c	-0.022580706
202	0xbac2e480	-0.0014869124
203	0xbc45da4a	-0.01207597
204	0xbc87ed1f	-0.01659256
205	0xbb07b399	-0.0020706414
206	0xbb911f57	-0.004428785
207	0xba03a17c	-0.00050213165
208	0xba28e53e	-0.0006442851
209	0xb971bac1	-0.00023053122
210	0xbb5c3d22	-0.0033605774
211	0xbb9ac0ff	-0.004722714
212	0xba9e862c	-0.001209443
213	0x38dfab9f	0.000106654355
214	0xbd3f4a15	-0.04670151
215	0xb89a52ba	-7.358701e-05
216	0xbaa72737	-0.0012752776
217	0xbc85ea4e	-0.016347077
218	0xbc0e169b	-0.008672382
219	0xba8c310b	-0.0010695768
220	0xb982a02e	-0.00024914875
221	0xb893d216	-7.048638e-05
222	0xb9d29d98	-0.00040171738
223	0xbca8dcf4	-0.020613171
224	0xb91ae1b6	-0.00014770668
225	0xbb313ccc	-0.0027044294
226	0x395c71a6	0.00021023172
227	0xb98b0d1c	-0.00026521913
228	0xbbeca99a	-0.0072223665
229	0xb7e47502	-2.7234204e-05
230	0xb9a0af50	-0.00030648196
231	0xb90c5f73	-0.00013386998
232	0xba91f1e8	-0.0011134716
233	0xbbf63077	-0.0075131017
234	0xba71630a	-0.00092081784
235	0xb90b6dff	-0.0001329705
236	0xbca46066	-0.020065498
237	0xba0a217f	-0.00052692735
238	0xbbde52a3	-0.0067847534
239	0xbb133a6c	-0.0022465242
240	0xba03a9f4	-0.00050225784
241	0xba478a9e	-0.0007611903
242	0xbce1c40d	-0.027559305
243	0xba508eb9	-0.00079558376
244	0xbc8edc43	-0.017439013
245	0xb8c0d3a5	-9.194695e-05
246	0xb74518dd	-1.1747904e-05
247	0xbbf8d09c	-0.0075932276
248	0xba2c7310	-0.0006578425
249	0x3ce2fcf4	0.027708508
250	0xbdeca625	-0.11555127
251	0xbaa7361d	-0.0012757216
252	0xbaa409af	-0.0012515093
253	0xb8baa7b8	-8.900411e-05
254	0xba6618cf	-0.00087775005
255	0xb98b349b	-0.0002655134

fc2.weight f4 [128, 512]
0	0x871f994b	-1.2006879e-34
1	0x105f9fca	4.4102092e-29
2	0x0f83b452	1.2987054e-29
3	0x114298ea	1.5351022e-28
4	0x072b0eb8	1.2868936e-34
5	0x03a557d2	9.717991e-37
6	0x85ac95cb	-1.6229828e-35
7	0x887d37a2	-7.6199814e-34
8	0x0d406de8	5.9296863e-31
9	0x00038ca3	3.25957e-40
10	0xa82a63e5	-9.458557e-15
11	0x8680a942	-4.839695e-35
12	0x86277c23	-3.150041e-35
13	0x08b1a1fc	1.0690882e-33
14	0x801c29ba	-2.586363e-39
15	0x8ac6fcf9	-1.9161864e-32
16	0x80235c14	-3.247274e-39
17	0x8d1b1c38	-4.779703e-31
18	0x9028e943	-3.3311856e-29
19	0x8425d1bf	-1.9491967e-36
20	0x8b20f354	-3.099794e-32
21	0x0adb5290	2.111999e-32
22	0x07008a4d	9.670293e-35
23	0x893f3841	-2.301724e-33
24	0x8b7fac61	-4.9240897e-32
25	0x0a890d30	1.319758e-32
26	0x22870b48	3.6603768e-18
27	0x0bc5af72	7.614562e-32
28	0x08eb08f0	1.4145649e-33
29	0x02da157a	3.2044548e-37
30	0x8a4cec51	-9.866689e-33
31	0x04de8116	5.2310496e-36
32	0x8184626a	-4.863036e-38
33	0x91332761	-1.4132745e-28
34	0x89a5fe97	-3.996172e-33
35	0x831443c6	-4.357109e-37
36	0x89b2ec20	-4.3073992e-33
37	0x083efbd4	5.747207e-34
38	0x8003bb0d	-3.42608e-40
39	0x8a5a7933	-1.0519113e-32
40	0x865211c8	-3.9509674e-35
41	0x00456956	6.374437e-39
42	0x8008d7a1	-8.12037e-40
43	0x8d1f5988	-4.9103427e-31
44	0x000776f1	6.85517e-40
45	0x8c31c14b	-1.3693751e-31
46	0x0336ec28	5.3756087e-37
47	0x801cf8c9	-2.660641e-39
48	0x117d9d5f	2.0006675e-28
49	0x818b0b16	-5.1076443e-38
50	0x870d9085	-1.0650131e-34
51	0x1204edae	4.194482e-28
52	0x00035ae5	3.08113e-40
53	0x0483dba7	3.099967e-36
54	0x06281fe8	3.162073e-35
55	0x0e113171	1.7896435e-30
56	0x0cfdaa0d	3.9083168e-31
57	0x062d74e5	3.2623564e-35
58	0x0ee4c070	5.639165e-30
59	0xa36e06c0	-1.2903435e-17
60	0x1092ce4a	5.7904685e-29
61	0x0dad0476	1.0663022e-30
62	0x06eff2da	9.0258646e-35
63	0x863289ac	-3.3579224e-35
64	0x843b3003	-2.200379e-36
65	0x899c64d6	-3.765046e-33
66	0xb7f9ee50	-2.9794086e-05
67	0x0fb3eda4	1.7742299e-29
68	0x80407a90	-5.921439e-39
69	0x00061460	5.58322e-40
70	0x8556130b	-1.0065729e-35
71	0x87df4687	-3.3594763e-34
72	0x8003f4c9	-3.63319e-40
73	0x8a276cff	-8.0612574e-33
74	0x0000679e	3.7171e-41
75	0x0e517f86	2.582264e-30
76	0x882603e1	-4.9958368e-34
77	0x88d7859c	-1.2971253e-33
78	0x109a8fb6	6.096371e-29
79	0x01840d1d	4.850796e-38
80	0x21ed1a88	1.6066767e-18
81	0xb6070e9d	-2.0125074e-06
82	0x85590023	-1.0203316e-35
83	0x89442b34	-2.3612956e-33
84	0x8bc70472	-7.66587e-32
85	0x800e293d	-1.30049e-39
86	0x0fa4a78a	1.6236182e-29
87	0x0427fe3e	1.9747498e-36
88	0x05df84b8	2.1019572e-35
89	0x000401be	3.67967e-40
90	0x05fccf90	2.3774213e-35
91	0x82b82bbf	-2.706148e-37
92	0x1405b473	6.750371e-27
93	0x0f5a4ebe	1.0763395e-29
94	0x849694ae	-3.540137e-36
95	0x85181e14	-7.15253e-36
96	0x0a6098cd	1.0813946e-32
97	0x021bb65e	1.1439938e-37
98	0x03979da8	8.9111784e-37
99	0x854754b1	-9.3724904e-36
100	0x800150d7	-1.20835e-40
101	0x85f7143e	-2.3235204e-35
102	0x0001a880	1.52282e-40
103	0x0954ce11	2.5615464e-33
104	0x0069188f	9.651537e-39
105	0x8b7e8438	-4.901809e-32
106	0x0611a909	2.7395656e-35
107	0x04c6d81c	4.674804e-36
108	0x9ca34e58	-1.0806687e-21
109	0xae92346c	-6.648623e-11
110	0x0f03f47d	6.5058854e-30
111	0x07074047	1.0175161e-34
112	0x8d5962e3	-6.698732e-31
113	0x07602637	1.6863117e-34
114	0x87ef1594	-3.5973406e-34
115	0x912eb987	-1.378335e-28
116	0x8ccbbf8a	-3.139238e-31
117	0x02df9c76	3.285671e-37
118	0x0e3daae2	2.3378326e-30
119	0x24270050	3.6212617e-17
120	0x86c440b2	-7.3822067e-35
121	0x80034369	-2.99689e-40
122	0x00004be6	2.7227e-41
123	0xb8c98179	-9.608543e-05
124	0x86205cf3	-3.0160944e-35
125	0x8002839e	-2.30886e-40
126	0x8581c3b2	-1.2202989e-35
127	0x805af1ba	-8.35191e-39
128	0x0fd163b3	2.0647394e-29
129	0x09d0eb48	5.0295436e-33
130	0x0246a3c6	1.4593743e-37
131	0x81addefe	-6.387014e-38
132	0x882e0e20	-5.2377824e-34
133	0x851a1411	-7.244731e-36
134	0xb4b28f6f	-3.3259445e-07
135	0x08d14683	1.2595307e-33
136	0x1ffeb441	1.0787139e-19
137	0x1a6ba3e0	4.8729238e-23
138	0x890b169e	-1.6742151e-33
139	0x86b967b3	-6.974164e-35
140	0x8721ce45	-1.2172911e-34
141	0x0f123bf7	7.2099046e-30
142	0x8005c3b9	-5.2939e-40
143	0x2300bc93	6.978826e-18
144	0x85d5c967	-2.0104407e-35
145	0x8e4ea328	-2.5470017e-30
146	0x0dc68e3e	1.2236936e-30
147	0x851ae307	-7.2827435e-36
148	0x89e64df4	-5.5443793e-33
149	0xb3151706	-3.4712706e-08
150	0x068a8199	5.210026e-35
151	0x890173a6	-1.5582188e-33
152	0x83537a7e	-6.214794e-37
153	0x8e16bfc4	-1.858126e-30
154	0x1104fead	1.0491442e-28
155	0x0092c270	1.3477733e-38
156	0x8710548c	-1.0858202e-34
157	0x098cb7f5	3.3876766e-33
158	0xa3910492	-1.5722867e-17
159	0x8002188d	-1.92478e-40
160	0x0c23a0a1	1.2605401e-31
161	0x8c1b57c6	-1.1967179e-31
162	0x00037080	3.15864e-40
163	0x11a4ed35	2.6020828e-28
164	0x87a89e80	-2.5370988e-34
165	0x8043f6cb	-6.241511e-39
166	0x8f8f8171	-1.4150748e-29
167	0x869983f7	-5.774611e-35
168	0x08a7cd23	1.0099174e-33
169	0xb5f35152	-1.8128578e-06
170	0x00031d49	2.86012e-40
171	0x00019c95	1.48007e-40
172	0x0a84f157	1.280192e-32
173	0x9011cd95	-2.8754582e-29
174	0x82fc1ffc	-3.704643e-37
175	0x836febef	-7.0506626e-37
176	0x8a81dba4	-1.2504868e-32
177	0x8167df9a	-4.2588425e-38
178	0x0504e642	6.248902e-36
179	0x10880b88	5.366031e-29
180	0x064f486d	3.8985583e-35
181	0x0002bf76	2.52354e-40
182	0x8bdcb8ca	-8.501896e-32
183	0x0d304a07	5.4323294e-31
184	0x0a837cfc	1.2661855e-32
185	0x8fba313c	-1.835998e-29
186	0x03ade7f3	1.0221279e-36
187	0x10a73c9e	6.596328e-29
188	0x096d2846	2.8546774e-33
189	0x0d583922	6.662891e-31
190	0xa4a25edd	-7.0417005e-17
191	0x2416b544	3.2679603e-17
192	0x00046f14	4.0719e-40
193	0x800d21bd	-1.205964e-39
194	0x80028aae	-2.3342e-40
195	0x00020e8e	1.88892e-40
196	0x00002450	1.3026e-41
197	0x88e3931e	-1.3696653e-33
198	0x0845e3bc	5.955023e-34
199	0x800f3b1e	-1.39874e-39
200	0x0001a5b8	1.51284e-40
201	0x9006aeca	-2.6561493e-29
202	0x880b5fdd	-4.194148e-34
203	0x000292dd	2.36356e-40
204	0x80b645d6	-1.6739113e-38
205	0x8cc4e045	-3.033356e-31
206	0x883f2e2a	-5.7531237e-34
207	0x81aa6f96	-6.2608255e-38
208	0x8d5b8298	-6.764178e-31
209	0x0006203d	5.62578e-40
210	0x900eeb4a	-2.8185822e-29
211	0x114ca62a	1.6143966e-28
212	0x0c02d7b6	1.0079749e-31
213	0x8003aeed	-3.38258e-40
214	0x8833f49e	-5.41534e-34
215	0x8003937f	-3.28418e-40
216	0x8a743f46	-1.1760073e-32
217	0x8707bb35	-1.0211286e-34
218	0x0a56174d	1.03081076e-32
219	0x80015c65	-1.2498e-40
220	0x0a914f8c	1.3992914e-32
221	0x001362fc	1.780383e-39
222	0x89df8ac4	-5.381579e-33
223	0x0307f270	3.995124e-37
224	0x00206ebb	2.978458e-39
225	0x8c1d3a4d	-1.2112384e-31
226	0x8329f58a	-4.99465e-37
227	0x08a55cd3	9.952399e-34
228	0x80692e28	-9.659285e-39
229	0xa0e30d61	-3.846415e-19
230	0x0003d7e4	3.52953e-40
231	0x8d6139d3	-6.940308e-31
232	0x8be476d9	-8.800123e-32
233	0x0a4bf5fd	9.82036e-33
234	0x8ea873fa	-4.152688e-30
235	0x033ccf8b	5.548648e-37
236	0x88761334	-7.4050505e-34
237	0x83167e16	-4.4225778e-37
238	0x8c614be9	-1.7356213e-31
239	0x04264e37	1.954912e-36
240	0x8e146c0a	-1.8294427e-30
241	0x8775edec	-1.850167e-34
242	0x05363297	8.566891e-36
243	0x0005277e	4.73345e-40
244	0x80034e4a	-3.03591e-40
245	0x0da0fb28	9.921225e-31
246	0x85afe93f	-1.6542602e-35
247	0x21797c04	8.4528615e-19
248	0xa4870fd7	-5.857375e-17
249	0xb1bc7bf8	-5.4856137e-09
250	0xb7a63abe	-1.9816096e-05
251	0x0919a4a0	1.8494111e-33
252	0x080f7a59	4.3176316e-34
253	0x840c177d	-1.6467706e-36
254	0x83032774	-3.854273e-37
255	0x88ba163c	-1.1199695e-33

fc2.bias f4 [128]
0	0xb781e949	-1.548663e-05
1	0x9fa27104	-6.879664e-20
2	0x8798a361	-2.2966444e-34
3	0x3e844e79	0.2584112
4	0xb8c16cfe	-9.2232585e-05
5	0xb9d4184d	-0.00040453897
6	0xaf83b7c1	-2.3959326e-10
7	0xbbb627c2	-0.0055589387
8	0x8da62a8f	-1.02407855e-30
9	0xbbf54720	-0.0074852854
10	0x9bb19232	-2.937667e-22
11	0xbe00ee76	-0.12590966
12	0x0eb1eb2f	4.3860342e-30
13	0x3d1c9995	0.038232405
14	0xb3eb6f0b	-1.0963239e-07
15	0xbd11408b	-0.035461944
16	0xb8843876	-6.304767e-05
17	0xac039327	-1.8697906e-12
18	0xbb717fce	-0.003684986
19	0xba835103	-0.001001865
20	0x0bf1c74c	9.312969e-32
21	0xbd9df14c	-0.07712039
22	0xb96add4e	-0.00022398421
23	0xb69ca432	-4.668277e-06
24	0xb96f9fd6	-0.0002285236
25	0xbd29dceb	-0.04147045
26	0xbc2419f0	-0.01001595
27	0xbe280812	-0.16409329
28	0xbc41ca0a	-0.011827955
29	0xb69e7b91	-4.723152e-06
30	0xb509df8b	-5.1361775e-07
31	0xbbfcad7c	-0.0077111106
32	0xb6616a13	-3.3589356e-06
33	0xad55f002	-1.2160941e-11
34	0x3d281572	0.041036077
35	0xb9a4a6dc	-0.00031404838
36	0xbb2178c5	-0.0024638635
37	0x3c3a5ae2	0.011374207
38	0xac4111c1	-2.7436805e-12
39	0xa5ba7889	-3.2347534e-16
40	0x9c454c44	-6.5280403e-22
41	0x3c73b140	0.014873803
42	0xbd9109ed	-0.07081971
43	0xbe4ca22c	-0.19983739
44	0x3d66e0e9	0.056366835
45	0xbe5e6e0c	-0.21721667
46	0xb8935997	-7.0261936e-05
47	0xb9febd2e	-0.00048587605
48	0xbc5a49a8	-0.013323225
49	0xbb7f001c	-0.0038909977
50	0xbba937cc	-0.005164122
51	0xbb29e4c2	-0.0025923704
52	0xb6cf58ae	-6.1794044e-06
53	0xa416cdbe	-3.2700336e-17
54	0xbda738ec	-0.08165154
55	0xb9fe2dba	-0.00048480724
56	0xb84b2540	-4.8433663e-05
57	0xa546ce0a	-1.7243571e-16
58	0xbbef407f	-0.0073013897
59	0xb321e375	-3.7692605e-08
60	0xbc147af1	-0.009062515
61	0xb8c5b5c2	-9.427547e-05
62	0xbec28cbb	-0.37997994
63	0x3da7d026	0.08193998
64	0xb855f082	-5.1007148e-05
65	0xb6b09040	-5.2620017e-06
66	0xb6bd3f9f	-5.6400454e-06
67	0xb3397af0	-4.318548e-08
68	0xbc7252c7	-0.0147902435
69	0xaa3b9737	-1.66614e-13
70	0xb77b9df4	-1.4997542e-05
71	0xbb034bfd	-0.0020034306
72	0x3e345b91	0.17613055
73	0x2e8a5c6d	6.2919316e-11
74	0xbd329360	-0.04359758
75	0xb50b0791	-5.1792546e-07
76	0xb334c10e	-4.2085098e-08
77	0xb7d3cae4	-2.5247638e-05
78	0x3e2ebffc	0.17065424
79	0x8f6cec80	-1.16812466e-29
80	0xb4c9d1bf	-3.7591778e-07
81	0x3e80384d	0.25042954
82	0xa3528361	-1.1411943e-17
83	0xb781a439	-1.545447e-05
84	0xb7028c28	-7.7812365e-06
85	0xba3c7ab4	-0.0007189915
86	0xbe0ceddd	-0.13762613
87	0xb1a41f38	-4.7765774e-09
88	0xb49d2d99	-2.9276706e-07
89	0xb837d799	-4.383139e-05
90	0xba11a720	-0.00055562146
91	0xb883f68b	-6.292489e-05
92	0xb7f984b9	-2.9744917e-05
93	0xb8f791f7	-0.00011805066
94	0xb880d62f	-6.1434104e-05
95	0xbe214034	-0.15747148
96	0x9da0ef75	-4.259924e-21
97	0xab20c1cd	-5.711237e-13
98	0x3d967463	0.07346418
99	0x3c4c5f7f	0.01247394
100	0xa1aa0aaf	-1.1522476e-18
101	0xaeda02de	-9.9140016e-11
102	0xb961a40d	-0.00021518786
103	0xb0a5657c	-1.2034174e-09
104	0xabbb4470	-1.3306144e-12
105	0xbc84be07	-0.016203893
106	0x3c0eea15	0.008722802
107	0xb0c6f7d6	-1.4476835e-09
108	0x3dad2758	0.0845477
109	0xb97dd3a4	-0.00024206802
110	0xb9cd1409	-0.00039115574
111	0xbedc7a5f	-0.43062112
112	0xb690ba7e	-4.313245e-06
113	0x3cb4fb3a	0.02209245
114	0xae89e3c3	-6.270497e-11
115	0xbac0d873	-0.0014712944
116	0xb7b4b94b	-2.1543956e-05
117	0xb116337f	-2.1857145e-09
118	0xb494ca37	-2.771428e-07
119	0xb81b457f	-3.7019603e-05
120	0xb1dc7014	-6.4155845e-09
121	0x924c0489	-6.437664e-28
122	0xbc25d8c7	-0.0101224845
123	0xbccfeefd	-0.025382513
124	0xb190f0b0	-4.2183146e-09
125	0xb73ec4d4	-1.137071e-05
126	0x3df9bddb	0.12194415
127	0xba17b22d	-0.0005786743

fc3.weight f4 [1, 128]
0	0xb8b9aa0b	-8.8531604e-05
1	0x3aa73677	0.0012757321
2	0x2ca417aa	4.6637876e-12
3	0x3e915019	0.28381422
4	0x36a6570b	4.9573187e-06
5	0x3c79f508	0.015256174
6	0xb90f313d	-0.00013655885
7	0x3c3d44f3	0.011552083
8	0xb367af0a	-5.3943076e-08
9	0xbe61a24d	-0.22034569
10	0xb8496dc4	-4.802436e-05
11	0x3e21d9e3	0.15805773
12	0x36d2177c	6.2612216e-06
13	0xbdbb8d77	-0.09157842
14	0xb37bfa19	-5.8667954e-08
15	0xbe6e3275	-0.23261435
16	0x3b979de8	0.004626978
17	0xb6a78030	-4.991911e-06
18	0xbb158122	-0.0022812565
19	0x3c8bc5ac	0.01706203
20	0x3540291b	7.158539e-07
21	0x3e4a1c69	0.197374
22	0xbc9a4438	-0.018831357
23	0x37100310	8.583782e-06
24	0xbbfa0503	-0.007629992
25	0x3b4adcf7	0.003095446
26	0x3a244780	0.0006266758
27	0xbe8f2b94	-0.27962935
28	0xbdf8caee	-0.12148081
29	0x39512249	0.00019944565
30	0x3afded4d	0.0019373089
31	0xbae7752b	-0.001765882
32	0xb98e0523	-0.00027088178
33	0x37445d4b	1.1704232e-05
34	0x3e01291d	0.1261334
35	0x3c9f3650	0.019435078
36	0x3ada7147	0.0016665839
37	0xbb33b19a	-0.0027419091
38	0x3a0795de	0.0005172173
39	0xb9803a52	-0.00024457515
40	0xba9bd692	-0.0011889508
41	0x3e4f762b	0.20259921
42	0xbe04239c	-0.12904209
43	0x3e13c71d	0.14431424
44	0x3d900596	0.070323154
45	0xbe4c6287	-0.1995946
46	0xb759a0c1	-1.2971636e-05
47	0x39aa04cd	0.00032428504
48	0xbe253316	-0.16132769
49	0x3986fc1a	0.00025746302
50	0x3929bbcd	0.00016187057
51	0x3d53882f	0.051643547
52	0xbb4e1789	-0.0031447134
53	0x37811048	1.538558e-05
54	0xbe31b6d8	-0.17354906
55	0x3af65177	0.0018792589
56	0x3b19b042	0.0023451005
57	0xb8271ccc	-3.9842722e-05
58	0xb8d496fe	-0.00010137072
59	0x3bdf2593	0.006809899
60	0x360f4ed2	2.135454e-06
61	0xba93b3e2	-0.0011268819
62	0x3ed1bff9	0.40966776
63	0x3de00cb8	0.10939926
64	0x3c1fdfb5	0.009757926
65	0x3a817d88	0.000987933
66	0x3be36745	0.006939801
67	0xbb087047	-0.0020818876
68	0xbb768f15	-0.0037621905
69	0xb97adf1c	-0.00023924973
70	0x3a3e633b	0.00072627113
71	0x390d7d86	0.00013493569
72	0xbe1af0a8	-0.15130866
73	0x3ae4af44	0.0017447253
74	0xbe3bff9e	-0.18359229
75	0x3a21a87e	0.000616677
76	0xb9a62e9c	-0.00031696714
77	0xb9fdfdda	-0.00048445055
78	0xbe10f8ea	-0.14157453
79	0xb805d2ca	-3.1905984e-05
80	0xb94bf481	-0.00019450673
81	0xbe9ced8a	-0.30649978
82	0xb8bd44f0	-9.025063e-05
83	0x3c7f181f	0.015569716
84	0x389351d0	7.024745e-05
85	0xbb0f1433	-0.0021832108
86	0x3e78d828	0.24301207
87	0xb613766f	-2.1973644e-06
88	0xb9a5a4db	-0.0003159408
89	0xb8caefc4	-9.6767704e-05
90	0x38b6919e	8.7055596e-05
91	0xbc8f9610	-0.01752761
92	0x38c7549b	9.5048184e-05
93	0xb88a75aa	-6.6022694e-05
94	0x3a5eba0d	0.00084963517
95	0xbeb32b38	-0.3499391
96	0xb838c7af	-4.405499e-05
97	0x37ffd398	3.04969e-05
98	0x3e01309c	0.126162
99	0x3ede03a9	0.43362167
100	0x3b0904b8	0.0020907354
101	0xb94a03e4	-0.0001926567
102	0x3c5119a9	0.0127624655
103	0x3b025404	0.0019886503
104	0xba45d3ba	-0.00075465033
105	0xbb7a31a2	-0.0038176556
106	0xbdbd5dc9	-0.09246404
107	0xb8a54a6c	-7.881675e-05
108	0x3dbdb9c5	0.09263948
109	0xbaab4c12	-0.0013068935
110	0x3c5bcb07	0.013415105
111	0x3eb8c3b3	0.36086807
112	0xbc1b4f66	-0.009479379
113	0xbdec551a	-0.11539669
114	0xba209232	-0.00061253004
115	0x3b188f9d	0.002327896
116	0x37da58ea	2.6029029e-05
117	0xb556c535	-8.0008186e-07
118	0xb5b342b8	-1.3355957e-06
119	0x3a6967b2	0.00089036964
120	0x3a5a5209	0.0008328264
121	0xb8958eec	-7.131495e-05
122	0x3b8eeb44	0.004361542
123	0xbe60a91b	-0.21939509
124	0xba04caeb	-0.00050656375
125	0x398fc411	0.00027421166
126	0xbe460695	-0.19338448
127	0x3c220891	0.009889738
