agent1_actor_net.pth (torch, 580959 bytes, 6 tensors)

fc1.weight f4 [512, 24]
00000000: 77d4 e2bd 06b5 673e 61c9 3abe 6e94 7cbd
00000010: 1044 2fbe 2962 5dbe 15a1 363e a67c 4abd
00000020: 2444 8d3d 6c9f 743e 9805 d5bd afe4 0dbe
00000030: 0a3e 88be 501f 163e 2a60 b83d eb9b 043d
00000040: 20a7 81bc d940 ae3e a6c6 3ebd 721f 2f3e
00000050: 1ef7 9d3e 7935 cf3e ff3e 1f3d 63e4 a53a
00000060: b662 c7bd 2044 ad3d 6a36 983d 20a3 653e
00000070: f587 85bd 0a1e 323e 331c 9ebd a8a6 013e
00000080: 3084 743b 449f 25be 592f f53d 2577 5c3d
00000090: cc5e 883c fe91 66be 5e4a 13be 6b8a 803d
000000a0: 9346 42be 1d92 0b3e c23b 753d d057 16be
000000b0: 3c99 513e f638 ebbe 0a4f a2bd 45a8 42be
000000c0: 3be3 c53d 8916 383d 8f02 4c3c 9bd2 e13d
000000d0: 20b6 193f 9fae 1d3d 4e1b 92bb 2a46 c9bd
000000e0: faa8 7ebe e4a1 523e b824 ed3d 5a0e b53c
000000f0: 9458 813e fd77 81bc a1f8 f6bd 19f9 113e
00000100: 627e 143d 7ed8 ccbc ae34 663d 3d96 a7be
00000110: b760 7ebe efff 83be dc58 89bd 972a 91be
00000120: f841 13be f3de cd3d 95c7 89bc 9ad1 423d
00000130: 6141 123e 67a5 acbe c3bf 8c3c 737d afbd
00000140: bc12 08be f817 b23e a7a1 ae3d 209f 903c
00000150: f298 a4bd 3226 0ebf 6037 5cbd e4d7 77bc
00000160: 8e97 35bd 0d56 373e f70b b0bd 8b42 87bc
00000170: acc4 5a3e 0bb8 a2be 818f 223c 8699 8cbe
00000180: c069 013e 753a 1d3e 86d4 663d babf 9ebd
00000190: 8ac9 f9be 0f89 f1bc a91b 90bc 1212 abbd
000001a0: f5bd 67be c6ff 6d3d 5d35 b6bb d877 343e
000001b0: b262 d73d d11c 833e 6366 bd3d 6dc7 dcbb
000001c0: 3062 9abd ca70 c73d 1b63 71bd 8611 9abd
000001d0: 6105 fb3e 6d30 26be 2628 17bc 865f 20bd
000001e0: cab8 54bd 1874 c03c 12b2 56bc ccb3 cc3d
000001f0: a823 2b3e dc49 633c 0d00 973d 6b87 513e
00000200: f9d2 403e c55c 653e 5ecf 22be fe22 1a3e
00000210: 3794 033e 154a 1cbe cdd5 a03d d8ca e2bc
00000220: 8c0b 8e3d 61ef 703c a1c6 cc3d fca5 143d
00000230: 889d 9fbe aee6 693e e084 65bd 6b19 113d
00000240: 7ca8 20bd c270 523e 2a64 0e3e 64df 01be
00000250: 4b09 a23d f7a4 3b3e 0436 d4bd a53e 813d
00000260: 0aa8 0bbe 38b0 283d 3963 a2bd 774e 18be
00000270: 2faa 123e e475 44bb 81a0 c93d 9946 f53d
00000280: fc9c 5ebe 3f7b ec39 7ead 223e 6d6f 1dbe
00000290: 245f 763e 4bbe 9cbe 6e60 18be 0824 81be
000002a0: 51d0 8c3d 3986 ebbd 4326 89bd d90c 313d
000002b0: 687c ae3e a28b ddbc 8f8f 0a3e 2ee4 6dbb
000002c0: 6844 d43d 7f65 1fbe ecc4 89bd 8361 703d
000002d0: 4325 4c3f 94f9 6bbd 6218 423d 8dad 01bd
000002e0: c0d9 603d 4bba b03d 0bf0 aabc aa1d f43d
000002f0: 7087 8f3f 4a76 533d 9839 b63c ae20 0dbe
00000300: 10e0 45bd 72ce 403e 8f45 843c f94b df3d
00000310: 0801 ec3c 9724 cabe 3bcd c33d b95c a5bd
00000320: bc46 e6bc 8d3c d83d 9748 09bc 03c0 fdbd
00000330: 9d96 143e 0db0 0cbf 302a da3d cef1 f43c
00000340: 7bfc 863e 42ac 133e abdf 2bbc f09d 883d
00000350: 63ce 003e 426c 1dbf b400 abbd 7e4b 4fbc
00000360: 9aac 393e 70eb 583e 14a8 dd3d 504b ee3d
00000370: 3440 da3d 90da 113e 7430 cfbc b10c 66bd
00000380: dc66 e03d 5cd4 533e 3df7 36be fc6e 143c
00000390: fd7f 75bd 9699 833e c28d 313e 234e 533c
000003a0: 2d43 75bc 4807 293e 43cd e13d 8e76 12be
000003b0: 14c0 693e 668c 1cbf 452f 04be 9658 14bc
000003c0: ce88 613e bc8b bd3e f933 a5bd 0cad 323e
000003d0: 8cb9 6ebe e159 21bc 9f50 16be e658 2d3e
000003e0: 1355 853e 8e49 ec3e 8fb7 bdbd 2de1 22be
000003f0: ca78 6cbd b8b1 4f3e 1e6a e73d 8efa 31be
-0.11075681 0.22627649 -0.18240882 -0.06166499 -0.17115808 -0.21619476 0.17834885 -0.04943528
0.068977624 0.2388894 -0.104014575 -0.13856767 -0.26609832 0.14660382 0.09002717 0.032375257
-0.015826762 0.3403385 -0.046576165 0.17101839 0.30852598 0.40470484 0.038878437 0.0012656566
-0.097356245 0.084602594 0.07432254 0.22425508 -0.06520072 0.17394271 -0.07720222 0.1266123
0.0037310235 -0.16174036 0.119719215 0.053824563 0.016646765 -0.22516629 -0.14383838 0.06276401
-0.18972234 0.13629957 0.059871443 -0.14681935 0.2046861 -0.45941895 -0.07925232 -0.19009502
0.096624814 0.044943366 0.012451782 0.11026498 0.60043526 0.03849661 -0.0044588214 -0.09827836
-0.24869147 0.20569569 0.11579269 0.02210157 0.25262892 -0.015804285 -0.12059141 0.1425518
0.03625334 -0.025005575 0.056202583 -0.3273181 -0.24841581 -0.257812 -0.06706402 -0.28352806
-0.14380634 0.1005229 -0.016818801 0.047563173 0.14282753 -0.33719942 0.017181283 -0.085688494
-0.13288397 0.34783912 0.085269265 0.017654002 -0.080369845 -0.5552703 -0.053763747 -0.015127156
-0.044333987 0.1790392 -0.08596032 -0.016511222 0.21364087 -0.3178104 0.009921909 -0.2746088
0.12637997 0.15354331 0.056355022 -0.07751413 -0.48786575 -0.0294843 -0.017591314 -0.08353056
-0.22631057 0.058105253 -0.0055605606 0.17623842 0.105168715 0.25607923 0.09248044 -0.0067376406
-0.07538259 0.0973831 -0.058932405 -0.075228736 0.4902754 -0.1622941 -0.009225881 -0.0391536
-0.05193404 0.023492858 -0.013103979 0.09995231 0.1671282 0.01387259 0.073730566 0.20461814
0.1883048 0.2239867 -0.15899417 0.15052411 0.12849508 -0.15262635 0.07853279 -0.027684614
0.06935796 0.01470551 0.09998823 0.036291108 -0.31174874 0.22841904 -0.056034923 0.03542463
-0.03922318 0.20550826 0.13905397 -0.12682873 0.07911929 0.18324648 -0.10361865 0.063107766
-0.1363832 0.04118368 -0.079290815 -0.14873682 0.14322732 -0.0029977495 0.09845067 0.11976356
-0.21739572 0.00045105253 0.15886495 -0.15374537 0.24059731 -0.30613932 -0.14880535 -0.25222802
0.06875671 -0.1150021 -0.06696751 0.043225143 0.3407929 -0.027044121 0.13531326 -0.0036299336
0.1036461 -0.15566061 -0.06727013 0.058686744 0.79744357 -0.057611063 0.047386535 -0.03165965
0.054895163 0.086292826 -0.020866415 0.119197205 1.1213207 0.05162648 0.02224426 -0.13781998
-0.048309386 0.18828753 0.01614645 0.109031625 0.028809085 -0.3948104 0.09560629 -0.08074326
-0.0281099 0.10558424 -0.008379123 -0.12390139 0.1451058 -0.5495613 0.10652578 0.029900458
0.26364502 0.1442118 -0.010490338 0.06670749 0.1257873 -0.61493313 -0.083497435 -0.012652276
0.18132249 0.21183562 0.10823074 0.116354585 0.10656777 0.14243531 -0.025291659 -0.056164447
0.10957119 0.20686477 -0.17867751 0.009059664 -0.059936512 0.25703114 0.17339233 0.012897047
-0.014969629 0.16506684 0.11025479 -0.14303038 0.22827178 -0.6115173 -0.12908657 -0.009054324
0.22024843 0.3702067 -0.080665536 0.17448825 -0.23312968 -0.009848089 -0.14679192 0.16928443
0.2604147 0.46149868 -0.09263527 -0.1590621 -0.05773238 0.20282638 0.11299537 -0.17380735

fc1.bias f4 [512]
00000000: d73f 97bd 9cb9 a33e b4f6 d83e 8f36 ea3d
00000010: c26a 463e 9abb 1b3d 3fe8 503e 2847 67be
00000020: 8a8e 08be 4b5a 82be f292 76bd f3d7 733d
00000030: 3abf 833d d7dc dcbd 7127 26be 6dab 8bbc
00000040: 5218 2a3e 4877 4fbd 303b c23d c7b2 a03d
00000050: d6fd 0dbc ea72 5b3e 0c0f be3d 3103 ac3c
00000060: 5f33 853d 69ab c13d aafd 693d a230 af3e
00000070: 3715 513e f0fb 043d ed33 e13d dd7c 17bc
00000080: 2171 383e ab2a 0a3e 32d1 d4bc d823 903e
00000090: 3566 babc 58fb 063e 1d41 063e 9a73 42be
000000a0: 4086 6dba 5021 4e3e d6c1 1bbd b833 653e
000000b0: e26a 31bc ce8e b2be 4b56 b13c 69d3 133e
000000c0: d1b1 3dbd e774 01bd 26d2 003c a50b 123d
000000d0: cfb0 3dbe 3ae5 9bbe 9b9e 7e3e d30e 1dbe
000000e0: f88f 29be 68f7 02bb 23b9 a8bc 3572 963e
000000f0: 625a 743e 3ad7 31be c3b7 713e 20e4 8bbe
00000100: 8ac3 b2be b792 023e b3ce a73e 717f 41be
00000110: 07c2 973d 0643 bebd 5366 d2be e362 473d
00000120: 0a1a 65bd a23e 1abd a8de efbe f890 91bd
00000130: fbe0 97bd 6427 a03e 763c d4bd d1a4 93be
00000140: 8ba5 a2bd e31f 44bc 5410 1d3e b1c1 d03d
00000150: d0e0 833e 199b 67be bbfb 6abe a6ee d2bd
00000160: c143 7fbe 074a 103e b3d1 733e d0ed 093e
00000170: 6cb8 493e c36d 5fbe f503 623b 8e47 32be
00000180: 162d 323d e6cb cc3d be6f 283d 59c8 8d3e
00000190: 0a7d f5bc 0fc9 ac3d 3052 053e 7ef3 9e3d
000001a0: f83e a03d 4466 1f3e 0cea c9bd 39da 593e
000001b0: 88b7 61be 812d 393e 476b 67be 0422 673e
000001c0: 886a 1bbe 66a5 84bd 11ac 53be a55e c43d
000001d0: 290b f5bd 3703 2a3d d829 2fbe 0032 20be
000001e0: 4c85 abbc 94a3 d1be 0c4b 67be 44c1 c63c
000001f0: 370d 023d a24c 0f3e c8a3 a43d f384 94bd
00000200: 4a2f a8bd 68d7 a4bd 1b5d 03be 4f3e e1bd
00000210: f859 a2be de42 db3c b6f1 e43e c5e3 c23c
00000220: 9f50 693d f7ab 9ebe 7869 74be 2c6e 7cbd
00000230: d24b 263e ba07 7fbd 6e0f 3fbe b548 0dbe
00000240: 5c4d d6be 26b1 76be 7cef 1abd 4e1a 2c3e
00000250: b4ea 953d 8362 78be 2d6f 163e 8bc3 313e
00000260: 24ff 833d fecb 94be f2dc 88be 724d 743d
00000270: 38ae 7c3e df55 913e c3bc 08be 2552 763e
00000280: 68ee e83d 1340 da3d 3be0 d33d 8b0f 40be
00000290: d5ca b1bc 1c36 4fbd 767b 32be d123 3bbe
000002a0: 788d 09be 0138 93be f45e 7cbe aebc 6d3e
000002b0: 9e46 dc3c 4742 58be 11cd d23d 66dd 413e
000002c0: 3f95 df3d 8234 c13c 2e1a 643d 4429 723e
000002d0: 5e73 c5be b231 6b3e 2b3c 31be 2f00 243e
000002e0: 2c82 243e 4de4 67be 4418 31bc 3826 2bbd
000002f0: 17f5 e4bd af82 9b3d 9830 1cbd 23f2 3bbe
00000300: aa25 003e a247 adbc 140c 40bd 478e 21bd
00000310: 9662 82bd 4a7e 0dbd 5e54 7abe 2f1c 883c
00000320: 9a42 dc3d 62da b7bd 5c0f bfbd a4ee 68bb
00000330: 147b 79bc d6d2 eabd 726e 1b3e 32ec 04be
00000340: a4b5 3dbe 922b 49be f89e 893d 62a2 e4bc
00000350: 0f3f 0c3d 0e19 f2bd d936 a3be fc05 d3bd
00000360: 06f9 a23e 7716 913d 95fd 863d f7a4 bfbd
00000370: 3e7c bfbd a91d 91be 6392 c6be 208c 40bc
00000380: a972 93be 4a90 893e d76d f9bd 2b4d 143e
00000390: a19f 02be 0d69 21be bbe7 013e 0929 eebd
000003a0: c6dd 453b 4aec 7a3e 1525 e93d 6291 c0be
000003b0: 422f bb3d ceeb 59bb c3b7 0cbe 04e0 0abe
000003c0: 0640 8cbd 9e8d 5ebe 45cc 183e 6692 fcbd
000003d0: 534b fcbd 2c8e 44bd 1c1f c93c b1cf 033e
000003e0: 7579 91be 1b91 ad3d ef22 76bd 7677 abbe
000003f0: 1d85 d53e 1518 2d3d 15ad 6d3e 9cc5 bc3c
-0.07385223 0.31977546 0.4237572 0.114361875 0.19376662 0.038020708 0.20401095 -0.22585738
-0.13335624 -0.25459513 -0.06019873 0.059532117 0.06432958 -0.10784309 -0.16225983 -0.017049516
0.1661084 -0.050650865 0.09483945 0.07846599 -0.008666476 0.21430555 0.09280214 0.020997616
0.06503939 0.09456522 0.05712668 0.3421679 0.20418249 0.03246683 0.10996232 -0.009246078
0.18011905 0.13492839 -0.025978658 0.28152347 -0.022753814 0.13181818 0.13110776 -0.18989411
-0.00090608373 0.20129895 -0.038026653 0.2238301 -0.0108287055 -0.34874576 0.021647593 0.14436115
-0.046312157 -0.031605627 0.007862603 0.035655636 -0.18524478 -0.30448323 0.2486519 -0.15337686
-0.16558826 -0.0019983891 -0.020596093 0.29384008 0.23862603 -0.17367259 0.23605256 -0.27322483
-0.3491481 0.1275128 0.32774886 -0.18896271 0.07410055 -0.092901275 -0.41093692 0.04867829
-0.055933036 -0.037657388 -0.4684956 -0.07107729 -0.074159585 0.31280053 -0.103630945 -0.28836682
-0.07941731 -0.011970493 0.1533826 0.10193194 0.25757456 -0.22617759 -0.2294759 -0.10299425
-0.2492819 0.14090739 0.23810463 0.13469625 0.19699258 -0.21819215 0.0034487222 -0.17410108
0.04350003 0.09999828 0.04112219 0.27691916 -0.02996685 0.084367864 0.13019633 0.07761286
0.0782451 0.15566355 -0.09859094 0.21274652 -0.22042668 0.18083765 -0.22599517 0.2257157
-0.15177357 -0.0647686 -0.20671107 0.095883645 -0.11965019 0.041506972 -0.17105806 -0.15644073
-0.020937584 -0.40945113 -0.22587222 0.024262078 0.031750884 0.13994077 0.08039051 -0.072519206
-0.08212145 -0.08048898 -0.12828486 -0.109982125 -0.31709266 0.026765283 0.4471566 0.02379025
0.056961652 -0.30990574 -0.23868358 -0.061628506 0.1623986 -0.062263228 -0.1865823 -0.13797267
-0.41855896 -0.24091014 -0.037826046 0.1680691 0.07320157 -0.24256329 0.14690848 0.1735975
0.064451486 -0.29061884 -0.26731068 0.05964417 0.24675834 0.28385827 -0.13353257 0.24054773
0.113735974 0.106567524 0.10345503 -0.18755929 -0.021703163 -0.050588712 -0.17429909 -0.18275382
-0.13432872 -0.28753665 -0.24645597 0.23216507 0.026889142 -0.21119033 0.102930196 0.18932113
0.10917138 0.023584608 0.05568903 0.23648554 -0.3856458 0.22968176 -0.17308109 0.16015695
0.16065282 -0.22645684 -0.010809008 -0.041784495 -0.1117956 0.07593285 -0.03813228 -0.18354087
0.12514368 -0.021152321 -0.04688652 -0.039442327 -0.0636646 -0.034544267 -0.24446246 0.016615001
0.10754891 -0.089772 -0.093291014 -0.0035542632 -0.015227098 -0.11465995 0.1517885 -0.12980726
-0.18526322 -0.19645527 0.06719774 -0.027909461 0.034239825 -0.11821185 -0.31877783 -0.10303876
0.31830615 0.07084363 0.06591336 -0.093576364 -0.09349869 -0.2834294 -0.3878356 -0.011752158
-0.28798416 0.26867896 -0.121791534 0.14482562 -0.12756206 -0.1576273 0.12686054 -0.116289206
0.0030192002 0.245042 0.11384026 -0.37610918 0.09139873 -0.0033252123 -0.13741975 -0.13562018
-0.06848149 -0.2173371 0.14921673 -0.12332611 -0.123190545 -0.04798715 0.024550967 0.12872197
-0.28412977 0.08474942 -0.06009191 -0.3348958 0.4170312 0.042259295 0.23210557 0.023043446

fc2.weight f4 [256, 512]
00000000: 89a6 2bbd a09c 80bc fd1d c13c b411 bcbb
00000010: a8e7 ccbd 7a4e 363d eb12 133d e8a4 2b3c
00000020: e486 fcbb 06c3 8fbb de24 4bbd 723f 7d3d
00000030: 3408 28be 1bae 313d 204e 013d 759d b9be
00000040: 976d 023d d5b5 b9bb 814b b53d 7660 a83c
00000050: df92 bd3c 467c 113d 32f9 fa3b 2292 a5bc
00000060: 2a1d 42bd eece a33d 608b bc3c d411 623c
00000070: d9fe 4c3d b5fa 8dba 2983 ee3b 09ea 04bc
00000080: 94a0 3a3d d1cf dc3c 9ee9 33bd c00e 49bd
00000090: b462 c4bd 8205 51bd 7aba 5c3c ab38 0dbd
000000a0: 89c4 963d 5ec1 ea3c b3f4 f4bc 8ffa 8f3d
000000b0: 7627 5a3d 94d6 afbc 9ee8 7a3d 45c1 8e3d
000000c0: dec1 083e deff 82bd 534a 833d a767 0a3d
000000d0: 5a0f 5dbe 48c7 333d 1894 b73d ef14 bdbb
000000e0: 7ee0 fcbd 33f0 993d 17c6 07bd ff10 a6bd
000000f0: c06a b0bd 4cb4 dfbc 2ba6 453d 3d45 9e3a
00000100: 85c5 163d e9ce 02be b56e a23d 57e7 00be
00000110: b69e 0abe 8c74 bc3c 3f51 b83c 718e 893d
00000120: 319d 973d 057c 00bd 7163 e0bd 8f86 d3bd
00000130: 23f3 f43c 3153 a3be 2b30 ebbd 9859 983d
00000140: 9e89 443b 16db 043c 194d 883d 762e 563d
00000150: a0b4 49bd 2202 2a3c 01cf b33a 68a9 afbb
00000160: 6bb9 96bd b8e1 aa3d a6a6 353d e7a4 09bd
00000170: 3a2c 933d b674 ddbc 741d 27be b730 4ebd
00000180: 9acf 12be 65f2 c63c cf5c 353d 50b8 c0bd
00000190: f2fd f8bd e36d d7bc 3c55 243d e003 303d
000001a0: a527 b2bc 76d6 72bd ef43 d4ba 76a6 8fbc
000001b0: 0191 6dbd 568b 1e3b ed5b 80bd 705f 5b3d
000001c0: 7979 23bd 9b72 2dbe d579 9d3d da95 203d
000001d0: 4397 33bc 537a af3d 4cde ab3d 1ceb 90bb
000001e0: 78fd 0a3d b68c d23c 83bf d1bd 15db 83bd
000001f0: 50dc c7bd 0d84 0c3d dcee 5f3d fd21 a2bc
00000200: faec 8a3c 6bba c6bd caa7 33bd 2768 6c3d
00000210: 72cd 093d 564b 4dbd da4e 933d f7c3 87bd
00000220: b9d4 1bbc f620 88bc a3bc 163e 8f88 85bc
00000230: 7f85 663a 021e 49bd fdd8 73bd 2730 b3bb
00000240: cd45 ddbd 0097 f4bd 0907 f7bc 0dac 2a3d
00000250: 0d2e 41bc 5119 a43d f920 513d 51a3 54bc
00000260: 133c 333b 266e 573d 798d 393c eb7a 8fbb
00000270: d324 93bc a536 823d 5227 97bd ea13 7abd
00000280: 2afe c1bd 3d70 f73a 4474 75bd 37eb 9cbc
00000290: 7fe5 f53c 6351 9c3d 7c97 6c3b cb9c ebbc
000002a0: e38c 52bc ef5a 9ebd 8250 52be 00b2 8fbd
000002b0: d574 a53c 8b01 89bd 3f55 643c 0fb2 d2bd
000002c0: 1e5b 1fbe e6d2 d5bb 0870 1d3d 3d59 b03b
000002d0: a912 993c f338 9bbd e4a3 2b3d 61a5 4cbd
000002e0: 366b 82bd 1a47 48bd e0b7 3a3b eaa1 c33c
000002f0: 18f2 063a 1edd e23c a6c1 12ba 0af1 7abd
00000300: 4680 24bc e250 a9bb f513 eebb 2a2b eebd
00000310: c52a 34bd 901b 6d3c 57ec 8c3c 2c2b 0b3d
00000320: b314 15bd f2fc c63c 9e62 17be bc23 863c
00000330: 3d39 bbba 8de4 2bbe 18d3 e4bd 1c17 65be
00000340: fb85 6dbd 8278 70bd 5c50 173d 0b4f 173d
00000350: 7552 a5bd 4c3c 243d 4e63 57bd 745c 9ebc
00000360: 250b 983c 53bc 853d 8aaa 3b3d 3d09 51bd
00000370: 7569 22bd 95b6 21bd e87c b83d 426c 2cbe
00000380: e387 d43b 4c77 7c3d c103 023c 2008 f5bd
00000390: 76c2 073c 9ff4 aebd a4eb 78bb d856 1fbd
000003a0: 2416 24bd f01f c83c 74b4 22be 646c c7bc
000003b0: 747b 06bd 851c 733d 93a8 93bd b6dd 0ebc
000003c0: 60d7 cd3c 8dc7 47bd 8c99 2d3d 50a2 8cbc
000003d0: 49a5 a4bd a2c2 8abc a69c 923c 8b76 1dbc
000003e0: 49d1 82be 9a1e 943d 3f13 dfbb 9f59 373d
000003f0: 2180 903d 60f5 743d f71c 7d3d 8652 98bc
-0.041906867 -0.015699685 0.02357387 -0.005739415 -0.100051224 0.044508435 0.035906713 0.010476328
-0.00770651 -0.0043872623 -0.049595706 0.061828084 -0.16409379 0.04337893 0.031568646 -0.36252943
0.031842794 -0.005667428 0.08852292 0.020553809 0.023141323 0.035518907 0.007659101 -0.020211283
-0.047391094 0.07998453 0.023015678 0.013798196 0.05004773 -0.0010832163 0.007278819 -0.008112439
0.045563295 0.026954563 -0.043923967 -0.049086332 -0.095891386 -0.051030643 0.013472194 -0.03447787
0.07361705 0.028656658 -0.029901838 0.07030212 0.05326029 -0.021464624 0.061256997 0.06970457
0.13355204 -0.06396459 0.064106606 0.033790257 -0.21587887 0.04389122 0.089637935 -0.0057703177
-0.12347506 0.075165175 -0.033147898 -0.081087105 -0.08614111 -0.027307652 0.048254173 0.0012075078
0.036809463 -0.12774242 0.07931272 -0.12588249 -0.13537106 0.023004793 0.022499679 0.06716622
0.07403029 -0.031368274 -0.10956467 -0.103283994 0.029901093 -0.31899408 -0.11483797 0.07438964
0.0029989253 0.008108875 0.0665533 0.052290402 -0.049244523 0.010376485 0.0013718308 -0.005360771
-0.073595844 0.08343834 0.04434838 -0.03360453 0.0718617 -0.027033191 -0.16319829 -0.050339427
-0.14337006 0.024285505 0.044277962 -0.09410155 -0.12157811 -0.026297515 0.04012035 0.042972445
-0.02174742 -0.059286557 -0.0016194562 -0.01753543 -0.057999615 0.0024191937 -0.062675335 0.053557813
-0.039910767 -0.1693825 0.07689253 0.03920541 -0.010961357 0.08568253 0.08392009 -0.0044225585
0.033933133 0.025701862 -0.10241606 -0.06438271 -0.09758818 0.03430562 0.054671153 -0.019791598
0.016958702 -0.09703525 -0.043861188 0.057716515 0.033643194 -0.050120674 0.07192774 -0.06629174
-0.009511166 -0.01661728 0.14720397 -0.016300468 0.0008793696 -0.049100883 -0.059533108 -0.0054683867
-0.10804329 -0.119428635 -0.030154722 0.041667987 -0.0117907645 0.08012641 0.051056836 -0.012978391
0.002734904 0.05259528 0.011325234 -0.0043786666 -0.017961895 0.06358079 -0.07380547 -0.061054148
-0.09472306 0.0018878054 -0.059925333 -0.019155128 0.030016659 0.07632711 0.0036101034 -0.028761288
-0.012850973 -0.07732188 -0.20538524 -0.07016373 0.020197311 -0.066897474 0.01393634 -0.10287868
-0.15562102 -0.006525385 0.03843692 0.005381732 0.018685656 -0.075792216 0.041904345 -0.049962405
-0.06368105 -0.048895933 0.0028490946 0.023880918 0.0005147769 0.027693328 -0.0005598314 -0.06126503
-0.010040348 -0.0051671127 -0.0072655627 -0.11629327 -0.0439861 0.014471903 0.01720254 0.03397672
-0.036396693 0.024290536 -0.14783713 0.016374461 -0.0014284026 -0.16786404 -0.111730754 -0.22372097
-0.0579891 -0.058708675 0.03694187 0.036940616 -0.08072368 0.040096566 -0.05258494 -0.019331194
0.018560002 0.065300606 0.045816936 -0.0510342 -0.039651353 -0.039480764 0.09008199 -0.16838172
0.0064859255 0.061637208 0.007935465 -0.1196444 0.008286109 -0.085427515 -0.003798225 -0.03890118
-0.040060177 0.024429291 -0.1588915 -0.024343677 -0.032832578 0.05935337 -0.07209887 -0.008719852
0.025127113 -0.04877429 0.04238276 -0.01716724 -0.08039338 -0.016938511 0.017896961 -0.009610782
-0.25550297 0.07232399 -0.0068077142 0.044763204 0.07055689 0.05980432 0.0617952 -0.018594038

fc2.bias f4 [256]
00000000: f384 963d d24e dfbd 4b36 313c ebc9 b83c
00000010: f041 33be 80ab 7f3d ffe3 c03d 79d7 243d
00000020: 1087 fdbc feb9 2d3d 3868 ab3d aaeb f13d
00000030: cded d8bd 19a2 d93c c8c3 f43d e9e5 c83b
00000040: 0d67 743b 0577 bd3c 88e1 73be dc1c e13d
00000050: 5c83 27bd 3ef4 2bbe 26af 3cbe b91a 5cbd
00000060: 4dbf d9be af8a edbd 5372 c73d 4233 75bb
00000070: 8092 8a3d 36e0 163c 93ae 23be 2d88 8fbc
00000080: 9915 f3bd a0d2 87bd 74cd 6d3d 92dc 583d
00000090: faae f7bc 3f95 61be 8499 a73d 246f 8e3d
000000a0: d80f 68bc 328f b33d dd19 e0b9 6bc8 2bbe
000000b0: fe2b 98bd f7fc 95bc 7569 43bd 2b1b 8f3d
000000c0: 684d c63d 350c 203d 1f31 a0bd 4746 ffbd
000000d0: 7364 18be 58e5 693e da69 acbc f7f7 0bbc
000000e0: 4356 043d 8fa6 3fbd 6ab0 0a3e 9859 98be
000000f0: ab65 bbbd 4ae4 18bd 393e 143a d209 e8bd
00000100: 2db8 b03d 7955 39bd 9d03 a9bc 87d5 b23c
00000110: 5098 efbc ed76 34bd 8281 0f3e 6113 653d
00000120: b3ed bc3c 32a3 d13d 12ca e6bc 951b d1bc
00000130: 3f5a 54bd 9c81 143c d84a 5dbd 29b3 283d
00000140: 8563 27bd 77b0 43be 9c62 f93c b05e 8d3d
00000150: a60d 123e c749 8dbd 2ff9 9a3d 2ed1 2dbd
00000160: 2e49 94bc f02c c0bc 9a9b be3d 3479 293d
00000170: 9318 0a3d 9ce6 83bc 1083 11bd f03e 1c3d
00000180: 5878 cf3d 6310 9dbb a671 75be 4989 e8b9
00000190: 08ec e6bc bc31 5fbd ea93 933c 4d08 edbb
000001a0: 74c7 27bd 35d1 15bd 30db 643c ef06 a7bd
000001b0: 4426 0fbe caa8 1fbd 4ff1 9a3d c952 673d
000001c0: 111c d0bc f8ed aebd de51 b5bd 10bb 42bd
000001d0: daea 7ebd ca84 9abc ab20 0b3d dbd7 6c3d
000001e0: 8d9b 9f3d 8185 d73c ce97 0abe 40df babc
000001f0: bacc 0ebd 22f3 153d b18d 2c3b 02ea 55be
00000200: 6402 06bd 3e29 cabd 1270 cc3b 87d2 31be
00000210: f6c2 e2bb 79fb 82bd 0a94 953c f41c 7bbd
00000220: 849d aebb fc26 943d be54 363c 51f1 413d
00000230: 7acc 1ebb 8ce3 953d 55f8 59be 6eb3 703d
00000240: 201d 43be fe68 51be 2e11 d93d fc4b 5f3d
00000250: 1f67 e73d b079 d9bd b67c bebd fa6d b93c
00000260: fcf3 08bc c5c0 f0bc 5d27 0ebe 3642 63bc
00000270: 30b7 e63c d04a 953c 5044 813d 6926 d0bd
00000280: 4a6f 0dbc 1e16 6bbd c844 3c3c 19c0 f6bd
00000290: 4737 dbbb 3cec 8c3d 6529 243c 31af 673d
000002a0: b56f d13c 71bc 333d 1cc0 b23c c21d e33d
000002b0: d72e ef3c 9f5b afbd 3ec1 06bd e3ca 913d
000002c0: 1408 df3c d6b8 acbd 6409 13bd 3443 35bc
000002d0: c992 cbbb 56c3 893d 82c2 e6bd b685 023c
000002e0: 0c46 c6bc 56c5 7c3d 2e21 adbd 9cd7 1cbe
000002f0: 61a3 a83c c6f4 033e ed1a 09be 4328 823c
00000300: 41ae ecbd b512 033d 88de e5bc c4e5 c93d
00000310: 4446 bfbe f525 853d e7e8 dfbd 23f9 7d3c
00000320: 0ad7 aebd 6a9f 17be 6710 823d 2040 0cbe
00000330: 1d94 cb3c d4e6 693d 4de7 213b caf6 163d
00000340: 77bb 2e3c 1a8c 25be de7e 47be 666d 553e
00000350: c2ea 7d3d de7c a3be 6117 5e3c 8f24 7cbc
00000360: 4fb4 1abe 61ca 5fbd 0d6c 053e d551 c9bd
00000370: 4a6f 763d 1c72 023e f574 be3c 3958 08bd
00000380: a7f2 e1bd 6aaa fd3c 68e2 8bbe 59ef 60bd
00000390: eef4 f63d 1b14 11bd 92f0 8a3d 41e1 b03d
000003a0: c8c5 a9bd 8fba d2bd 3c0e 003e 1d97 67bd
000003b0: b5ff 593e 6acd 4ebe 7c8d 34bd 7e8f 25bc
000003c0: b8bb 3abd c181 a23b 9374 7abe f928 753e
000003d0: 0777 bb3d 3362 16be d6ea 4dbd 3de2 17bd
000003e0: 8c48 463d 3e53 0a3e aab8 b33d 7f49 6dbc
000003f0: 32b0 3b3d d301 85bb 94d0 f73c 268e 51bd
0.07349577 -0.10903706 0.010816167 0.02255722 -0.17505622 0.062419415 0.09418487 0.040244553
-0.030948192 0.042413704 0.083694875 0.118125275 -0.10592232 0.026566552 0.11951405 0.006130923
0.0037292868 0.023128042 -0.23816502 0.109918326 -0.04089676 -0.1679239 -0.18426189 -0.053736422
-0.42528763 -0.115987174 0.097386025 -0.0037414585 0.06766224 0.0092087295 -0.15984564 -0.017520988
-0.11869354 -0.066319704 0.058057263 0.052944727 -0.030234803 -0.22029589 0.08183578 0.06954792
-0.014163934 0.08767547 -0.0004274388 -0.16775672 -0.07430266 -0.0183091 -0.047707994 0.06987604
0.09682733 0.03907414 -0.07821869 -0.12464576 -0.14882068 0.22841394 -0.021046568 -0.008543006
0.032308828 -0.046789702 0.13543859 -0.29755855 -0.09150251 -0.03732709 0.0005655024 -0.11329998
0.08628879 -0.04524753 -0.020631606 0.021830333 -0.029247433 -0.04405873 0.14014247 0.055926684
0.023062563 0.10236205 -0.028172527 -0.025525847 -0.051843878 0.009064104 -0.054026455 0.041186485
-0.040866394 -0.19110285 0.030442528 0.06902826 0.14263019 -0.068988375 0.07567059 -0.042435817
-0.018101301 -0.023458928 0.093070224 0.041375354 0.033714842 -0.016101174 -0.03552538 0.03814596
0.101303756 -0.004793213 -0.23969135 -0.00044352774 -0.02818872 -0.05449079 0.018014867 -0.0072336555
-0.040961698 -0.03657647 0.013968274 -0.08155619 -0.13979441 -0.03897933 0.07565557 0.056475434
-0.025404008 -0.08541483 -0.088535056 -0.047541678 -0.06223569 -0.018862147 0.0339667 0.057823043
0.07793341 0.026308777 -0.13534471 -0.022811532 -0.03486321 0.036608823 0.0026329572 -0.20890048
-0.032717124 -0.098711476 0.0062389458 -0.17365466 -0.006920214 -0.06395621 0.018259067 -0.06130691
-0.005328836 0.07233998 0.011128603 0.047349278 -0.0024230764 0.07318792 -0.21286137 0.058764867
-0.19054079 -0.20450208 0.1059898 0.054515824 0.11298966 -0.10618913 -0.093011305 0.022635449
-0.008358952 -0.029388795 -0.13882203 -0.013870766 0.028163522 0.01822415 0.06311858 -0.10163576
-0.00863249 -0.05739414 0.011491008 -0.120483585 -0.006689939 0.06880996 0.010019635 0.05656356
0.025565961 0.043880884 0.02182012 0.1108966 0.02919714 -0.08562397 -0.032899134 0.07118776
0.027225532 -0.08433692 -0.035897627 -0.011063386 -0.0062125665 0.067267105 -0.11267568 0.0079664495
-0.024203323 0.06171163 -0.08453594 -0.15316623 0.020585718 0.12886342 -0.13389178 0.015888339
-0.11556674 0.032000262 -0.028060213 0.098582774 -0.37358296 0.0650138 -0.109330945 0.015501293
-0.08537109 -0.14806905 0.06350785 -0.13696337 0.0248509 0.0571049 0.0024704516 0.03685645
0.010664812 -0.16166726 -0.1948199 0.20842513 0.06199146 -0.31931204 0.013555379 -0.015389576
-0.15107845 -0.054636363 0.130295 -0.09830061 0.060164727 0.12738842 0.023249129 -0.03328726
-0.110326104 0.030965049 -0.27321172 -0.05491576 0.120584354 -0.035419565 0.067841664 0.08636714
-0.08289677 -0.102894895 0.1250543 -0.056540597 0.2128895 -0.20195547 -0.044080243 -0.010105012
-0.04558918 0.0049593155 -0.24458532 0.23941411 0.09153562 -0.14685898 -0.050272785 -0.037080992
0.04840903 0.13508317 0.08775456 -0.014482855 0.04582233 -0.0040590554 0.030250825 -0.051160954

fc3.weight f4 [2, 256]
00000000: 8776 1ebe e6a0 8e3e eca1 d4bc ed44 2dbe
00000010: 5aeb f33e da28 27be 65f7 36bc 7aa2 c33d
00000020: 7efe 323e f4be e0be 52c6 06be c07a 9bbc
00000030: 4942 d3bd e8f1 76bb 897b 56bd 7833 c1bd
00000040: 38c5 813e e5fc a53e 9ce4 b63e 226f 9fbd
00000050: f5c6 223f 27c8 463f d11b 8b3e 0fc2 e0be
00000060: f256 d03e e973 203d f1bf ed3d b484 3bbe
00000070: 3135 323d 6555 6c3d 1f0a 483e ea1a 333c
00000080: 85b3 2abd d011 ab3c 994d c1bd 24b6 16bc
00000090: a28a 27be df9e 873e 50d9 b63c 867b 1bbe
000000a0: c2e9 003f 0a15 8b3c baa0 f1bc 8bc1 963e
000000b0: 1d43 beba 6f89 f2be 86e7 d9bd 72d4 c2ba
000000c0: 8001 85bc e7b3 ec3d 09bb 0b3f 463e 013f
000000d0: c509 843e 75d7 a3be c7f0 3f3e f8e1 d93d
000000e0: 5ed2 33be a5fd 173e 521b ebbd 1999 063f
000000f0: d509 c2be a4d5 edbe 3604 8ebe d19c 6fbd
00000100: 46de 3a3c 8295 873d 521d 4f3d a1ed 2fbc
00000110: 157d ad3d f958 babe fff9 90bd 38e3 95be
00000120: b2dd ccbd f57e c4bd 1b79 2bbc 2605 67be
00000130: 26b0 b7be c05b bbbd bc07 903e 305b 04be
00000140: 3218 16be 574e c93e e7ac 433d 11b7 9b3d
00000150: f974 2dbe 3f57 773d e172 d73e 27c8 5dbf
00000160: 28d6 6dbe 6214 8c3d 382f 1ebf 3494 13bf
00000170: 07d4 e7bc 96c2 f5bb f8ac 0f3d 9f16 11bd
00000180: eff5 663d 647d f73d 8a87 1a3f 6dc9 65bd
00000190: d594 a03d 2a6a bc3e 1b90 0bbe 4d17 c0bd
000001a0: 5430 7e3e a2ad 22bc 176b 1c3f 5772 d83e
000001b0: a882 023f e01c 563c dca4 a73d 2838 4bbe
000001c0: ce22 403a 7e76 003e a6fe b73e f324 afbc
000001d0: 907c e93d e872 853e 19c0 23bd ac28 823e
000001e0: 9d84 f1bc ece3 99bd 66f2 833e 7068 04be
000001f0: 8260 073e 02c5 80bd df54 6fbe f839 9e3e
00000200: 14ca 2b3e 21d6 1abf 25fa 213d 8616 b8be
00000210: e420 063e c127 623d 53a7 c63e 4f16 f3bd
00000220: c971 ea3d 6d79 f13e 7aae e9bd 9abf fa3c
00000230: 008d b7bd d637 683e 2702 87bd eccc 19be
00000240: c63c 18bf d89e 133f 7cbc a8bd 7b2f 54be
00000250: 3958 debd cdb6 e63e 9d4c d63e 24d1 4d3e
00000260: 4cb4 da39 dd30 a03c cca8 643e 2b84 41bd
00000270: b26b b6be ea81 d13c e9b4 3abe 72bf a93e
00000280: ddfa ab3e 84a8 6bbe f779 f0bd cb3d 593e
00000290: 524a aabc 860a 35be cbbf 993e c8be 22be
000002a0: df43 743d f0d5 4abd 2552 473c b22b 5bbe
000002b0: 683f 92bd b8bf 18bc d710 123e 9052 4bbd
000002c0: e5f7 73bc b07e a73e 8548 9bbc 82fb f6bd
000002d0: 2335 fe3c 84ae c8bd 681e 833e b39b d9bc
000002e0: 77e6 d23d ce10 573d 2a47 e03d dc00 d13e
000002f0: 3066 bfbe bbe5 163a e653 c43e 858e ddbd
00000300: 0ceb b63c ceea ae3d 9f66 6e3d 4265 063d
00000310: 5b42 893e 5759 14be ff75 f63c 215f 45be
00000320: 8e06 78bd 3088 c53d a64d d5bc 4332 c73d
00000330: f9c9 a7bd 6c4b febd ba1d 79bd 41bb 9f3e
00000340: 7094 bf3c 4e5b a13e d764 9a3e a7d4 68be
00000350: c457 08bd c74d a03e 0f5f 513e 4817 a53d
00000360: 2502 1e3e 3acc 0d3e e7b4 2b3c e448 81bd
00000370: e003 533e 8e8b ddbc 3f94 ffbc 312a 05be
00000380: b127 843b d9ae abbe 81bd 193f 2403 98be
00000390: 346c e8bc 8488 f6bc 7646 52be a0d1 92be
000003a0: 937d 97bd 96cf d3be 8e3a b3be c8ab aa3e
000003b0: 6540 febc b73a 0ebc d4de 83be ca96 aebc
000003c0: d730 623e 1c3e a23c 290f a03c f394 ffbc
000003d0: 9dff 84be 202e 503c 9c1d 57be 74fd 5abe
000003e0: 1f91 993e 3ff5 12be b773 14be 3df7 cebd
000003f0: 038d 56bf 4615 ecbe 4d88 803d 0ccc 00be
-0.15474902 0.2785713 -0.025956117 -0.16920824 0.47640496 -0.16324177 -0.011167382 0.09552474
0.17479894 -0.43895686 -0.1316159 -0.01897943 -0.10315377 -0.0037680808 -0.052363906 -0.09433645
0.25345778 0.32419506 0.3572129 -0.07784869 0.63584834 0.7764916 0.2716966 -0.43898055
0.40691334 0.03917304 0.116088755 -0.18312341 0.04350776 0.057698626 0.19535111 0.01093171
-0.04167511 0.020882517 -0.09438629 -0.009198699 -0.16361478 0.26488397 0.02232042 -0.15183839
0.50356686 0.016977806 -0.029495586 0.29444537 -0.0014515851 -0.4737048 -0.10639863 -0.0014864339
-0.016236067 0.11557751 0.5458227 0.50485647 0.25788704 -0.32000318 0.18744193 0.10638803
-0.17560717 0.14842851 -0.1147982 0.5257736 -0.37898126 -0.46452057 -0.27737588 -0.05849916
0.011405533 0.06620313 0.05056507 -0.0107378075 0.08471123 -0.36396006 -0.07078933 -0.29274917
-0.100032225 -0.09594528 -0.0104658855 -0.22560558 -0.35876578 -0.09148359 0.281309 -0.1292541
-0.14657667 0.3931758 0.047772314 0.076032765 -0.16939153 0.06038594 0.42079833 -0.86633533
-0.23226225 0.06839825 -0.617908 -0.57648015 -0.028299345 -0.007500003 0.035077065 -0.035421964
0.056386884 0.12084463 0.60363066 -0.056100298 0.078408875 0.36799747 -0.1362919 -0.09379444
0.24823123 -0.009929093 0.61100906 0.42274734 0.50980616 0.013068408 0.08185741 -0.1984564
0.0007329405 0.12545201 0.3593647 -0.021379923 0.114007115 0.2606423 -0.03997812 0.25421655
-0.02948218 -0.07514176 0.25770873 -0.12930465 0.13220409 -0.06287576 -0.2337222 0.30903602
0.16776305 -0.60482985 0.039545197 -0.35954684 0.13098484 0.055213694 0.38799533 -0.118694894
0.11447484 0.47162953 -0.11410232 0.03060894 -0.089624405 0.2267755 -0.065922074 -0.15019578
-0.5946773 0.5766425 -0.082390755 -0.20721237 -0.10856671 0.4506134 0.41855326 0.20099312
0.00041714532 0.01955455 0.22330016 -0.047245186 -0.3562904 0.025574643 -0.18233074 0.33153874
0.3358983 -0.23013502 -0.11742013 0.21214978 -0.020787392 -0.17679796 0.3002914 -0.1589309
0.05963504 -0.049520433 0.012165581 -0.21403387 -0.07141 -0.009323053 0.14264236 -0.049639285
-0.014890646 0.32713842 -0.018955478 -0.1205969 0.031031197 -0.09798911 0.25609136 -0.026563501
0.10297864 0.05250626 0.109510735 0.40820968 -0.3738265 0.00057562784 0.3834526 -0.10818199
0.022328876 0.08540879 0.058203336 0.03281141 0.26808438 -0.14487205 0.030085562 -0.1927457
-0.060553126 0.09645116 -0.026038002 0.097263835 -0.0819282 -0.12416729 -0.060819365 0.3119755
0.02338621 0.31514972 0.3015506 -0.2273737 -0.033286825 0.3130934 0.20446418 0.08061081
0.15430506 0.13847438 0.010480142 -0.06312731 0.20606947 -0.027044084 -0.031198619 -0.13004376
0.004033052 -0.33531836 0.60054785 -0.29689896 -0.028371908 -0.030094393 -0.20534691 -0.28675556
-0.07396998 -0.41369313 -0.3500561 0.33334184 -0.031036565 -0.008680991 -0.25755942 -0.021312136
0.22088943 0.019805007 0.019538479 -0.031198954 -0.25976267 0.01270631 -0.21007389 -0.21385747
0.2999353 -0.14351366 -0.14497267 -0.10105751 -0.83808917 -0.4610998 0.06275997 -0.12577838

fc3.bias f4 [2]
00000000: a93a 2ebd 4f17 bfbd
-0.04253641 -0.09330618
