agent0_actor_net.pth (torch, 580959 bytes, 6 tensors)

fc1.weight f4 [512, 24]
0	0x3ac9ded8	0.0015401496
1	0x3e9f3947	0.31098387
2	0xbdd92618	-0.10602969
3	0xbdc30005	-0.09521488
4	0x3d0b9876	0.034080945
5	0xbd0832ab	-0.033251446
6	0x3d6d48a4	0.057930604
7	0x3e5e104d	0.21685906
8	0xbbc2cefc	-0.0059450846
9	0x3e83bd2f	0.25730273
10	0xbc40b8fb	-0.011762853
11	0xbc9a630d	-0.01884606
12	0xbd8c7c8a	-0.068596914
13	0xbd6ae188	-0.05734399
14	0xbd0c278b	-0.0342174
15	0x3cec3e9d	0.02883845
16	0x3def6220	0.11688638
17	0x3ea9c65e	0.33159155
18	0xbd9f9751	-0.07792533
19	0xbdafd569	-0.08585627
20	0x3e6219ea	0.22080198
21	0x3ee62e5c	0.44957244
22	0x3c972302	0.01844931
23	0x3e1f841b	0.15577738
24	0x3d649199	0.055802915
25	0x3da4461e	0.08021186
26	0x3e098fff	0.13433836
27	0xbe0e998e	-0.13925764
28	0x3b9ce5b5	0.0047881254
29	0x3e8b57f4	0.2721554
30	0xbe052dfe	-0.13005826
31	0x3e67e790	0.22646928
32	0xbd359ce4	-0.044339076
33	0xbc87e512	-0.016588721
34	0xbde95645	-0.11393408
35	0xbe291cd2	-0.165149
36	0xbe14a9d3	-0.14517908
37	0x3e66ee3e	0.2255182
38	0x3df54282	0.11975576
39	0x3dffe9c0	0.12495756
40	0x3d7ef9e7	0.062250044
41	0x3ba7760a	0.005110507
42	0xbd0fb62a	-0.035085835
43	0xbe0f43fc	-0.13990778
44	0xbea689c9	-0.32526997
45	0xbed1ae9a	-0.40953523
46	0x3d725ab5	0.059168536
47	0x3e2e73ae	0.17036316
48	0xbd538e69	-0.051649485
49	0xbdcad3e3	-0.099036954
50	0xbc1f0b1b	-0.009707238
51	0x3ddc3e55	0.107540764
52	0x3d8b48df	0.068010084
53	0xbe72e0a9	-0.23718514
54	0xbb5e78a7	-0.0033946426
55	0xbe5cc006	-0.21557626
56	0x3dd22fc6	0.10263018
57	0xbe934e07	-0.28770468
58	0xbd44d9ce	-0.048059277
59	0xbe293370	-0.16523528
60	0x3de031d4	0.10947004
61	0x3e14b4e7	0.14522134
62	0xbce13fe6	-0.02749629
63	0x3af6b3b7	0.001882187
64	0x3e4a1e3e	0.19738099
65	0xbe352bd5	-0.17692502
66	0x3ca9c513	0.020723855
67	0x3c9fc8bb	0.019504895
68	0x3e3014df	0.17195462
69	0x3f1c6752	0.61095154
70	0xbe13d6b5	-0.14437373
71	0xbdd21dbc	-0.10259578
72	0x3db85a00	0.09001541
73	0x3eb5ec71	0.35531953
74	0x3ded8e10	0.11599362
75	0x3e99d885	0.30048004
76	0x3d603963	0.05474223
77	0xbeeaf15e	-0.45887274
78	0xbd2f8db8	-0.042859763
79	0xbbf07b62	-0.007338927
80	0xbe3b70e9	-0.1830479
81	0x3ec7f5a8	0.39054608
82	0x3dc0c6a7	0.0941289
83	0xbd768fc5	-0.060195703
84	0x3dd09ca8	0.1018613
85	0xbd0cf247	-0.03441074
86	0xbdc1e339	-0.094671674
87	0x3d4cbe55	0.049986202
88	0x3ddf0fc1	0.10891677
89	0x3e00897a	0.12552443
90	0x3df695ab	0.12040266
91	0x3e882253	0.26588687
92	0x3e734faf	0.23760866
93	0x3ef75558	0.483073
94	0xbe203650	-0.15645719
95	0x3cf7c3e8	0.030244783
96	0x3e45b553	0.19307451
97	0xbe06a7b9	-0.13149919
98	0xbda6cdd9	-0.08144731
99	0xbbe6131e	-0.007021322
100	0x3ebaa956	0.36457318
101	0x3efacb90	0.4898343
102	0xbc37caf9	-0.011217826
103	0x3d723f91	0.059142653
104	0xbdc3f21e	-0.095676646
105	0xbdef27b3	-0.11677494
106	0xbd846afc	-0.06465718
107	0xbdb99d97	-0.09063261
108	0x3cc702ac	0.024293266
109	0x3df82561	0.121165045
110	0x3bb318eb	0.005465617
111	0x3e407381	0.18794061
112	0xbd08f2bf	-0.033434626
113	0x3e06cb24	0.1316343
114	0x3df4bf83	0.119505905
115	0x3d20123d	0.039079893
116	0xbe11289a	-0.14175645
117	0xbe8f20cc	-0.2795471
118	0x3c1a0e38	0.009402804
119	0x3e84ed9f	0.2596254
120	0x3ddb4a4a	0.10707529
121	0x3d564e09	0.052320514
122	0xbd3ba18d	-0.045808364
123	0x3dd26751	0.10273612
124	0xbec3a0c4	-0.38208592
125	0xbeace05e	-0.3376493
126	0x3b3061d9	0.002691379
127	0xbdbf0c1e	-0.09328483
128	0xbd4cdd16	-0.05001553
129	0xbdfa69e5	-0.12227229
130	0xbdad7a6f	-0.08470618
131	0x3c72a6af	0.014810248
132	0xbe103d73	-0.14085941
133	0x3cf10eca	0.029425997
134	0x3dd6b4f4	0.10483733
135	0xbd4c0356	-0.04980787
136	0x3d011554	0.03151448
137	0x3b35bfd7	0.0027732754
138	0xbd5794a1	-0.052631978
139	0x3df7c261	0.12097622
140	0x3ebbc1dc	0.3667134
141	0x3f02c242	0.51077664
142	0x3dcc8000	0.099853516
143	0xbcc1299c	-0.023579411
144	0xbe441522	-0.19148687
145	0xbdbf262d	-0.09333453
146	0x3e0f6e97	0.1400703
147	0x3d9b8c22	0.075950876
148	0xbe0a4b01	-0.13505174
149	0xbe85b544	-0.26114857
150	0xbe4281fb	-0.18994896
151	0xbdc292d5	-0.09500662
152	0xbd829dc6	-0.06377749
153	0x3e07a9f8	0.13248432
154	0x3d6c3cc9	0.057675157
155	0xbe1d87ec	-0.15383881
156	0x3e002fa3	0.12518172
157	0xbef5844c	-0.47952497
158	0xbdc445d6	-0.09583633
159	0xbd22c65e	-0.03973996
160	0xbd91cf3a	-0.071196035
161	0xbc313b68	-0.010817386
162	0xbd93237a	-0.07184501
163	0xbe5dda0c	-0.2166521
164	0x3c9a6034	0.018844701
165	0xbf165be4	-0.58733964
166	0x3c98557c	0.01859545
167	0x3d15735d	0.036486972
168	0xbe12b534	-0.14326936
169	0xbdc26a64	-0.09492949
170	0x3e3be94b	0.18350713
171	0xbd8e7983	-0.0695677
172	0x3eaee415	0.34158388
173	0xbd6a52e0	-0.057207942
174	0xbe388aff	-0.18021773
175	0x3e12456f	0.142843
176	0x3c97dd37	0.0185381
177	0xbe2874fd	-0.16450877
178	0x3d5c0280	0.05371332
179	0xbe1d3102	-0.15350726
180	0xbb9d3d15	-0.0047985413
181	0xbdab32ae	-0.08359276
182	0x3d147d28	0.03625217
183	0x3d8c21ba	0.0684237
184	0x3e280775	0.16409095
185	0x3ce920fb	0.02845811
186	0xbd93c02e	-0.0721439
187	0xbd4154b3	-0.047199916
188	0xbeb72a9a	-0.3577469
189	0x3eb66ceb	0.35629973
190	0x3e0e593b	0.13901226
191	0x3e0aa50d	0.13539524
192	0xbdc74382	-0.09729673
193	0x3d34fc9b	0.044186216
194	0xbd7fc25d	-0.06244122
195	0xbdc996ce	-0.09843217
196	0xbe480745	-0.19534023
197	0x3e88b584	0.26700985
198	0xbd249ae3	-0.040186774
199	0x3c1b52f7	0.00948023
200	0x3d8010d7	0.06253212
201	0x3e1f32a4	0.15546662
202	0xbdb39ad9	-0.08769769
203	0xbe094e6b	-0.1340882
204	0xbd0369aa	-0.03208319
205	0x3e59bede	0.21264216
206	0xbbddff8b	-0.006774848
207	0x3e367fdc	0.17822212
208	0x3df5d4b5	0.12003461
209	0x3daf2037	0.08551066
210	0xbc7fa642	-0.015603604
211	0xbc1f4bba	-0.009722644
212	0x3e8b29f2	0.2718044
213	0xbe24a8b5	-0.16079982
214	0xbc7e40ca	-0.015518377
215	0x3d6821e6	0.056672953
216	0xbdbba86f	-0.091629855
217	0xbd16ffdb	-0.036865097
218	0x3e03193c	0.12802595
219	0xbdf20d33	-0.11818924
220	0xbd320f10	-0.043471396
221	0x3eb9dfdb	0.363036
222	0x3d1744ea	0.036930956
223	0x3d5a1b22	0.053248532
224	0xbdffc3a3	-0.124884866
225	0x3e314413	0.17311125
226	0xbe04f9ea	-0.1298596
227	0x3c01c310	0.007920042
228	0x3b1741a9	0.0023079908
229	0xbd7d2aae	-0.06180828
230	0x3c9194ba	0.017771114
231	0x3e6fd97d	0.23422809
232	0x3d4c90ee	0.049942903
233	0x3e83489c	0.25641334
234	0x3db0e79b	0.08637925
235	0xbcdbb5f6	-0.026820164
236	0x3e803d11	0.2504659
237	0xbf0b9fa3	-0.5454046
238	0xbdffff3e	-0.124998555
239	0x3e2628ea	0.16226545
240	0x3d890d5b	0.066920005
241	0x3d203381	0.039111618
242	0xbdd4d216	-0.10391633
243	0x3d07468f	0.033026274
244	0x3e966bc0	0.29379082
245	0xbed00b1f	-0.40633485
246	0x3ddffe57	0.10937183
247	0xbe0b5d13	-0.13609724
248	0x3c28b5e6	0.010297274
249	0xbe10b77c	-0.14132494
250	0x3c706fb2	0.014675068
251	0x3cde7f39	0.027160274
252	0x3e21f85a	0.15817395
253	0xbd3d0d1e	-0.046155088
254	0x3a825aff	0.0009945332
255	0xbd9a3d6f	-0.07531249

fc1.bias f4 [512]
0	0xbdc7ab31	-0.09749449
1	0x3d19780a	0.037467994
2	0xbdf4b440	-0.119484425
3	0xbe540d9e	-0.2070832
4	0xbe31ca8f	-0.17362426
5	0x3cd04f78	0.025428519
6	0xbde1c343	-0.11023571
7	0x3de80bce	0.113303766
8	0xbdbd6aff	-0.092489235
9	0xbcd94f9a	-0.026527215
10	0xbe2539c8	-0.16135323
11	0x3c0d24c8	0.008614726
12	0x3e919706	0.28435534
13	0x3cbc938c	0.023019575
14	0xbeae2bab	-0.3401769
15	0xbd259d37	-0.040433135
16	0xbb407f16	-0.0029372624
17	0xbcb3e523	-0.021959847
18	0xbe5f56e4	-0.2181049
19	0x3e214fc8	0.1575309
20	0x3dd85339	0.105627485
21	0xbe346a6d	-0.17618723
22	0xbd9652fe	-0.07340048
23	0xbbb199b6	-0.005419935
24	0x3d74d637	0.059774604
25	0x3ca3862d	0.019961441
26	0x3cfc6cd6	0.030813616
27	0xbd3fd39a	-0.04683266
28	0xbea2513f	-0.3170261
29	0xbeaeaf6f	-0.3411822
30	0xbe3bfb38	-0.18357551
31	0x3da59f9f	0.08087086
32	0x3df26618	0.11835879
33	0x3e802501	0.25028232
34	0x3dbeb865	0.09312514
35	0xbe4f111c	-0.2022137
36	0xbe1c0286	-0.15235338
37	0xbe09951e	-0.1343579
38	0xbddc028d	-0.10742674
39	0x3d505e33	0.050871085
40	0x3e01dc82	0.12681773
41	0xbe17be33	-0.14818649
42	0x3d8fde40	0.07024813
43	0xbcfdc8ca	-0.030979533
44	0xbd9b02e5	-0.075689115
45	0x3d2c0444	0.041996256
46	0xbd56c71a	-0.05243597
47	0xbe1fba3f	-0.15598391
48	0x3e60befa	0.21947852
49	0x3e98da8d	0.2985424
50	0xbe17b36d	-0.14814539
51	0x3cc288e7	0.02374692
52	0xbb34efaa	-0.0027608671
53	0x3d159dcd	0.036527444
54	0xbe0e008e	-0.13867399
55	0x3bc76446	0.0060849516
56	0x3d1398c0	0.036034346
57	0x3d2eb72a	0.042655148
58	0x3dde96c5	0.10868601
59	0x3ab10a41	0.0013507084
60	0x3d9ad4a6	0.07560091
61	0xbca75be9	-0.020429568
62	0xbdb873b5	-0.09006444
63	0x3ddb263e	0.107006535
64	0x3e1c72d7	0.15278183
65	0xbe2ee02e	-0.17077705
66	0xbe7123b3	-0.23548774
67	0x3ca8dac9	0.020612137
68	0xbe67baf5	-0.22629912
69	0x3e15a4d7	0.14613663
70	0x3e4fd2d6	0.20295271
71	0xbe1e96fc	-0.15487283
72	0x3c8627e0	0.016376436
73	0x3e548ec2	0.20757583
74	0x3cc53988	0.024075285
75	0x3dd86edc	0.1056802
76	0xbdc09abb	-0.094045125
77	0xbe2082d9	-0.15674914
78	0xbdbfa40e	-0.09357463
79	0xbddfb239	-0.10922665
80	0x3b8ca592	0.0042921985
81	0x3e3b165d	0.1827025
82	0x3e30b63d	0.17257018
83	0xbe0def39	-0.13860787
84	0x3e6f31ff	0.23358916
85	0xbeb01134	-0.34388125
86	0xbe4ce0ae	-0.20007583
87	0xbd0d55b0	-0.034505546
88	0x3e023a2b	0.12717502
89	0x3e76e8c2	0.24112228
90	0xbd9b61ff	-0.07587051
91	0xbce8a607	-0.02839948
92	0x3e566dd4	0.20940334
93	0xbbd742a7	-0.006569225
94	0x3d300bc2	0.042979963
95	0x3c0c409b	0.008560325
96	0x3dcddb3d	0.10051582
97	0x3e37c9f0	0.17948127
98	0x3d744cf5	0.059643704
99	0xbd572feb	-0.052535933
100	0xbd5fe18c	-0.054658458
101	0xbe2aa8bf	-0.16665934
102	0x3d361bf5	0.044460256
103	0xbcac521b	-0.021035245
104	0x3ce883f3	0.02838323
105	0x3da3432c	0.079717964
106	0xbe24e653	-0.16103487
107	0xbe70dd07	-0.23521815
108	0x3dbef323	0.093237184
109	0xbe05131c	-0.12995571
110	0xbe394cf5	-0.18095763
111	0xbc2f48ab	-0.010698478
112	0xbd67f2ba	-0.056627966
113	0xbe5a59dd	-0.21323343
114	0xbe5d581d	-0.21615644
115	0xbde88a27	-0.113544755
116	0xbe9bd938	-0.30439162
117	0x3e025628	0.12728179
118	0xbe9cfb50	-0.30660486
119	0xbe26ed42	-0.16301444
120	0xbe86562f	-0.26237628
121	0xbda73232	-0.08163871
122	0xbe71bc4b	-0.23606984
123	0xbda36f59	-0.07980222
124	0xbda39304	-0.079870254
125	0x3da50dab	0.080592476
126	0xbe463e7d	-0.19359775
127	0x3bf22299	0.0073893783
128	0x3d9dc83d	0.07704208
129	0x3d153471	0.036426965
130	0x3cec6ce3	0.028860515
131	0xbe5bd37f	-0.21467398
132	0xbe1a54c6	-0.15071401
133	0xbde1f80c	-0.11033639
134	0xbe2018f1	-0.15634514
135	0x3eb3cb61	0.35116103
136	0xbcafacca	-0.021444697
137	0xbe4cd678	-0.20003688
138	0x3e30d3e0	0.17268324
139	0xbe5294b8	-0.20564544
140	0xbe29f339	-0.16596688
141	0xbed58962	-0.41706377
142	0xbe3e987c	-0.18612856
143	0xbd894efc	-0.06704518
144	0x3e36be11	0.17845942
145	0x3d9b1319	0.07572002
146	0xbd61540e	-0.0550118
147	0x3d8f2ba6	0.06990747
148	0x3d7ed641	0.062216047
149	0x3c3a1a97	0.011358879
150	0x3d050ada	0.032481052
151	0x3d096d63	0.033551585
152	0x3d4acd04	0.049511924
153	0x3b655db1	0.0034998471
154	0x3cd18054	0.025573887
155	0xbe355aaf	-0.17710374
156	0xbdefa122	-0.117006555
157	0x3d13aa12	0.036050864
158	0x3b990b92	0.0046705687
159	0xbd6c0a2c	-0.05762689
160	0xbdb3cdfa	-0.08779521
161	0x3e3d6a63	0.18497615
162	0xbda2714c	-0.07931766
163	0xbe2661e6	-0.16248283
164	0xbe091968	-0.13388598
165	0xbd36a99d	-0.04459535
166	0xbd928b1a	-0.07155438
167	0x3e3b4271	0.18287064
168	0x3c1aa287	0.009438164
169	0xbda68688	-0.081311285
170	0x3d47fa08	0.048822433
171	0xbdc8d1ea	-0.09805663
172	0x3d836938	0.06416553
173	0x3e348be7	0.17631494
174	0xbd23a288	-0.039949924
175	0xbd5364b7	-0.05160972
176	0x3d7f8422	0.06238187
177	0xbe3c5f6b	-0.18395774
178	0x3dcb3136	0.099214956
179	0x3db6f28d	0.08932982
180	0xbdde64f6	-0.108591005
181	0x3d716c79	0.05894134
182	0xbd46cb86	-0.04853394
183	0xbdbb820a	-0.09155662
184	0xbe453184	-0.1925717
185	0xbe997d03	-0.2997819
186	0x3e2a891d	0.16653867
187	0x3d8aaaac	0.06770834
188	0xbe5a887e	-0.2134113
189	0x3e07989d	0.13241811
190	0x3e35de92	0.17760685
191	0x3e070395	0.1318496
192	0x3d646591	0.055760924
193	0x3eafc6ee	0.3433146
194	0xbcd599fb	-0.0260744
195	0x3e1babd9	0.15202273
196	0xbe2eb9d7	-0.1706308
197	0xbe2fe076	-0.17175469
198	0xbd81ac0b	-0.06331643
199	0xbe3bb3c0	-0.18330288
200	0x3d417bca	0.047237195
201	0x3e09c08d	0.13452359
202	0xbdbc6102	-0.0919819
203	0xbe9fa343	-0.31179246
204	0x3d8ecc76	0.069725916
205	0x3e862236	0.26197976
206	0x3d8ee45a	0.06977148
207	0xbea5712b	-0.32312903
208	0xbd8530ab	-0.06503423
209	0x3e4f96a2	0.20272306
210	0xbe8854d0	-0.26627207
211	0xbd25397a	-0.040338017
212	0x3df8a9f1	0.12141789
213	0x3e56d710	0.20980477
214	0x3d1b049f	0.037846204
215	0x3e4ca371	0.19984223
216	0xbe9860a2	-0.29761225
217	0x3d920742	0.071302906
218	0xbe77b2e6	-0.24189338
219	0xbe1ec4a2	-0.15504697
220	0x3dcc386a	0.09971698
221	0xbe21c851	-0.15799071
222	0xbe58917d	-0.2114925
223	0x3bfcb601	0.0077121262
224	0x3e967347	0.29384825
225	0xbc94150d	-0.018076444
226	0xbe1d9535	-0.15388949
227	0x3e20f2da	0.1571764
228	0x3e7073b8	0.23481643
229	0xbda0ddf4	-0.07854834
230	0xbe6936bb	-0.22774784
231	0x3d92b533	0.07163467
232	0x3d1ffcea	0.039059557
233	0xbe562a26	-0.20914516
234	0xbe66a795	-0.22524865
235	0x3e1e448c	0.15455836
236	0xbd9c3b22	-0.07628466
237	0x3e4e6520	0.20155764
238	0x3d8ffd74	0.07030764
239	0xbe0f0702	-0.13967517
240	0x3e22b346	0.158887
241	0xbe965df6	-0.29368562
242	0x3cda2d02	0.02663279
243	0xbdfdced9	-0.12392969
244	0xbe3173b6	-0.17329296
245	0xbdb3a60a	-0.08771904
246	0xbe0ad7ee	-0.13558933
247	0xbd9f0c74	-0.07766047
248	0xbb471d7f	-0.0030382571
249	0x3e491f78	0.1964091
250	0xbdec334d	-0.11533222
251	0xbe2d80c6	-0.16943654
252	0xbd9c4972	-0.07631196
253	0xbd679e4e	-0.056547455
254	0x3d2cec55	0.04221757
255	0xbe1365d6	-0.14394316

fc2.weight f4 [256, 512]
0	0x3d071dc6	0.03298738
1	0xbead5eeb	-0.3386148
2	0x3cf20510	0.02954343
3	0xbce9124d	-0.02845111
4	0x3ba0d384	0.004908027
5	0x3dcf9080	0.10134983
6	0x3ceddf48	0.029037133
7	0xbdbd52e9	-0.092443295
8	0xbca72747	-0.020404471
9	0x3d8968b4	0.06709424
10	0x3d9ce0ce	0.076600656
11	0x3ca30917	0.019901795
12	0x3e3c3d87	0.18382846
13	0xbd239400	-0.039936066
14	0x3cd10794	0.025516309
15	0x3c10804b	0.00881965
16	0x3b328842	0.002724186
17	0x3d8fd447	0.070229106
18	0x3dde8253	0.10864701
19	0xbe38fc6c	-0.18065041
20	0xbd81f270	-0.063450694
21	0xbe263178	-0.16229808
22	0x3d497af8	0.049189538
23	0x3d3b21fa	0.0456867
24	0x3d5c09e1	0.05372036
25	0x3dd5d582	0.10441114
26	0x3d2b2aa3	0.04178871
27	0x3ba0818f	0.004898257
28	0xbbd4b389	-0.006491129
29	0xbbd87c6e	-0.00660663
30	0xbc827947	-0.01592697
31	0xbcb6dde6	-0.022322606
32	0xbd0db72a	-0.034598507
33	0xbd4ac859	-0.049507473
34	0x3ce7647b	0.028246155
35	0x3dc1942d	0.094520904
36	0x3d09cd62	0.033643134
37	0xbdc3b683	-0.09556296
38	0x3c9a10ce	0.018806841
39	0x3dccb676	0.09995739
40	0x3d912b18	0.070882976
41	0xbc8c42ce	-0.017121699
42	0x3d9cfe56	0.07665698
43	0x3ccd718a	0.025078554
44	0xbe760fce	-0.24029467
45	0xbd46af35	-0.048506934
46	0xbd1d2855	-0.03836854
47	0xbe5f9ce1	-0.21837188
48	0xbcbec70b	-0.02328827
49	0xbc036237	-0.008019022
50	0xbc2a347f	-0.010388493
51	0xbdaa424d	-0.08313427
52	0x3db0ef86	0.086394355
53	0x3ce6e14b	0.0281836
54	0xbe5a8ed2	-0.21343544
55	0xbcf54606	-0.029940616
56	0xbeaa9b39	-0.3332155
57	0x3db8bc02	0.09020235
58	0xbdd5da78	-0.1044206
59	0x3d0080f9	0.031372998
60	0xbcb106d0	-0.021609694
61	0x3cfac976	0.030613642
62	0x3a8bcbc5	0.0010665586
63	0xbdb6b8ca	-0.089219645
64	0x3d06bc96	0.032894693
65	0x3c21b8c8	0.009870715
66	0x3e0158fe	0.12631604
67	0xbb7e8f55	-0.0038842757
68	0xbdc6c024	-0.09704617
69	0x3d72db5e	0.059291236
70	0x3d6ffe87	0.058592346
71	0xbd928281	-0.07153798
72	0xbee27c4c	-0.44235456
73	0x3dc83191	0.09775079
74	0xbda25ed8	-0.07928246
75	0xbcc01808	-0.023448959
76	0xbc9de74a	-0.019275326
77	0x3d4324a5	0.04764237
78	0x3d439373	0.04774804
79	0xbd9e0866	-0.077164456
80	0xbd660298	-0.056154817
81	0xbce944c8	-0.02847518
82	0x3d4686b7	0.048468318
83	0x3d3baa9e	0.04581701
84	0xbdb51a9e	-0.088429675
85	0x3daea336	0.08527224
86	0x3e0f9ebf	0.140254
87	0x3cc67d8f	0.024229793
88	0x3bc2b74a	0.00594226
89	0xbd9b98ad	-0.0759748
90	0x3d273ecc	0.040831372
91	0x3cd6672d	0.026172245
92	0x3c1335b0	0.008984968
93	0x3d4137bf	0.047172304
94	0xbd023f38	-0.03179857
95	0x3bf84292	0.007576295
96	0xbccd7100	-0.025078297
97	0xbea9db0a	-0.33174926
98	0xbd918723	-0.071058534
99	0xbe07bb24	-0.13254982
100	0x3d22b868	0.039726645
101	0x3dcd3981	0.100207336
102	0x3d9b332a	0.07578118
103	0x3da65211	0.08121122
104	0xbb07add9	-0.0020702987
105	0x3d492e7c	0.049116597
106	0x3b58cd8e	0.0033081505
107	0xbd63e0a1	-0.055634145
108	0x3bb84a12	0.0056240642
109	0x3ce0b41a	0.02742963
110	0x3de08216	0.10962312
111	0xbd1b95f0	-0.03798479
112	0x3d92debe	0.07171391
113	0x3d06c95c	0.032906875
114	0x3c3a7003	0.011379245
115	0xbd20c90f	-0.039254244
116	0x3d42340e	0.047412924
117	0xbde06190	-0.109561086
118	0xbc5b756a	-0.013394693
119	0x3d067007	0.03282168
120	0x39f4c350	0.00046684826
121	0xbec96bc4	-0.3934003
122	0xbe117f8b	-0.1420881
123	0xbda5b302	-0.08090784
124	0xbd4deeb6	-0.05027648
125	0x3d7a5e9e	0.06112539
126	0x3d572609	0.052526508
127	0xbd32aad1	-0.043619934
128	0xbc9f03b8	-0.019410953
129	0x3d246130	0.040131748
130	0x3d08df7a	0.03341625
131	0x3e34d120	0.176579
132	0xbceb77ba	-0.028743614
133	0xbe029882	-0.1275349
134	0x3c04f532	0.0081151
135	0xbc9cabb8	-0.01912485
136	0xbd687b5f	-0.05675828
137	0xbb68f70c	-0.0035547642
138	0xbc642cd3	-0.013926703
139	0x3bde37f1	0.006781571
140	0x3dfde14a	0.12396486
141	0xbd8c074a	-0.06837328
142	0xbbf09cac	-0.0073428955
143	0xbd7165c9	-0.05893496
144	0x3ce2a1a7	0.027664972
145	0x3d106cfc	0.035260186
146	0x3cc39fc5	0.023879895
147	0x3ca6a6bf	0.020343183
148	0x3bfe48a9	0.0077601266
149	0xbe874335	-0.26418462
150	0x3d61505e	0.055008285
151	0x3c90ed54	0.017691292
152	0x3cd0bae8	0.025479749
153	0x3d2e04d8	0.042485088
154	0xbcd1264e	-0.02553096
155	0x3d4081da	0.046998836
156	0x3d076d7a	0.03306339
157	0x3e160944	0.14651972
158	0xbcaf8feb	-0.02143093
159	0xbd8b17d0	-0.06791651
160	0xbc0bdb93	-0.008536237
161	0xbdd36285	-0.103215255
162	0x3d27c12b	0.040955704
163	0x3d85a678	0.06525892
164	0x3cdec211	0.027192147
165	0xbe0cfd30	-0.13768458
166	0xbcce4783	-0.025180584
167	0x3e30e05b	0.17273085
168	0x3ccd3e17	0.02505402
169	0x3cc30047	0.023803843
170	0xbda0a877	-0.07844632
171	0xbc2d6c7a	-0.010584945
172	0x3da33bb2	0.0797037
173	0x3dd95402	0.10611726
174	0x3d4f6dc8	0.050641805
175	0xbc1e745e	-0.009671299
176	0xbcd21019	-0.025642442
177	0xbc0d8590	-0.008637801
178	0x3da9db58	0.082937896
179	0x3d740aac	0.05958049
180	0xbc88d633	-0.0167037
181	0x3d64eb03	0.055888187
182	0xbc5f45dc	-0.013627496
183	0xbcd73039	-0.026268112
184	0xbde1c246	-0.11023383
185	0xbc76a164	-0.015053127
186	0xbda9e37e	-0.08295344
187	0xbdb9150d	-0.09037218
188	0xbd9435a1	-0.072367914
189	0xbca163ad	-0.01970085
190	0x3d70bbd0	0.058772862
191	0x3dbafc2a	0.09130128
192	0x3d18cb85	0.037303466
193	0x3d51d72c	0.051230595
194	0x3b0ae10d	0.002119127
195	0xbe10aba5	-0.14127977
196	0xbcdccf03	-0.02695418
197	0xbdad6e9a	-0.08468361
198	0x3d672930	0.056435764
199	0xbce12fd8	-0.027488634
200	0xbe49444f	-0.19654964
201	0x3dcb9f26	0.099424645
202	0x3abc0524	0.0014344794
203	0xbd92a128	-0.07159644
204	0xbcd92214	-0.026505508
205	0xbd982ad4	-0.07430044
206	0x3c856a23	0.016285961
207	0xbc4c973f	-0.012487232
208	0xbca7d014	-0.020484962
209	0xb9420883	-0.00018504453
210	0x3dbe54fd	0.09293554
211	0x3d470631	0.04858989
212	0xbdac7b68	-0.084219754
213	0x3bdb4a2e	0.0066921925
214	0xbd4ace13	-0.049512934
215	0xbc0f7033	-0.008754778
216	0xbd516d59	-0.051129673
217	0xbdb93af9	-0.09044451
218	0x3d5ee759	0.05441985
219	0x3d0270f6	0.03184601
220	0x3d13fe68	0.036131293
221	0x3c981793	0.018565929
222	0xbe7f9891	-0.24960543
223	0xbd78ea0e	-0.060770087
224	0xbde3194c	-0.11088809
225	0x3e021046	0.1270152
226	0xbd5693b8	-0.05238697
227	0xbc65ec05	-0.014033322
228	0xbc2511ae	-0.010075016
229	0x3dae2b6a	0.08504374
230	0xbd3e00b3	-0.046387386
231	0x3d4bc8cb	0.049752038
232	0xbd2c8295	-0.04211672
233	0xbcfaa8c6	-0.030598056
234	0xbe08a494	-0.13344032
235	0xbe157175	-0.14594062
236	0xbcc244f0	-0.023714513
237	0xbd71a315	-0.058993418
238	0xbe36d178	-0.17853343
239	0xbd9176d8	-0.07102746
240	0xbd8cbd26	-0.06872015
241	0x3e0fe0b8	0.14050567
242	0xbd51921d	-0.051164735
243	0x3ced3ee9	0.028960662
244	0xbd128196	-0.035768114
245	0x3d3f6b2b	0.046733063
246	0xbb203016	-0.0024442724
247	0xbd7348e4	-0.059395686
248	0xbb43e471	-0.00298908
249	0xb8d53d57	-0.00010168057
250	0xbb80dc4e	-0.0039325124
251	0xbc88e44a	-0.01671042
252	0xbe2d0363	-0.16895823
253	0x3e99ca43	0.30037126
254	0x3e044043	0.12915139
255	0xbdb0ed46	-0.08639006

fc2.bias f4 [256]
0	0x3d3fc0f2	0.046814866
1	0xbd12918f	-0.035783347
2	0x3c538b1f	0.012911587
3	0xbcd782c6	-0.026307475
4	0x3d484cc3	0.04890133
5	0xbe3b943c	-0.18318266
6	0xbdfc1079	-0.123078294
7	0xb932032f	-0.00016976589
8	0x3d10e2da	0.035372593
9	0x3db976e2	0.09055878
10	0xbd8536e2	-0.06504609
11	0xbd9a2208	-0.07526022
12	0x3d962239	0.07330746
13	0x3d1e913e	0.038712732
14	0xbdec0381	-0.11524106
15	0xbd386462	-0.045017608
16	0xbd187f10	-0.03723055
17	0xbceb49ca	-0.028721709
18	0xbdcac455	-0.099007286
19	0xbda42498	-0.08014792
20	0x3d41034c	0.047122285
21	0x3b80daba	0.0039323242
22	0xbd4f698f	-0.050637778
23	0xbca14e17	-0.019690556
24	0xbceaae19	-0.02864747
25	0x3dd5cbbc	0.1043925
26	0x3dd01bc1	0.10161544
27	0x3c221d2f	0.009894653
28	0xbd40c124	-0.047059193
29	0x3db92338	0.090399206
30	0xbd9ea013	-0.077453755
31	0x3d76244a	0.0600932
32	0xbd356711	-0.044287745
33	0xbd3ddc4a	-0.046352662
34	0xbc00e959	-0.007868134
35	0x3d18d2a4	0.037310258
36	0x3d35018b	0.044190925
37	0xbd6c12cb	-0.05763511
38	0x3decbb31	0.115591414
39	0xbc9f48da	-0.019443918
40	0x3e148c8a	0.14506736
41	0xbdaa7afe	-0.0832424
42	0x3e07e336	0.13270268
43	0xbd140377	-0.036136117
44	0x3d30ec4a	0.043194093
45	0xbcae98dc	-0.021313123
46	0x3dd9f363	0.106421255
47	0xbdab4efe	-0.08364676
48	0x3e284d69	0.1643578
49	0x3c8478e1	0.01617092
50	0x3cb8c004	0.022552498
51	0x3b3fcaba	0.0029265122
52	0x3c4a309e	0.012340693
53	0xbe076428	-0.132218
54	0xbd9427b5	-0.07234136
55	0xbd6ca0ca	-0.057770528
56	0xbe49fc31	-0.1972511
57	0xbd14dc45	-0.036342878
58	0xbcf6cebe	-0.03012788
59	0x3d5c9c88	0.053860217
60	0xbdd97285	-0.10617546
61	0xbbb5d528	-0.005549092
62	0xbc6e3a52	-0.014540272
63	0x3d374fb4	0.044753745
64	0xbd48eee0	-0.049055934
65	0x3d36c5b4	0.04462214
66	0xbdc0106a	-0.09378131
67	0xbd7d5435	-0.061847884
68	0x3d4bc11f	0.04974472
69	0xbd69abd7	-0.057048645
70	0x3e354c2a	0.17704836
71	0x3cfbe30c	0.030747913
72	0x3c85651e	0.016283568
73	0xbc3a020d	-0.011353028
74	0x3b0c9d58	0.002145609
75	0xbdaa2f2f	-0.08309781
76	0xbceb9050	-0.028755337
77	0xbd0be2f2	-0.03415198
78	0xbe2850fb	-0.16437142
79	0xbe20423d	-0.15650268
80	0xbe46e130	-0.1942184
81	0xbccfa483	-0.025347
82	0xbd744176	-0.05963274
83	0x3c8acc7b	0.016943207
84	0x3e026729	0.12734665
85	0x3d0a9efb	0.03384302
86	0xb8133b00	-3.510248e-05
87	0xbc4cad3c	-0.012492474
88	0xbd1650b2	-0.03669805
89	0x3dedd118	0.11612147
90	0x3d31f736	0.04344865
91	0xbdb00c46	-0.08596091
92	0xbdf4955f	-0.11942553
93	0xbdfaf018	-0.122528255
94	0xbd91c18e	-0.07116996
95	0x3da0deec	0.07855019
96	0x3d2b123f	0.041765448
97	0xbce93742	-0.028468732
98	0xbe3cd7e4	-0.1844173
99	0xbcb05c51	-0.021528395
100	0x3d34e4c6	0.044163488
101	0x3a6a5719	0.000893937
102	0xbdac8e7a	-0.08425613
103	0xbd37e074	-0.04489179
104	0x3c87f8ce	0.016598132
105	0x3a6b59b0	0.0008977903
106	0x3d85fe53	0.06542649
107	0xbde647f8	-0.11244196
108	0xbb8e98cb	-0.0043517104
109	0x3cb2969b	0.02180033
110	0xbd76fd7f	-0.060300346
111	0xbe13f7e1	-0.14450027
112	0xbd374df8	-0.04475209
113	0x3d02d4a9	0.03194109
114	0x3d43e071	0.047821466
115	0x3badfcc1	0.0053096716
116	0x3e14cdf7	0.14531694
117	0xbc28d0e7	-0.010303712
118	0xbdeb8de7	-0.11501675
119	0xbd51dfd1	-0.05123884
120	0x39f70b97	0.00047120146
121	0xba500293	-0.0007934954
122	0x3bceb4f0	0.0063081905
123	0xbd5442fc	-0.051821694
124	0x3d97ceb7	0.074124746
125	0xbd5f9178	-0.05458209
126	0xbcddfb62	-0.027097408
127	0x3d899c90	0.06719315
128	0x3dfa9f0e	0.122373685
129	0x3d32b226	0.043626927
130	0x3e145319	0.14484824
131	0x3c8a682b	0.016895374
132	0xbd5bf14c	-0.053696916
133	0x3b1c5151	0.002385218
134	0x3bbff514	0.005858073
135	0xbd81b310	-0.063329816
136	0xbdbf3581	-0.09336377
137	0x3c7b878a	0.015352139
138	0x3ccc8afa	0.024968613
139	0xbd6695b3	-0.056295108
140	0x3da07e8b	0.07836636
141	0x3df88065	0.12133864
142	0x3da38e47	0.079861216
143	0x3db12333	0.08649292
144	0x3da015d8	0.07816666
145	0xbd727c51	-0.05920059
146	0xbcfc0371	-0.03076336
147	0xbde04004	-0.1094971
148	0x3d155e3d	0.036466826
149	0xbdfec403	-0.1243973
150	0xbe0392fa	-0.12849036
151	0xbcfbf1b5	-0.030754903
152	0xbddd1946	-0.10795836
153	0x3d050fa0	0.032485604
154	0x3c3d708c	0.011562478
155	0xbcf8ade3	-0.030356353
156	0xbd3ed883	-0.0465932
157	0x3cf10eec	0.02942606
158	0x3cbe7eed	0.023253882
159	0xbd933681	-0.0718813
160	0xbd69ce39	-0.057081435
161	0x3cead8e3	0.028667873
162	0xbd244d6f	-0.04011291
163	0x3d1b0c4c	0.037853524
164	0xbdb5acff	-0.08870887
165	0xbc61f9bf	-0.013792454
166	0xbdc68c06	-0.09694676
167	0x3c902463	0.017595476
168	0xbca774d4	-0.02044145
169	0xbdba9d98	-0.0911209
170	0x3e42e6f7	0.19033419
171	0xbb38d329	-0.0028202033
172	0xbd99a6aa	-0.07502492
173	0x3df03bd0	0.11730158
174	0x3c41c34d	0.0118263485
175	0xbdfd7fd8	-0.123779
176	0x3bbbb818	0.005728733
177	0xbc3736b7	-0.011182479
178	0xbd732404	-0.05936052
179	0xbdc81518	-0.09769648
180	0x3d5ed76c	0.05440466
181	0x3cf96d89	0.030447738
182	0xbc077b34	-0.00826912
183	0xbc89438c	-0.016755842
184	0xbe13d705	-0.14437492
185	0xbdab645a	-0.0836875
186	0x3dbca4f0	0.09211147
187	0xbd59d99c	-0.053186044
188	0x3da573d4	0.08078733
189	0xbcbd65ef	-0.023119895
190	0x3e0df1ba	0.13861743
191	0xbe28a75a	-0.1647009
192	0xbc2f6182	-0.0107044
193	0xbd2a817a	-0.041627385
194	0xbd90fc96	-0.07079427
195	0x3e14f04c	0.14544791
196	0x3d0b1c21	0.033962373
197	0x3c8251ac	0.015908085
198	0x3c6b0817	0.0143451905
199	0x3dea6e5a	0.11446829
200	0x3c906145	0.017624507
201	0xbdc5a039	-0.09649701
202	0xbd093fa2	-0.03350795
203	0xbdc8f4c5	-0.09812311
204	0xbcc723cf	-0.024309067
205	0x3d7ac884	0.061226383
206	0xbc93f351	-0.018060358
207	0xbc97b773	-0.018520093
208	0x3caf77e3	0.021419471
209	0x3e033d3a	0.12816325
210	0x3d21adee	0.039472513
211	0x3dcbd94e	0.09953557
212	0xbd3e88db	-0.046517234
213	0xbc692455	-0.014229854
214	0x3d948670	0.072522044
215	0xbdd283d6	-0.10279052
216	0x3d88566a	0.06657107
217	0xbc07f74c	-0.008298706
218	0xbe13cb87	-0.14433108
219	0xbd8305a4	-0.0639756
220	0x3caa699d	0.020802313
221	0xbdf01991	-0.117236264
222	0x3d856ae9	0.06514532
223	0x3da61838	0.08110088
224	0xbc842516	-0.016130965
225	0xbdf30ce3	-0.11867692
226	0xbcaaa363	-0.020829862
227	0xbccec28b	-0.02523925
228	0xbd9e6dea	-0.07735808
229	0xbd9dddcc	-0.0770832
230	0xbcd91d31	-0.026503177
231	0xbba858df	-0.0051375474
232	0xbd97211b	-0.07379361
233	0x3d6b189a	0.05739651
234	0x3d5613c6	0.05226495
235	0x3d9248d0	0.07142794
236	0xbd812cac	-0.063073486
237	0xbe29c741	-0.16579916
238	0x3df6da0d	0.12053309
239	0x3ddfd563	0.10929372
240	0xbd8cdfbf	-0.06878614
241	0xbd3d560e	-0.046224646
242	0x3d045055	0.032303173
243	0xbe289039	-0.16461267
244	0xbd6f0418	-0.058353513
245	0x3db37881	0.08763219
246	0xbd9193e4	-0.07108286
247	0xbd50a663	-0.05093993
248	0xbdc3d71a	-0.09562512
249	0xbd5e600c	-0.054290816
250	0xbdbd05e6	-0.09229641
251	0xbcf6c00f	-0.030120878
252	0x3cc2640c	0.023729347
253	0x3c932d9f	0.01796609
254	0x3b9374cb	0.004500007
255	0x396e275e	0.00022712114

fc3.weight f4 [2, 256]
0	0xbe5bf4ed	-0.2148015
1	0xbe4d431b	-0.2004513
2	0x3f57ec46	0.843449
3	0xbbaaec2b	-0.0052161417
4	0xbe3968fa	-0.18106452
5	0xbc7ce595	-0.015435596
6	0xbe1b504b	-0.15167348
7	0x3eb955db	0.36198315
8	0x3d07b09c	0.033127412
9	0x3e7e19b9	0.248145
10	0xbda6a289	-0.0813647
11	0xbe11da73	-0.14243488
12	0x3e706fb3	0.2348011
13	0x3d432574	0.04764314
14	0xbe2d09b6	-0.16898236
15	0x3d01c354	0.03168042
16	0xbe844fdb	-0.25842175
17	0xbe785df3	-0.24254589
18	0xbf18bf82	-0.5966722
19	0x3eb102db	0.3457249
20	0xbe19b810	-0.1501162
21	0x3eba6078	0.36401725
22	0x3ea3f1db	0.3202046
23	0xbeb3598d	-0.3502926
24	0xbdabbaa7	-0.083852105
25	0xbd3be4e7	-0.045872595
26	0x3dfa2990	0.12214959
27	0xbd9b3a20	-0.07579446
28	0x3d9bd633	0.07609215
29	0x3dea23dc	0.11432621
30	0xbedc0d9c	-0.42979133
31	0x3e1b1691	0.15145327
32	0x3e832310	0.25612688
33	0xbdf32ef5	-0.11874191
34	0x3e6e8c8a	0.23295799
35	0xbeb138f7	-0.34613773
36	0xbd33f1a9	-0.043931637
37	0xbe34bc0a	-0.17649856
38	0xbe282dc0	-0.16423702
39	0x3d9487a7	0.07252436
40	0x3c7b08ee	0.015321953
41	0xbe584da4	-0.21123368
42	0x3d1f4f33	0.03889389
43	0x3e39c890	0.18142915
44	0x3e040337	0.12891851
45	0x3ecb9a5a	0.39766198
46	0xbc0b14ae	-0.008488817
47	0xbe55a888	-0.20865071
48	0x3de9bfe7	0.114135556
49	0x3cd4ca19	0.025975274
50	0xbe796f41	-0.24358846
51	0xbd395d7d	-0.045255173
52	0x3d8fbdc2	0.07018615
53	0xbcfcd925	-0.030865261
54	0xbdd50af2	-0.10402478
55	0x3e3919b8	0.18076217
56	0xbef7a2c1	-0.4836636
57	0x3e0860a4	0.13318115
58	0xbee3b706	-0.44475573
59	0x3e29b25b	0.16571943
60	0x3ba376dc	0.0049885344
61	0x3dfc54f7	0.12320893
62	0xbd3ded39	-0.04636881
63	0x3e12f07a	0.14349547
64	0x3ee13eb6	0.43993157
65	0xbd6dfe11	-0.058103625
66	0xbf56761d	-0.83773977
67	0x3ce7740d	0.02825358
68	0xbd2c1dcd	-0.042020608
69	0xbe1bfd4c	-0.15233344
70	0x3d3729cd	0.0447176
71	0x3e33cb2d	0.17557974
72	0x3c3b9d6e	0.011451108
73	0x3e12c841	0.14334203
74	0x3cc76685	0.024340877
75	0x3f0fae00	0.5612488
76	0x3b25fc28	0.0025327299
77	0xbcf808dc	-0.030277662
78	0xbf298277	-0.662147
79	0xbc1b8f5e	-0.009494631
80	0xbdfaf168	-0.12253076
81	0xbd903cbb	-0.070428334
82	0xbe2dc675	-0.16970237
83	0x3f09d283	0.5383684
84	0x3e588284	0.21143538
85	0x3cdbfd44	0.026854165
86	0x3d366820	0.044532895
87	0xbe60a0aa	-0.21936288
88	0xbe033325	-0.12812479
89	0xbd53fd97	-0.051755514
90	0xbe3956f9	-0.18099584
91	0x3dd159db	0.10222217
92	0xbdff443b	-0.12464186
93	0xbe247615	-0.1606067
94	0xbcf77176	-0.03020547
95	0xbd1d58c9	-0.03841475
96	0x3e572a09	0.21012129
97	0x3dcd0efa	0.10012622
98	0x3f4965ac	0.78670764
99	0x3df8985f	0.121384375
100	0xbe568ba9	-0.20951714
101	0xbd2c60be	-0.042084448
102	0xbe5bbb58	-0.21458185
103	0x3ec1c768	0.37847447
104	0x3c9e799c	0.019345097
105	0x3dbb0065	0.091309346
106	0x3c45926f	0.012058838
107	0xbd4eb596	-0.050466143
108	0x3e763b1a	0.24045983
109	0x3e8128a0	0.25226307
110	0x3c940e54	0.018073238
111	0xbea004ad	-0.31253567
112	0x3ed8d636	0.4235093
113	0xbedbcbd5	-0.4292895
114	0x3d3ac68c	0.045599505
115	0x3d394d5b	0.045239788
116	0x3cc5ed72	0.024161074
117	0xbd9a350b	-0.075296484
118	0x3f4fe15b	0.8120324
119	0xbde2291a	-0.11042996
120	0xbd04a984	-0.032388225
121	0x3d20a152	0.039216347
122	0x3df0c3d6	0.11756103
123	0xbebe23c6	-0.37136668
124	0x3ec2b24c	0.38026655
125	0x3e0c8507	0.13722621
126	0xbdd77167	-0.10519677
127	0xbcca4e84	-0.024695642
128	0xbd4735fa	-0.04863546
129	0xbcc268e4	-0.023731656
130	0x3c961466	0.018320274
131	0x3ed1ae32	0.40953213
132	0x3d93eb37	0.07222598
133	0x3eb1751f	0.3465967
134	0x3c43c2e5	0.011948322
135	0xbc240b40	-0.010012448
136	0x3ea17b1d	0.3153924
137	0xbcb85742	-0.022502545
138	0x3dd7405f	0.10510325
139	0x3e4d3b97	0.20042263
140	0x3c5a6fa0	0.013332278
141	0x3e844203	0.25831613
142	0x3d8ffa8a	0.070302084
143	0x3e0e5460	0.13899374
144	0x3ae0cf0a	0.0017151546
145	0x3db03986	0.08604722
146	0xbeafee2d	-0.343614
147	0xbe11b9e7	-0.14231072
148	0xbdbbf8c7	-0.0917831
149	0xbf01c660	-0.5069332
150	0xbd2f6ed4	-0.042830303
151	0x3ef8a2e1	0.48561767
152	0xbdfb6eeb	-0.12277015
153	0xbe61d343	-0.22053246
154	0x3e1eb021	0.15496875
155	0x3e0ef38d	0.13960095
156	0x3ecedf8a	0.40404922
157	0x3e1bab7c	0.15202135
158	0x3cf46d3a	0.02983724
159	0xbecddb4f	-0.40206382
160	0xbdfbbad8	-0.12291497
161	0xbf181b27	-0.5941643
162	0xbe1a19ec	-0.15048951
163	0xbd14f44b	-0.03636579
164	0xbe209e64	-0.15685421
165	0xbe438981	-0.19095422
166	0xbee8544d	-0.45376816
167	0x3dbcc0dd	0.09216473
168	0x3f1cba11	0.61221415
169	0xbd93d06f	-0.0721749
170	0x3e6f5981	0.23373987
171	0x3e0bf33d	0.13667007
172	0x3e8b550d	0.27213326
173	0x3e096d47	0.13420592
174	0xbe0d7719	-0.13814963
175	0xbb8da47f	-0.004322588
176	0xbd0f4d38	-0.03498575
177	0xbd83b488	-0.06430918
178	0x3e088bb0	0.13334537
179	0xbe73e535	-0.23817904
180	0x3d932dc9	0.07186467
181	0xbe71f0e9	-0.23627056
182	0x3e80683a	0.2507952
183	0x3d332ee2	0.043745883
184	0xbecbe668	-0.39824224
185	0xbd85c50b	-0.065317236
186	0x3dfba43e	0.12287186
187	0xbe9be5cc	-0.3044876
188	0x3e10c78d	0.14138623
189	0x3d2a1394	0.041522577
190	0x3cfa541d	0.030557686
191	0xbea25b23	-0.31710157
192	0x3eefb992	0.46821266
193	0x3e2b8931	0.16751553
194	0x3d8ed76b	0.069746815
195	0x3c999570	0.018748015
196	0x3cfa8588	0.03058125
197	0xbde0bfac	-0.109740585
198	0x3ea99258	0.33119464
199	0x3d243882	0.040092953
200	0xbb8aafe7	-0.004232395
201	0xbe8c33c0	-0.27383232
202	0xbed1d912	-0.40985924
203	0xbe11a260	-0.14222097
204	0xbeb1522b	-0.34633002
205	0xbd1eb20a	-0.03874401
206	0x3e602070	0.21887374
207	0xbe96410e	-0.29346508
208	0x3dd3c260	0.103398085
209	0x3cef6e30	0.029227346
210	0x3e097864	0.13424832
211	0x3db30869	0.087418385
212	0x3e433828	0.1906439
213	0x3e679350	0.22614789
214	0x3d8f0435	0.06983224
215	0xbc9b7854	-0.018978275
216	0x3eb9ef54	0.36315405
217	0x3e929459	0.28628805
218	0xbecab71a	-0.3959282
219	0x3f3fc68b	0.7491233
220	0x3e2386ff	0.15969466
221	0xbeac7618	-0.33683848
222	0x3e7415ad	0.23836394
223	0xbe8ba64b	-0.2727531
224	0xbd8e03a6	-0.0693429
225	0xbd759594	-0.059957102
226	0x3c66600f	0.014060988
227	0x3e85394c	0.26020277
228	0x3f2749a9	0.6534677
229	0x3d98f6d8	0.07468957
230	0x3dff91de	0.12478994
231	0xbdb5562d	-0.08854327
232	0xbea4922c	-0.3214277
233	0x3efedf0a	0.4977954
234	0x3eac705c	0.33679473
235	0x3e631e0b	0.22179429
236	0xbe2559c7	-0.16147529
237	0xbdeb1f1f	-0.11480545
238	0x3da643d7	0.08118408
239	0x3e52455e	0.20534274
240	0x3dbf566b	0.09342655
241	0xbd97b22a	-0.07407029
242	0x3e6b77da	0.22994938
243	0xbd798c6a	-0.060924925
244	0xbde7ddc0	-0.11321592
245	0x3e3fe03c	0.18737882
246	0x3ef23305	0.4730455
247	0xbca65dd2	-0.020308409
248	0xbc15e7db	-0.009149517
249	0xbe8211a2	-0.25404078
250	0x3cf2030c	0.029542468
251	0x3ed3bc1e	0.4135446
252	0xbd0387c5	-0.0321119
253	0xbd378eca	-0.04481391
254	0x3e038ab8	0.12845886
255	0x3d88b0a3	0.06674316

fc3.bias f4 [2]
0	0x3dda2d4e	0.106531724
1	0xbe583647	-0.21114455
