agent0_critic_net.pth (torch, 122719 bytes, 5 tensors)

fc1.weight f4 [256, 52]
0.054998167 0.013625348 -0.065212004 -0.007225182 0.059807315 0.008020858 -0.065212004 -0.007225182
0.057906546 0.015621128 -0.022045199 0.020457773 0.053852852 -0.012724023 -0.022045199 0.020457773
0.05553127 0.027346916 0.0050773453 0.065693125 0.042353097 -0.03295159 0.0050773453 0.065693125
0.14777239 -0.0003271539 -0.012459783 0.0642843 -0.059807315 0.008020858 -0.012459783 0.0642843
0.11126154 0.010642396 0.00048956793 0.0683886 -0.053852852 -0.012724023 0.00048956793 0.0683886
0.106250204 0.022727663 -0.005909674 0.089536585 -0.042353097 -0.03295159 -0.005909674 0.089536585
0.1426346 0.11804371 0.09678992 -0.018926956 0.04115116 0.021342793 -0.0022933513 0.013855324
-0.043403145 0.107175134 -0.0022933513 0.013855324 0.020975301 0.00846077 -0.0057948707 -0.008819937
-0.0072357967 -0.0058533507 -0.0057948707 -0.008819937 0.018502986 -0.016756829 -0.011454762 -0.04102305
0.09912498 -0.38122112 -0.011454762 -0.04102305 0.037259206 0.24570619 -0.0062769563 0.030767504
0.043403145 0.107175134 -0.0062769563 0.030767504 0.030272529 0.22517453 -0.0022753614 -0.08495365
0.0072357967 -0.0058533507 -0.0022753614 -0.08495365 -0.00018008488 0.20855044 0.03792922 -0.07667987
-0.09912498 -0.38122112 0.03792922 -0.07667987 -0.13365385 0.04219429 0.42495406 -0.12765017
0.03442001 0.002055865 -0.007926473 -0.010065431 0.00954571 -0.0065762126 -0.007926473 -0.010065431
0.04154708 0.0015151467 -0.002343348 -0.021852374 0.011270186 -0.009762136 -0.002343348 -0.021852374
0.046166435 0.0012992498 -0.0012852005 -0.024604548 0.014707818 -0.009989549 -0.0012852005 -0.024604548
0.036192585 0.0029122597 -0.0077240574 0.001033757 -0.00954571 -0.0065762126 -0.0077240574 0.001033757
0.037652723 0.003015393 -0.004620496 0.0017148915 -0.011270186 -0.009762136 -0.004620496 0.0017148915
0.043471277 0.0028437166 -0.00421975 -0.009358289 -0.014707818 -0.009989549 -0.00421975 -0.009358289
0.0015309695 0.0010385647 0.0020607328 -0.0011854189 0.119730644 -0.12398424 -0.003066126 -0.004480518
0.01806946 0.08295857 -0.003066126 -0.004480518 0.13913408 -0.09412274 -0.02291871 -0.0021847028
-0.09817925 0.11237552 -0.02291871 -0.0021847028 0.19375224 0.002880832 -0.008247758 -0.030670915
-0.1205898 0.019478057 -0.008247758 -0.030670915 -0.022003131 0.07959109 0.00088591536 -0.071067244
-0.01806946 0.08295857 0.00088591536 -0.071067244 -0.022134215 0.082221135 -0.00180525 -0.054620102
0.09817925 0.11237552 -0.00180525 -0.054620102 0.057100046 0.23725294 -0.0026294026 0.003914391
0.1205898 0.019478057 -0.0026294026 0.003914391 -0.47826627 0.14072712 -0.04825504 -0.056232765
0.02292035 0.0004979852 -0.0053491555 -0.0025466946 0.0025129174 -0.0014770279 -0.0053491555 -0.0025466946
0.030458907 0.0003746339 -0.0034022168 0.0016446646 0.0034874694 -0.0036047113 -0.0034022168 0.0016446646
0.034713205 0.00019632152 0.00040017444 -0.00033295926 0.0021795074 -0.004605433 0.00040017444 -0.00033295926
0.014327801 3.6219557e-05 -0.003434705 -0.0019505966 -0.0025129174 -0.0014770279 -0.003434705 -0.0019505966
0.022397142 0.00013427416 -0.001621794 0.0001679026 -0.0034874694 -0.0036047113 -0.001621794 0.0001679026
0.023668224 0.00011756576 0.0021174604 0.00026999172 -0.0021795074 -0.004605433 0.0021174604 0.00026999172
00000000: c245 613d da3c 5f3c df8d 85bd 38c1 ecbb
00000010: 84f8 743d eb69 033c df8d 85bd 38c1 ecbb
00000020: 6a2f 6d3d c2ef 7f3c 2298 b4bc 0f97 a73c
00000030: cf94 5c3d 6c78 50bc 2298 b4bc 0f97 a73c
00000040: c274 633d a406 e03c dc5f a63b 1e8a 863d
00000050: 717a 2d3d 3ff8 06bd dc5f a63b 1e8a 863d
00000060: a551 173e da85 abb9 1e24 4cbc 7da7 833d
00000070: 84f8 74bd eb69 033c 1e24 4cbc 7da7 833d
00000080: 17dd e33d 725d 2e3c 5956 003a 530f 8c3d
00000090: cf94 5cbd 6c78 50bc 5956 003a 530f 8c3d
000000a0: b599 d93d 5d2f ba3c f0a5 c1bb f55e b73d
000000b0: 717a 2dbd 3ff8 06bd f0a5 c1bb f55e b73d
000000c0: ce0e 123e e7c0 f13d cb39 c63d b40c 9bbc
000000d0: 1e8e 283d 15d7 ae3c 0d4c 16bb 7101 633c
000000e0: 7fc7 31bd a37e db3d 0d4c 16bb 7101 633c
000000f0: 65d4 ab3c 0b9f 0a3c e6e2 bdbb 7f81 10bc
00000100: 431a edbb 77cd bfbb e6e2 bdbb 7f81 10bc
00000110: 9393 973c 9e45 89bc c1ac 3bbc c907 28bd
00000120: 0a02 cb3d 6a2f c3be c1ac 3bbc c907 28bd
00000130: 1c9d 183d 679a 7b3e edae cdbb 220c fc3c
00000140: 7fc7 313d a37e db3d edae cdbb 220c fc3c
00000150: 18fe f73c 2794 663e 3b1e 15bb 2efc adbd
00000160: 431a ed3b 77cd bfbb 3b1e 15bb 2efc adbd
00000170: 2bd5 3cb9 3f8e 553e ab5b 1b3d 560a 9dbd
00000180: 0a02 cbbd 6a2f c3be ab5b 1b3d 560a 9dbd
00000190: 8edc 08be ebd3 2c3d 9493 d93e bab6 02be
000001a0: fffb 0c3d b1bb 063b 0ade 01bc 7ae9 24bc
000001b0: 9c65 1c3c 457d d7bb 0ade 01bc 7ae9 24bc
000001c0: 452d 2a3d e397 c63a db92 19bb c003 b3bc
000001d0: 96a6 383c 5ef1 1fbc db92 19bb c003 b3bc
000001e0: 0419 3d3d 974b aa3a 2c74 a8ba 7a8f c9bc
000001f0: 0ff9 703c 35ab 23bc 2c74 a8ba 7a8f c9bc
00000200: ad3e 143d 9cdb 3e3b 171a fdbb 217f 873a
00000210: 9c65 1cbc 457d d7bb 171a fdbb 217f 873a
00000220: be39 1a3d e69d 453b 8867 97bb 36c6 e03a
00000230: 96a6 38bc 5ef1 1fbc 8867 97bb 36c6 e03a
00000240: f00e 323d a65d 3a3b d445 8abb 8253 19bc
00000250: 0ff9 70bc 35ab 23bc d445 8abb 8253 19bc
00000260: d0aa c83a 7320 883a 5c0d 073b 0f60 9bba
00000270: 5735 f53d 73eb fdbd 0ff1 48bb 4fd1 92bb
00000280: 6706 943c 2fe6 a93d 0ff1 48bb 4fd1 92bb
00000290: 2a79 0e3e 6cc3 c0bd 05c0 bbbc 3b2d 0fbb
000002a0: 3412 c9bd 2325 e63d 05c0 bbbc 3b2d 0fbb
000002b0: fd66 463e 57cc 3c3b 9b21 07bc 9241 fbbc
000002c0: c9f7 f6bd 7290 9f3c 9b21 07bc 9241 fbbc
000002d0: e93f b4bc a700 a33d c63c 683a b48b 91bd
000002e0: 6706 94bc 2fe6 a93d c63c 683a b48b 91bd
000002f0: d052 b5bc 8e63 a83d 239e ecba 54b9 5fbd
00000300: 3412 c93d 2325 e63d 239e ecba 54b9 5fbd
00000310: bde1 693d 6ff2 723e 0e52 2cbb 4b44 803b
00000320: c9f7 f63d 7290 9f3c 0e52 2cbb 4b44 803b
00000330: 51df f4be c51a 103e 14a7 45bd 5454 66bd
00000340: 75c3 bb3c 398b 023a f847 afbb 72e6 26bb
00000350: c2af 243b d598 c1ba f847 afbb 72e6 26bb
00000360: f584 f93c 836a c439 baf7 5ebb c991 d73a
00000370: 078e 643b 053d 6cbb baf7 5ebb c991 d73a
00000380: 6f2f 0e3d a8db 4d39 81ce d139 0991 aeb9
00000390: 11d6 0e3b 2ce9 96bb 81ce d139 0991 aeb9
000003a0: 27bf 6a3c 74ea 1738 ca18 61bb 29ab ffba
000003b0: c2af 24bb d598 c1ba ca18 61bb 29ab ffba
000003c0: 367a b73c f2cb 0c39 6092 d4ba 030f 3039
000003d0: 078e 64bb 053d 6cbb 6092 d4ba 030f 3039
000003e0: dde3 c13c a38d f638 17c5 0a3b ad8d 8d39
000003f0: 11d6 0ebb 2ce9 96bb 17c5 0a3b ad8d 8d39

fc1.bias f4 [256]
-0.019763736 0.0007096419 -0.0039294255 -0.16547808 -0.0004951517 -0.009640814 0.029819112 -0.06453277
-0.014254728 0.016495937 0.07097879 -0.008163226 -0.017614907 0.021947859 -0.006654367 -0.030013468
-0.016233336 -0.11963625 -0.005907474 -0.019915309 -0.0040747905 -0.034914732 -0.013913698 -0.043764327
-0.0160964 -0.003946327 -0.034795437 -0.052020606 -0.036568817 -0.012444206 -0.005018729 0.0050414004
-0.07076892 -0.0029261517 -0.0074730865 -0.09652859 -0.010122984 -0.07926919 -0.029694218 0.038385548
-0.011680299 -0.028127037 -0.03503061 -0.04415555 0.009808787 -0.05547682 0.0063474965 -0.043868512
-0.03787086 -0.06554038 -0.06541561 -0.032657463 -0.002924807 -0.17475669 0.021128366 -0.003567566
-0.047633965 -0.009921006 -0.008699465 0.004175883 -0.017680109 -0.09953734 -0.009664166 -0.027812662
0.0031536752 -0.02502773 -0.040762316 -0.012815054 -0.00013750159 -0.052015655 -0.015241468 -0.020300189
-0.031082587 -0.1217313 -0.028889103 -0.0009162507 0.023791768 -0.0017266121 -0.059085056 -0.016897483
-0.020013561 0.12350976 -0.031765744 -0.044619296 0.035585172 -0.15697889 -0.0108941905 -0.03902537
0.040415622 -0.012322255 -0.17949039 0.007088952 0.051065356 -0.0066949874 -0.019635195 0.030000363
-0.008614226 -0.0027658525 -0.03814704 -0.069504775 -0.020233832 -0.012202826 0.04150953 -0.011349086
0.0048291855 -0.045330193 0.013478319 -0.08194822 -0.01782837 -0.03275887 -0.22047321 -0.05324234
0.0054645557 0.021343842 -0.035819866 -5.6796165e-05 0.09995696 -0.017279224 -0.018841505 -0.011592371
-0.052015994 -0.12797688 -0.02215074 -0.029680531 -0.045897044 -0.038306557 -0.16797969 -0.0016486164
-0.0015796607 -0.0006441446 -0.040715232 -0.002973413 0.03146812 -0.035029322 -0.028910272 -0.04728835
-0.034253318 0.031770702 -0.019745296 -0.011491153 -0.055610597 -0.028898817 -0.0062054438 -0.029295001
-0.028058723 -0.020466294 -0.029485695 0.05637911 -0.015349489 -0.00028585194 -0.05409076 -0.027437875
-0.14903548 -0.07012441 -0.017959282 -0.07926039 -0.104588464 0.06915263 -0.029704828 -0.03684118
-0.015221127 0.048272923 -0.036746163 -0.00069808593 -0.025290383 -0.009438814 -0.12562785 -0.01044825
-0.0024303184 -0.04541113 -0.005245043 -0.015338093 -0.1170511 -0.0009498813 -0.023195878 0.15317072
-0.015296311 -0.0003669261 -0.022311796 0.010517009 -0.04990052 -0.019948332 -0.1531183 -0.0430021
-0.029472271 -0.024162484 -0.032954257 -0.02878986 -0.015269064 -0.045598228 -0.026567293 -0.014400249
-0.01355443 -0.004952073 -0.024864051 -0.002798874 -0.019635199 -0.027581226 -0.19852793 -0.04935191
-0.00056204566 0.047647107 -0.0010419375 -0.05354698 -0.06551874 -0.017017879 -0.091523625 0.018825533
-0.024377871 -0.026103126 -0.005339673 -0.018297184 -0.030051712 0.07946352 -0.030610437 0.020242022
0.030123549 -0.020484243 -0.012188098 -0.05570563 -0.014591022 -0.06720618 -0.00019406217 -0.021788457
-0.059767626 0.08261237 -0.04101651 -0.006275584 -0.060134485 -0.032023884 -0.03848456 -0.010619895
-0.085920714 -0.09265901 0.031166047 -0.036337845 -0.025401702 0.032862272 -0.059823394 -0.042095292
-0.0127650965 -0.018207999 -0.004022946 -0.043771002 -0.0054646437 -0.0127778305 -0.016092189 -0.032232877
-0.02299344 0.025485897 -0.003997853 0.009240663 -0.063715875 0.020816999 -0.036546603 0.007687583
00000000: 8fe7 a1bc 4307 3a3a 69c2 80bb 1673 29be
00000010: 11cd 01ba 81f4 1dbc 3647 f43c c229 84bd
00000020: aa8c 69bc 7d22 873c 545d 913d 0dbf 05bc
00000030: 234d 90bc ffcb b33c e00c dabb cede f5bc
00000040: c6fb 84bc da03 f5bd 7c93 c1bb 6e25 a3bc
00000050: d285 85bb c002 0fbd 47f6 63bc 3942 33bd
00000060: 99dc 83bc 3150 81bb a985 0ebd 8f13 55bd
00000070: 2fc9 15bd c8e2 4bbc 2674 a4bb 5532 a53b
00000080: 4cef 90bd aec4 3fbb cbe0 f4bb c8b0 c5bd
00000090: dfda 25bc e357 a2bd 4a41 f3bc 2a3a 1d3d
000000a0: ba5e 3fbc ac6a e6bc 427c 0fbd 73dc 34bd
000000b0: 09b5 203c a93b 63bd a9fe cf3b 78af 33bd
000000c0: 7a1e 1bbd 093a 86bd 9ff8 85bd d5c3 05bd
000000d0: 1eae 3fbb 6bf3 32be 6515 ad3c d3cd 69bb
000000e0: d51b 43bd b78b 22bc 3388 0ebc d8d5 883b
000000f0: e0d5 90bc 3cda cbbd 7356 1ebc 61d7 e3bc
00000100: e4ad 4e3b f406 cdbc 63f6 26bd 3bf6 51bc
00000110: 4d2e 10b9 5e0e 55bd 5ab7 79bc 954c a6bc
00000120: e9a0 febc 434e f9bd d7a8 ecbc 8b30 70ba
00000130: f4e6 c23c 7d4f e2ba 2c03 72bd 976c 8abc
00000140: 7bf3 a3bc aff2 fc3d cc1c 02bd b9c2 36bd
00000150: c2c1 113d 13bf 20be 8c7d 32bc 11d9 1fbd
00000160: da8a 253d 49e3 49bc 54cc 37be 714a e83b
00000170: e829 513d a061 dbbb fdd9 a0bc 52c3 f53c
00000180: af22 0dbc 4e43 35bb 1240 1cbd 8558 8ebd
00000190: 6cc1 a5bc 5dee 47bc e605 2a3d 84f1 39bc
000001a0: 253e 9e3b 27ac 39bd 2bd4 5c3c 78d4 a7bd
000001b0: cd0c 92bc 2a2e 06bd bbc3 61be a414 5abd
000001c0: 0410 b33b 48d9 ae3c dab7 12bd 6b38 6eb8
000001d0: 3cb6 cc3d 298d 8dbc 8059 9abc eeed 3dbc
000001e0: b90e 55bd 5f0c 03be 7875 b5bc 9624 f3bc
000001f0: 8afe 3bbd 56e7 1cbd de02 2cbe 6316 d8ba
00000200: 9e0c cfba d0db 28ba 04c5 26bd 98dd 42bb
00000210: b7e4 003d e87a 0fbd 3cd5 ecbc 6eb1 41bd
00000220: 354d 0cbd ff21 023d e3c0 a1bc 6445 3cbc
00000230: f0c7 63bd 36bd ecbc 0957 cbbb 12fc efbc
00000240: 68db e5bc eea8 a7bc fc8b f1bc c8ed 663d
00000250: 6c7c 7bbc 66de 95b9 468e 5dbd 65c5 e0bc
00000260: c29c 18be 639d 8fbd 581f 93bc 4553 a2bd
00000270: 7a32 d6bd e59f 8d3d 8a57 f3bc c7e6 16bd
00000280: 0962 79bc d4b9 453d 2583 16bd c1ff 36ba
00000290: c72d cfbc 41a5 1abc 96a4 00be 232f 2bbc
000002a0: fa45 1fbb 0501 3abd 9cde abbb a04c 7bbc
000002b0: 7db8 efbd 7401 79ba 4805 bebc c9d8 1c3e
000002c0: 619d 7abc fd5f c0b9 3ac7 b6bc 884f 2c3c
000002d0: 7d64 4cbd af6a a3bc 0bcb 1cbe f822 30bd
000002e0: d56f f1bc 67f0 c5bc 0bfb 06bd b6d8 ebbc
000002f0: 192b 7abc 35c5 3abd a7a3 d9bc 06ef 6bbc
00000300: 6613 5ebc 0045 a2bb b2af cbbc 506d 37bb
00000310: ffd9 a0bc 06f2 e1bc e84a 4bbe 3a25 4abd
00000320: 3f56 13ba 9d29 433d 9f91 88ba 1454 5bbd
00000330: b02e 86bd 1469 8bbc bd70 bbbd 0138 9a3c
00000340: 1ab4 c7bc 39d6 d5bc 6cf8 aebb fae3 95bc
00000350: 022f f6bc c5bd a23d bdc2 fabc 99d2 a53c
00000360: a9c5 f63c 92ce a7bc 97b0 47bc 962b 64bd
00000370: 2f0f 6fbc 65a3 89bd 2b7d 4bb9 b57d b2bc
00000380: e6ce 74bd ad30 a93d ee00 28bd 6aa3 cdbb
00000390: 944f 76bd 7a2b 03bd fca1 1dbd 11ff 2dbc
000003a0: 33f7 afbd 02c4 bdbd f04f ff3c fed6 14bd
000003b0: 3b17 d0bc 979a 063d 6009 75bd 1d6c 2cbd
000003c0: b224 51bc f128 95bc ebd2 83bb 3949 33bd
000003d0: c110 b3bb 1b5a 51bc c4d3 83bc 9f06 04bd
000003e0: bd5c bcbc cdc7 d03c 6c00 83bb 2666 173c
000003f0: 787d 82bd 6988 aa3c e4b1 15bd 1fe8 fb3b

fc2.weight f4 [64, 256]
-0.0003827965 -0.018633569 -0.00013640226 -0.118339844 -0.0012481406 -0.001740618 -0.095292985 -0.04393802
0.012788245 0.037071843 -0.06295664 0.032237947 -0.037822835 0.015693482 0.0006218714 0.01651118
-0.04831945 -0.10290517 0.00015682368 0.05509656 0.05932084 -0.006635046 -0.012952729 0.010943649
0.0017305376 0.0025013913 0.01044332 -0.02555931 0.13487418 0.018821673 -0.05803113 0.07578907
-0.025634106 -0.0011793448 -0.05170423 0.058125302 -0.009928744 -0.053753413 0.09552807 -0.028889503
-0.005553943 0.029361919 0.056676198 -0.26090282 -0.01121679 -0.0129609695 0.017765103 -0.04100695
-0.019215388 0.02187898 0.10014006 -0.038435787 -0.0005899415 0.0014671475 0.10828263 -0.014886864
0.015329387 0.0010141699 0.0072860583 0.02861635 0.082496576 -0.17405787 -0.05930898 0.04546551
-0.15748261 0.05958027 0.0048529785 -0.06031961 -0.047812816 0.115415454 -0.022730308 -0.008720426
0.06511447 0.010296279 -4.2871303e-05 0.056983545 -0.21389341 -0.0011597512 0.022361217 -0.016944934
0.012691452 -0.010001829 0.010375253 0.04410959 -0.05987242 -0.07511915 -0.15004699 -0.00053623924
-0.016873598 -0.10024541 -0.040879324 0.06288382 0.0054382146 0.00068239763 -0.019055763 0.05841419
-0.048265114 -0.016858008 -0.09988562 0.01072219 0.008923033 0.049683742 0.043143563 0.021645764
-0.12531585 0.016731916 -0.038371272 -0.0699221 0.029771792 0.049431957 -0.06832794 -0.011152909
0.029133344 -0.025842352 0.064873055 -0.00018661084 -0.014235486 -0.017105632 0.051591072 0.0004328444
-0.018054852 0.00874727 0.092608556 -0.011905635 0.019102752 -0.09072558 0.064205445 -0.097625494
-0.005045743 0.00031178634 -0.049488787 0.00071040913 -0.05495342 -0.048005316 0.008324549 -0.03197094
-0.064465016 -0.06609565 0.016884804 0.007935445 -0.0011890499 -0.007465184 0.00025982334 -0.07451307
-0.015098232 -0.014651529 -0.042268172 -0.003820603 0.0034171536 -0.00014549933 -0.06073863 0.058017652
0.061941892 0.08194669 0.07258815 -0.15194671 0.08003965 -0.0039492617 -0.039567035 -0.08495654
-0.037971206 0.011089725 -0.049290992 0.0023687265 -0.057644773 -0.033618283 0.03727178 -0.015785033
-0.0012086437 -0.02382494 -0.0037116176 -0.006922121 0.13880533 -5.9293976e-05 0.06430378 -0.008499855
0.015597401 -0.00014972601 -0.014190145 0.014530989 0.051631868 -0.008524266 0.022029305 -0.016493725
0.0037715964 0.0074285925 -0.007117095 -0.0033920456 -0.011935091 -0.043275766 -0.011854397 -0.040909115
-0.011637787 -0.04564922 -0.0128652565 0.009923076 0.00649966 0.03861161 0.19242872 -0.09853451
-0.0005078194 -0.04192923 0.00020399434 -0.07195239 -0.0142125655 0.020954914 -0.03631786 0.018144112
-0.033141118 -0.060559243 0.036526043 0.07789108 0.006463152 -0.0382443 0.01275178 0.0314186
0.025650127 -0.02749093 -0.0044665677 -0.05541534 -0.0004059467 0.038082298 0.0014588699 0.014994849
-0.0034659202 -0.16932942 -0.010412937 -0.0054987282 0.031480238 -0.0031751262 0.022383874 0.011679152
0.092617735 0.0987595 -0.17305623 -0.09706201 0.0043818564 -0.037247438 -0.031074438 -0.003918677
-0.010959128 -0.017880205 0.00048743398 -0.028660046 -0.050259456 -0.0012985325 -0.004954977 -0.009606944
-0.01720912 0.019839682 -0.007387782 -0.06385532 0.015552676 -0.011883599 -0.047539875 0.039409343
00000000: 14b2 c8b9 6da5 98bc 3407 0fb9 295c f2bd
00000010: a698 a3ba 7325 e4ba f828 c3bd 5af8 33bd
00000020: ca85 513c a5d8 173d 69ef 80bd f00b 043d
00000030: 1eec 1abd 9e8f 803c 1505 233a 7442 873c
00000040: 9eea 45bd f2bf d2bd 0971 2439 eeac 613d
00000050: 69fa 723d cd6a d9bb af37 54bc fe4c 333c
00000060: 35d3 e23a 62ee 233b 751a 2b3c c261 d1bc
00000070: 751c 0a3e e92f 9a3c 0db2 6dbd 4d37 9b3d
00000080: 9efe d1bc 3f94 9aba d1c7 53bd cc14 6e3d
00000090: 2cac 22bc 8a2c 5cbd 39a4 c33d aea9 ecbc
000000a0: dafd b5bb 6888 f03c 4d25 683d 0e95 85be
000000b0: a1c6 37bc 3f5a 54bc 1f88 913c e7f6 27bd
000000c0: 9769 9dbc 8c3b b33c 3b16 cd3d d86e 1dbd
000000d0: 4ea6 1aba 4d4d c03a 49c3 dd3d 09e8 73bc
000000e0: 1c28 7b3c e5ed 843a e3bf ee3b d66c ea3c
000000f0: f7f3 a83d 3a3c 32be f9ed 72bd 0b3a 3a3d
00000100: 1f43 21be 710a 743d bc05 9f3b b211 77bd
00000110: 5fd7 43bd f05e ec3d e934 babc 1ee0 0ebc
00000120: bc5a 853d b9b1 283c b6d0 33b8 9467 693d
00000130: e006 5bbe cb02 98ba df2e b73c 1ad0 8abc
00000140: cfef 4f3c b6de 23bc f7fc 293c 42ac 343d
00000150: c83c 75bd 12d8 99bd eba5 19be 6892 0cba
00000160: 803a 8abc 774d cdbd 1471 27bd 3bc9 803d
00000170: 0d33 b23b eee2 323a d51a 9cbc b843 6f3d
00000180: a4b1 45bd ce19 8abc d590 ccbd 20ac 2f3c
00000190: ea31 123c 2e81 4b3d 4eb7 303d 7552 b13c
000001a0: cc52 00be 5f11 893c 322b 1dbd 5133 8fbd
000001b0: f9e3 f33c 2a79 4a3d 85ef 8bbd b1ba 36bc
000001c0: 0da9 ee3c 57b3 d3bc 2adc 843d f7ac 43b9
000001d0: f53b 69bc 1c21 8cbc 2951 533d 64ef e239
000001e0: c5e7 93bc b650 0f3c 8ea9 bd3d da0f 43bc
000001f0: 607d 9c3c 55ce b9bd 257e 833d e0ef c7bd
00000200: c356 a5bb 4177 a339 c1b4 4abd c03a 3a3a
00000210: d616 61bd 39a1 44bd b063 083c f6f3 02bd
00000220: 3c06 84bd 285d 87bd 0052 8a3c ab03 023c
00000230: e5d9 9bba 819e f4bb e638 8839 4f9a 98bd
00000240: 935e 77bc f70c 70bc 6421 2dbd 1563 7abb
00000250: 53f2 5f3b 2e91 18b9 12c9 78bd eba3 6d3d
00000260: c8b6 7d3d abd3 a73d 19a9 943d eb97 1bbe
00000270: d4eb a33d cf68 81bb 0b11 22bd b2fd adbd
00000280: b287 1bbd aeb1 353c 5ae5 49bd a33c 1b3b
00000290: ed1c 6cbd 53b3 09bd 4baa 183d 9d4f 81bc
000002a0: 5a6b 9eba 852c c3bc 9c3e 73bb f6d2 e2bb
000002b0: fc22 0e3e 6cb2 78b8 b3b1 833d fa42 0bbc
000002c0: 3e8c 7f3c c5ff 1cb9 c87d 68bc 6313 6e3c
000002d0: f07b 533d 5da9 0bbc cd76 b43c d91d 87bc
000002e0: e32c 773b 8d6b f33b 8536 e9bb 154d 5ebb
000002f0: 668b 43bc ee41 31bd f238 42bc 5190 27bd
00000300: 6bac 3ebc adfa 3abd ccc8 52bc 6694 223c
00000310: 1afb d43b 3527 1e3d 090c 453e 76cc c9bd
00000320: 2f1f 05ba fcbd 2bbd 50e7 5539 c65b 93bd
00000330: d2db 68bc a4a9 ab3c 09c2 14bd f6a2 943c
00000340: fbbe 07bd f80c 78bd 559c 153d 5c85 9f3d
00000350: d9c8 d33b 0ea6 1cbd d8ec 503c cab0 003d
00000360: 3720 d23c a934 e1bc 495c 92bb 32fb 62bd
00000370: 3ed5 d4b9 2ffc 1b3d 8d37 bf3a f5ac 753c
00000380: 7e24 63bb b164 2dbe 069b 2abc ad2e b4bb
00000390: 6cf1 003d c715 50bb 635e b73c ea59 3f3c
000003a0: 5eae bd3d 6c42 ca3d a735 31be 72c8 c6bd
000003b0: ad95 8f3b c590 18bd d28f febc 3f68 80bb
000003c0: ea8d 33bc 8279 92bc 488e ff39 79c8 eabc
000003d0: dcdc 4dbd 8533 aaba 5c5d a2bb 7266 1dbc
000003e0: 24fa 8cbc d486 a23c 3515 f2bb 94c6 82bd
000003f0: a7d0 7e3c 6db3 42bc 2cb9 42bd b16b 213d

fc2.bias f4 [64]
-0.043237384 0.0030755636 -6.42816e-40 -0.017569717 0.0421982 0.03413915 -7.3095214e-34 -0.012616491
0.025671782 -6.7627756e-16 -0.0343231 -2.2458944e-05 0.23032293 -1.9323616e-10 -0.012840748 0.13830644
-0.08140189 -0.031076964 0.12788719 -4.1278733e-07 0.05326353 0.02863887 -1.9105335e-05 -9.0577714e-07
-1.0061989e-09 0.017556746 0.055450253 -0.0024574525 0.0009950307 -4.952559e-14 0.019134084 0.08953958
0.17020923 -0.013689619 -1.70245e-40 0.045572303 -0.0053131864 -7.740178e-23 0.22173011 -0.0042066346
-0.014194464 -2.1935598e-21 0.23247902 0.0011807994 -0.07681811 0.0015314741 0.031485975 0.06365858
0.024254631 -2.6122775e-08 -0.0053162915 -0.0074686906 -0.00752416 -0.015181086 0.08851126 -1.2796595e-08
-0.09755401 -0.14324643 0.25871125 0.01192017 -5.532411e-09 0.07043029 -5.0483072e-06 0.24577734
00000000: af19 31bd 658f 493b e9ff 0680 5eee 8fbc
00000010: 05d8 2c3d 7ed5 0b3d 88e6 7288 66b5 4ebc
00000020: a14d d23c 7aec 42a6 6196 0cbd 3766 bcb7
00000030: c6d9 6b3e 2577 54af 0062 52bc 34a0 0d3e
00000040: 09b6 a6bd 1e95 febc dcf4 023e 0f9d ddb4
00000050: dc2a 5a3d 109c ea3c 6544 a0b7 8824 73b5
00000060: 7a4a 8ab0 2ad3 8f3c ce1f 633d 360d 21bb
00000070: b16b 823a 1e0b 5fa9 15bf 9c3c 8760 b73d
00000080: 544b 2e3e 6c4a 60bc 93da 0180 06aa 3a3d
00000090: 3d1a aebb 6225 bb9a 380d 633e cfd7 89bb
000000a0: e68f 68bc 9ebd 259d fb0e 6e3e 0ec5 9a3a
000000b0: d052 9dbd bebb c83a 70f7 003d 6e5f 823d
000000c0: a6b1 c63c 9764 e0b2 4934 aebb ebbb f4bb
000000d0: 3b8d f6bb 17ba 78bc 6445 b53d 05d8 5bb2
000000e0: 66ca c7bd 31af 12be cd75 843e d14c 433c
000000f0: 9a17 beb1 c23d 903d a164 a9b6 0ead 7b3e

fc3.weight f4 [1, 64]
-0.20489135 -0.3362561 -0.001304812 -0.09892624 0.91235054 -0.2661152 0.00010518148 -0.0005753464
0.39919156 -0.00045814898 -0.22558899 -0.0065523065 0.98041534 -0.0023549318 0.3461016 0.7867672
-0.27976838 -0.43582284 0.5669418 5.5409375e-05 1.2056822 0.2264617 -3.1417792e-05 -0.00393409
-0.0015786652 0.24289048 0.6359096 0.0022992794 0.0143127125 -0.00019895396 0.3325473 0.60611886
0.7094396 6.0305803e-05 0.00016091061 -0.761753 -0.004067544 -0.0035999282 0.4738144 -0.0018832124
0.0022325239 0.008190801 0.37121704 0.008236943 -1.7399846 0.09991031 0.50677806 1.1967399
-0.48994726 0.003501028 -0.0038107384 -0.0027425599 0.002741163 0.16207649 0.11808656 0.0026052585
-0.37291646 -0.827633 0.5104441 0.26794046 0.005900586 0.4978853 0.0005703056 0.8219285
00000000: 0acf 51be c229 acbe 3a06 abba d799 cabd
00000010: ce8f 693f 4040 88be e194 dc38 d8d2 16ba
00000020: d662 cc3e b733 f0b9 cd00 67be bbb4 d6bb
00000030: 80fc 7a3f 3355 1abb 3b34 b13e 9369 493f
00000040: cd3d 8fbe 2c24 dfbe 1923 113f 5d67 6838
00000050: cb53 9a3f 93e5 673e 99c6 03b8 8ae9 80bb
00000060: 37eb ceba 48b8 783e f9ca 223f 82af 163b
00000070: de7f 6a3c 4c9e 50b9 a443 aa3e 9b2a 1b3f
00000080: d59d 353f ddf0 7c38 1dba 2839 3f02 43bf
00000090: 0849 85bb c6ec 6bbb cd97 f23e 1fd6 f6ba
000000a0: 894f 123b b632 063c 2910 be3e 3ef4 063c
000000b0: d1b7 debf c79d cc3d 35bc 013f c62e 993f
000000c0: 5eda fabe 8171 653b 95bd 79bb 85bc 33bb
000000d0: 15a5 333b 61f7 253e 5ed7 f13d fcbc 2a3b
000000e0: e8ee bebe c2df 53bf 77ac 023f 7e2f 893e
000000f0: b459 c13b d2ea fe3e 9080 153a e869 523f
