agent0_critic_net.pth (torch, 374111 bytes, 5 tensors)

fc1.weight f4 [512, 52]
00000000: 09d5 a93c 471d 6ab9 cc0e 47ba 264a 90ba
00000010: c356 de3a 3a4b acbb cc0e 47ba 264a 90ba
00000020: dead b53c 5db9 07ba ee6e 06bb 4ed8 b9ba
00000030: 227b 1e3b ce62 b1bb ee6e 06bb 4ed8 b9ba
00000040: 063e c33c b3fe 2fba bd09 05bb f79c 87ba
00000050: 1cea 0d3b 54e3 babb bd09 05bb f79c 87ba
00000060: 4861 2b3c 6823 d6b9 278f b0bb 060c 6e3b
00000070: c356 deba 3a4b acbb 278f b0bb 060c 6e3b
00000080: 00f4 4c3c b809 b139 03ea 9cbb 51ed 993b
00000090: 227b 1ebb ce62 b1bb 03ea 9cbb 51ed 993b
000000a0: 3a33 843c 4902 933a 4244 30ba a25d 523b
000000b0: 1cea 0dbb 54e3 babb 4244 30ba a25d 523b
000000c0: ce58 393a 903a 2536 8ec9 073b 0f9e 103b
000000d0: 3153 6c3d 12ac 5fba 8167 8dbb 58de 85b7
000000e0: 0562 1f3c f8d6 62bd 8167 8dbb 58de 85b7
000000f0: 40a8 633d e6fc 1e3b dcc9 89bc f835 983c
00000100: 3bd5 a03b 5c7a 2abd dcc9 89bc f835 983c
00000110: 25aa 733d 6de9 b53b 6afb 3cbb 9f40 8d3c
00000120: d3cc ae3b 5002 02bd 6afb 3cbb 9f40 8d3c
00000130: 9fd0 623d ecbe d43c a4c8 17bc 3735 9bbc
00000140: 0562 1fbc f8d6 62bd a4c8 17bc 3735 9bbc
00000150: 4842 513d 3b0d aa3c 37c8 10bc d4e7 7ebc
00000160: 3bd5 a0bb 5c7a 2abd 37c8 10bc d4e7 7ebc
00000170: 6796 563d bd5d 973c 34e9 39bc e63f b5bb
00000180: d3cc aebb 5002 02bd 34e9 39bc e63f b5bb
00000190: 9050 23bc 2196 fe3c 4ada b23b 8c9e 953c
000001a0: c3fa c73d 001f 72bc 5e98 0dbb f62f 1e3c
000001b0: fc9e edbc e418 393d 8398 0dbb f62f 1e3c
000001c0: 0cd3 ca3d 6d1f 7abb e053 98ba 4ea2 023d
000001d0: ad4e fbb9 a4be 223d 7b54 98ba 4ea2 023d
000001e0: a90a 6e3d ddc0 bdba dcba 59bb d073 363d
000001f0: e1ad 9dbc eb0b 5a3d 6dbc 59bb d073 363d
00000200: 4d7e e2bc 36ed 11bc dee8 3dbb 6b02 0b3b
00000210: fc9e ed3c e418 393d 0de9 3dbb 6b02 0b3b
00000220: 5c8b 16bb f316 eeba 0c8d a3bb 5131 ac3c
00000230: ad4e fb39 a4be 223d 008d a3bb 5131 ac3c
00000240: 3103 03bb c97c 36bb cb19 07bb b758 a43c
00000250: e1ad 9d3c eb0b 5a3d 5c1a 07bb b758 a43c
00000260: e2fc 02be 1532 79bb 0cb5 4dbc c29a f4bc
00000270: 478a 3c3d 3820 3c3c d6eb 13bc 2ba4 0fbc
00000280: 5f7a df3a cf21 ffbc d6eb 13bc 2ba4 0fbc
00000290: 2412 3d3d 2acb 293c c8e5 25bc e9ca 093c
000002a0: 19ca 6bba 0457 0cbd c8e5 25bc e9ca 093c
000002b0: ba43 4d3d 1e7f 233c 57be 16bb 9a44 60bc
000002c0: 897d 9ab9 f0c1 0bbd 57be 16bb 9a44 60bc
000002d0: e63f 323d 1746 043d 9fcf 2f3b 2e99 253c
000002e0: 5f7a dfba cf21 ffbc 9fcf 2f3b 2e99 253c
000002f0: 2174 473d 77b6 053d 2607 95ba fa07 b1ba
00000300: 19ca 6b3a 0457 0cbd 2607 95ba fa07 b1ba
00000310: 2a4d 603d b51f 033d c96c 12bb d824 f63a
00000320: 897d 9a39 f0c1 0bbd c96c 12bb d824 f63a
00000330: 88ac 9abb 6643 5e3b 8084 80bc 8077 ee3c
00000340: 5025 b53c 0aad 753a 4026 5bbb f073 92bb
00000350: e812 7fba 0140 fcba 4026 5bbb f073 92bb
00000360: ead7 b03c 9438 4b3a 6f5e d7ba dd3b 87bb
00000370: 6fc2 72ba 594e a0ba 6f5e d7ba dd3b 87bb
00000380: 8f61 b33c abb0 0f3a 8897 f6ba abbb 02bb
00000390: 8676 adba 46b7 a4ba 8897 f6ba abbb 02bb
000003a0: da27 503c 3cab 873a 7a07 b237 7eb0 8a3a
000003b0: e812 7f3a 0140 fcba 7a07 b237 7eb0 8a3a
000003c0: 52e6 6c3c 9405 4d3a 5fc5 97ba 39d3 89bb
000003d0: 6fc2 723a 594e a0ba 5fc5 97ba 39d3 89bb
000003e0: 1acf 8b3c 76d0 273a 9a18 2fb9 36ed c4ba
000003f0: 8676 ad3a 46b7 a4ba 9a18 2fb9 36ed c4ba
0.020731466 -0.00022326886 -0.00075934525 -0.0011008426 0.0016963113 -0.005257991 -0.00075934525 -0.0011008426
0.022177633 -0.00051774626 -0.0020512897 -0.0014178844 0.002418228 -0.0054133898 -0.0020512897 -0.0014178844
0.023833286 -0.00067136734 -0.0020299994 -0.0010346462 0.0021654433 -0.005703369 -0.0020299994 -0.0010346462
0.010460205 -0.0004084364 -0.005388159 0.0036323084 -0.0016963113 -0.005257991 -0.005388159 0.0036323084
0.012509346 0.00033767312 -0.0047886386 0.00469748 -0.002418228 -0.0054133898 -0.0047886386 0.00469748
0.016137708 0.0011215891 -0.00067240384 0.0032099267 -0.0021654433 -0.005703369 -0.00067240384 0.0032099267
0.0007070423 2.4621004e-06 0.0020719501 0.0022066867 0.057696525 -0.00085324154 -0.004315317 -1.5958372e-05
0.0097279595 -0.05538079 -0.004315317 -1.5958372e-05 0.055580378 0.0024259626 -0.016819887 0.018580422
0.0049082316 -0.041620597 -0.016819887 0.018580422 0.059488434 0.005551508 -0.0028836378 0.017242728
0.0053344755 -0.031740487 -0.0028836378 0.017242728 0.055374738 0.025969945 -0.009264145 -0.018946273
-0.0097279595 -0.05538079 -0.009264145 -0.018946273 0.0510886 0.020758262 -0.008836797 -0.015558202
-0.0049082316 -0.041620597 -0.008836797 -0.015558202 0.05238953 0.018477315 -0.011347104 -0.005531299
-0.0053344755 -0.031740487 -0.011347104 -0.005531299 -0.009967938 0.031077446 0.005458151 0.018264078
0.09764626 -0.014777899 -0.002160571 0.0096549895 -0.029006474 0.045189753 -0.0021605797 0.0096549895
0.09903535 -0.0038165704 -0.0011621676 0.031893067 -0.0004793307 0.03973259 -0.0011621857 0.031893067
0.058115635 -0.0014477033 -0.003322295 0.04454404 -0.019247951 0.053234022 -0.0033223883 0.04454404
-0.027648116 -0.008906653 -0.002897791 0.0021211158 0.029006474 0.045189753 -0.002897802 0.0021211158
-0.0022971248 -0.0018164798 -0.0049911793 0.02101961 0.0004793307 0.03973259 -0.0049911737 0.02101961
-0.0019990916 -0.0027845374 -0.002061474 0.020061834 0.019247951 0.053234022 -0.0020615077 0.020061834
-0.1279178 -0.0038024236 -0.012555372 -0.02985895 0.04603031 0.011482291 -0.009028396 -0.008767168
0.0017050019 -0.03114405 -0.009028396 -0.008767168 0.04615988 0.0103633795 -0.010125585 0.008410194
-0.00089946535 -0.034262672 -0.010125585 0.008410194 0.050113417 0.009979038 -0.0023001635 -0.013688231
-0.000294667 -0.0341205 -0.0023001635 -0.013688231 0.04351797 0.032293405 0.0026826633 0.010107322
-0.0017050019 -0.03114405 0.0026826633 0.010107322 0.048694734 0.032644715 -0.0011369928 -0.0013506406
0.00089946535 -0.034262672 -0.0011369928 -0.0013506406 0.05476109 0.03201266 -0.0022342673 0.0018779291
0.000294667 -0.0341205 -0.0022342673 0.0018779291 -0.0047202744 0.0033914684 -0.01568818 0.029109716
0.022112519 0.0009371793 -0.0033439547 -0.0044693872 -0.0009730295 -0.0019245149 -0.0033439547 -0.0044693872
0.02158733 0.0007752266 -0.0016431342 -0.0041270093 -0.000926054 -0.0012230381 -0.0016431342 -0.0041270093
0.021897106 0.00054813427 -0.001881347 -0.0019948285 -0.0013234175 -0.0012566827 -0.001881347 -0.0019948285
0.012704814 0.0010350714 2.1222735e-05 0.0010581163 0.0009730295 -0.0019245149 2.1222735e-05 0.0010581163
0.0144592095 0.00078209606 -0.0011579207 -0.004206088 0.000926054 -0.0012230381 -0.0011579207 -0.004206088
0.017066527 0.00064016075 -0.00016698465 -0.0015024308 0.0013234175 -0.0012566827 -0.00016698465 -0.0015024308

fc1.bias f4 [512]
00000000: 6016 36b9 edd7 1cbd d838 a6bb f292 d2bc
00000010: 3601 fab9 c294 41b9 5aef 24bb 110c a0bc
00000020: 977f 7a3b e735 9bb9 3b32 2dbb f635 17ba
00000030: 6a30 26ba e1a0 cabc 33e4 56b8 1681 3ab8
00000040: 8fb4 63bc 2ad0 53bb f5bd 37ba ad9e f4b9
00000050: 7d21 86bc 5f11 23bc 5f11 66ba d8d8 93bb
00000060: 55c1 83ba d653 9bba 1137 59bc 23fd 03bb
00000070: a18d f2bc 85e2 7dbc a10e 12bb cada 79ba
00000080: e390 80b9 64c7 31bc 00a1 0ebc e0be bfb9
00000090: 0108 3dba 9ade 9cbb d334 2d3f 1e08 f2b9
000000a0: 5597 14bc 32e9 10bc fb26 73bc f5a8 843a
000000b0: 0f83 35bc 6b99 90ba c9b3 d5ba 3c29 7fbc
000000c0: 90f9 5cba 442b 82bb a939 07ba a232 ddba
000000d0: c921 27bc b860 52ba 265b 1ebb 4735 74bc
000000e0: 62fb 1fbb ce9f 72bb 3b51 e4b8 cdf7 9aba
000000f0: 78d4 5cba dc2d d2bb b7c9 25ba 5e9e 94ba
00000100: 97a4 5bbc e83d cfb9 9121 73ba 517b 11bc
00000110: f17c 9abc 6200 ceba 8e7d 8abb 24e3 d1b7
00000120: cb26 77ba bf03 ecbb 7673 37bb a289 febc
00000130: c003 b9b9 5fe6 9639 347b 61bc 015d 17b9
00000140: eaab 84bc 45f6 96b9 d859 60bc ffbf abbb
00000150: eb71 95bc 17e9 91ba 1adc 85ba 7211 32bc
00000160: ae20 8bba 7ba6 7ebb 1af6 99bb 68b9 d8b9
00000170: fe24 28bb e95d 83b8 7811 0bbd 26da 97b9
00000180: 7dda b3bc 1291 14ba da8d 74bc 30b5 0eb9
00000190: 272f 27bb 28f4 01bb 43d0 a7bd 87bf 7ebb
000001a0: 95ea 3abc 4469 4db8 2b08 55bc a9db 80b9
000001b0: 23bf e0b8 41ee 8dba d02e 8db9 da41 c6ba
000001c0: 9565 babb 1332 39bc d79d 9cba 1b72 88ba
000001d0: 5507 05b5 1461 8cb9 f012 e2bc 8c7c 0bbd
000001e0: a395 d8b8 0d38 36bb 0629 36bb 41f4 e6b6
000001f0: a456 1ebc 115c 6bba 7faa 31bc c26d 82bc
00000200: 11f2 5abb 753a 8ab9 70b9 82b9 0790 dcbb
00000210: d4a0 4eb9 d60d 86ba 3a48 c3bc 054b d9b9
00000220: 4b5e 64bc d418 33bc 0017 e2bc b286 4cb8
00000230: e016 49b9 665b 25b8 c41d e4ba a726 d6ba
00000240: 3bb1 82bb c2f5 b2bc edaa 40bc 8cfe 3db8
00000250: 1885 80ba 5a02 56bb bad7 acba 9080 98b9
00000260: 426b 14ba 3f1e 5abc d2fa f2b8 2470 adb8
00000270: dd79 8dba f968 5db9 8d62 8cbb 34d5 82bb
00000280: 409b c1ba d178 6e3c 54a4 f7bb 3506 c3ba
00000290: 2622 e4bb c585 08bc 1011 d4bb 41a0 24bc
000002a0: 9469 b4bb 63ab 01ba aca6 89ba e79d 01bc
000002b0: 425f 8dbd 9a6b 8db7 901a 84bd 62b0 83ba
000002c0: e7b2 9dbb 01c9 9dbc 49ec 87bc 6cec 4dbc
000002d0: a078 3bb9 086e a8bc b85f 3dbc 4f60 42b9
000002e0: 0479 f2ba a10e e4bc 395d 5bbb 0c9c a3bb
000002f0: 3ae6 59ba 1c8d 56ba 4229 74b9 bd67 9eba
00000300: 3b25 e4bb dd6d 93bb 7e0e cbbb 766b 9fbc
00000310: 20bd e5ba c1cb 06bb 9b40 b1b9 0d02 8cba
00000320: 87f4 20ba a215 6cba bba9 25bc 206b 1fba
00000330: 8bee 83bb f5d4 6cba fb8f 15bb bd30 5dbd
00000340: 0953 daba 1d3f 95b8 6752 5cbc 5879 0dbb
00000350: 0ab8 15ba 1829 6abb 0204 d8b9 e845 3abb
00000360: a29f cebc 6e00 23ba ec87 d7bc 5b65 4fbc
00000370: 9700 87ba ab26 42bd 5f95 b5ba 3286 7fbb
00000380: 734f f2ba c9e2 f23c 3dfe 4bbc 4992 aaba
00000390: 9bbb dfbb 8201 c3ba 6344 6bba 9ffc 17bb
000003a0: c65e 19bc 6cb5 88ba 95ae fcba e726 a5b9
000003b0: f180 f6bb fd16 8abb 43e2 b9bc 8293 05bc
000003c0: 210a cbbc 1ea5 3cbc d634 59bb 27cf 8aba
000003d0: d927 13b9 bd87 7439 aca3 0ab9 5201 c7ba
000003e0: b011 bdba 9319 14b9 f92e 2dba bda5 6cb8
000003f0: 1dfc cfb8 cd41 2cb8 923a 2abb 8c5c 18bc
-0.00017365208 -0.03829186 -0.0050726943 -0.025704835 -0.00047684618 -0.00018461331 -0.0025167079 -0.019537004
0.0038223022 -0.00029604064 -0.0026427645 -0.00057682337 -0.0006339612 -0.024734916 -5.1234103e-05 -4.4466076e-05
-0.013898029 -0.003232012 -0.0007009202 -0.0004665753 -0.01637339 -0.009952872 -0.0008776392 -0.004511934
-0.0010052124 -0.0011850547 -0.013257758 -0.0020139895 -0.02960855 -0.015495901 -0.0022286552 -0.00095311983
-0.00024522012 -0.010850761 -0.008705378 -0.00036572572 -0.00072109705 -0.0047872784 0.6765873 -0.00046163885
-0.0090692835 -0.008844661 -0.014840837 0.0010121154 -0.01107861 -0.001103205 -0.001630419 -0.015573796
-0.00084295217 -0.003972443 -0.00051584333 -0.0016876052 -0.010200926 -0.00080252765 -0.0024163215 -0.01490528
-0.002441131 -0.003702152 -0.000108870176 -0.0011823118 -0.00084239943 -0.0064141583 -0.00063243083 -0.0011338701
-0.0134059405 -0.0003952824 -0.0009274716 -0.008879499 -0.018858405 -0.0015716667 -0.004226393 -2.5020512e-05
-0.0009428083 -0.007202595 -0.0027992404 -0.031071488 -0.00035288744 0.0002878187 -0.013762284 -0.00014435129
-0.016195256 -0.00028793715 -0.013693295 -0.0052413936 -0.018242797 -0.0011132088 -0.001021269 -0.010868417
-0.0010614598 -0.0038856554 -0.004698527 -0.0004133687 -0.0025656815 -6.264059e-05 -0.033952206 -0.00028963498
-0.02195477 -0.0005667369 -0.014926398 -0.00013609673 -0.0025510283 -0.0019829366 -0.0819402 -0.0038871483
-0.011408468 -4.8973845e-05 -0.013002436 -0.00024577722 -0.00010716754 -0.0010828451 -0.00026928494 -0.0015125826
-0.005688379 -0.0113034425 -0.0011948895 -0.0010409983 -4.955703e-07 -0.0002677521 -0.02759692 -0.034054324
-0.000103275546 -0.0027804405 -0.0027795448 -6.882969e-06 -0.009664211 -0.00089782575 -0.010843872 -0.015921477
-0.0033408443 -0.00026364965 -0.00024933694 -0.0067310366 -0.00019705604 -0.0010227512 -0.023838151 -0.0004144536
-0.013938497 -0.010931212 -0.027598858 -4.8762835e-05 -0.00019177375 -3.9424187e-05 -0.001740389 -0.0016338424
-0.0039884127 -0.021845702 -0.011759502 -4.5298177e-05 -0.000980529 -0.003265521 -0.001318685 -0.00029087486
-0.00056617346 -0.013312875 -0.00011586178 -8.270171e-05 -0.0010793764 -0.00021115308 -0.004284209 -0.003992701
-0.0014771 0.014555172 -0.0075574312 -0.0014879169 -0.0069620786 -0.008332674 -0.0064717606 -0.010047973
-0.00550575 -0.0004946498 -0.0010501943 -0.007911182 -0.069029346 -1.6858616e-05 -0.06450379 -0.0010047073
-0.0048125866 -0.019260885 -0.016592162 -0.012568574 -0.00017878646 -0.02056028 -0.011558466 -0.0001853716
-0.00184992 -0.027839007 -0.0033472313 -0.0049929675 -0.00083121995 -0.0008184479 -0.00023285023 -0.001208536
-0.006962446 -0.0044991807 -0.006196796 -0.019460421 -0.0017527677 -0.0020568224 -0.00033808206 -0.0010681764
-0.0006139953 -0.0009005909 -0.010111268 -0.00060813315 -0.0040262393 -0.00090344186 -0.0022821415 -0.05400156
-0.0016656826 -7.1166294e-05 -0.013447381 -0.002158722 -0.0005711323 -0.003573006 -0.00041201717 -0.0028423015
-0.025222603 -0.00062180206 -0.02630993 -0.012658442 -0.0010299858 -0.047400158 -0.001385372 -0.0038989899
-0.0018486812 0.029649155 -0.012450752 -0.0013013567 -0.0068277842 -0.0014877769 -0.0008974729 -0.0023191345
-0.009360975 -0.0010430044 -0.0019278104 -0.00031500237 -0.007522695 -0.004214166 -0.022690898 -0.008152844
-0.024785103 -0.011513976 -0.0033143065 -0.0010590301 -0.00014033857 0.0002332022 -0.00013221678 -0.0015182889
-0.0014424827 -0.00014123907 -0.0006606426 -5.642114e-05 -9.917489e-05 -4.1069277e-05 -0.0025974852 -0.009299409

fc2.weight f4 [128, 512]
00000000: 9414 d627 4da5 0280 3c22 f2a5 9822 2b23
00000010: c751 0400 909f 0000 5778 2ba6 225e 3125
00000020: 2ad4 4529 f89e 0000 fbd7 8924 7c27 a424
00000030: 57b3 0d23 f803 0300 a23c 7225 a38d b0a5
00000040: 1e49 f303 2673 5b26 d457 8524 8c55 b523
00000050: 9363 ce26 4131 26a5 d735 0380 4014 0080
00000060: c2a4 9ca3 05a7 0300 ab74 45a6 3e45 0100
00000070: beb9 0400 24bf e5a6 ce20 0127 0e82 b922
00000080: 6821 0300 e4fa 0000 8403 0380 1fc5 4e06
00000090: 7774 fb21 7ca6 0300 e8d9 f7ba 42f7 1a26
000000a0: 6dd2 50a2 a104 b826 d56b f385 2448 cd83
000000b0: 1dee 8904 a8ad 0480 0f40 c422 8e42 dba6
000000c0: 5d6d 28a7 166a 4620 5b08 3d25 f87d 82a4
000000d0: e84d 94a6 117f 2f26 d677 85a3 c4fc c402
000000e0: 066b 0100 7c86 7101 f8b5 0100 517e 52a4
000000f0: ef08 1222 ba19 0580 388e d883 742b 1923
00000100: aa25 d423 5cb4 dba3 6c10 f424 40ed 0e26
00000110: cd7d 0080 7132 16a8 e178 29a1 f9c8 8705
00000120: eeac 2704 40e4 89a6 2f76 4327 2488 7e22
00000130: ef13 68a6 bbc9 1721 4ee6 9da3 f176 d9a4
00000140: d622 dea6 dbfd efa5 0dc2 ab23 4d06 0000
00000150: 1e91 13a5 b4db cfa4 db41 d425 deb3 80a3
00000160: 339f 0000 cf09 0080 a7e4 52a7 e6a9 0300
00000170: fa8a 0280 b854 aba5 271f 9cb2 589e 5020
00000180: d6c1 a122 114f a9a5 c2a0 9da1 80de 91a2
00000190: 14b0 1624 dc65 8b83 9105 04bb 2d49 0400
000001a0: ed24 98a6 da37 9a25 de48 0180 f0f7 d424
000001b0: b641 0200 c200 5485 7a29 0680 f655 99a2
000001c0: de6c 8623 0292 27a6 e4c1 80a4 6d06 45a4
000001d0: 0491 0380 eccc 0300 b7c1 9984 27c4 10a1
000001e0: d290 4427 020e 48b6 f55b 0380 005b a523
000001f0: a3b6 0280 cb6b 219f be8d d3a5 5471 06a8
00000200: 673d 53a2 b8c3 3c27 0e35 0400 15e5 9922
00000210: da29 0aa5 39d2 4ba9 8e59 d825 9f18 0600
00000220: 12c9 9d22 3adc 64a6 d46a ffa5 c685 b4a6
00000230: ae9f f5a6 d0e9 f5a6 ceee f322 8245 0100
00000240: 7c02 0300 d0aa d0a3 201e 2e82 e0a1 0300
00000250: 6d99 0680 ee15 49a4 d06b 0080 963c 0600
00000260: a94b 0080 5599 2205 9117 35a8 06d5 0524
00000270: eb2f 09a1 22c5 4f24 ee0d 5303 3ca4 0ba7
00000280: 7d4f 0680 8942 85b4 927d f623 e830 0600
00000290: e886 5a22 b087 0080 8b4f 3823 8e97 0600
000002a0: a576 0400 bcd7 9024 d180 37a7 faaa 7b03
000002b0: 6b2d 7229 329b 0100 ed50 50b9 8923 0280
000002c0: 913f 61a6 4379 0080 4aea cea4 3f53 36a5
000002d0: b42a 02a6 d5bb 0300 a8b4 0500 d3ac a723
000002e0: 47aa 3603 aab8 0280 fa1c 96a7 04f4 4f24
000002f0: 0c28 ffa6 ed97 0380 10ee 0d23 afab 0100
00000300: 7be1 26a4 e451 0000 7a56 0180 e7d4 0100
00000310: a349 5f24 c489 f3a4 58b0 0280 c8b5 b422
00000320: 902e efa3 8643 0180 bdce 0400 8211 3fa3
00000330: 32ac 98a5 8efd 28a6 1fd4 f404 1dcf e828
00000340: 9bfa 0500 4822 9f20 6f92 8825 d2e3 00a5
00000350: b213 3ca6 1cd9 0500 7318 0300 7644 c922
00000360: e5d7 8122 81bb 0000 d0e5 0580 d8a4 ef20
00000370: 5feb 4326 374e 8fb9 db5d 0100 382e 4325
00000380: 9b26 90a2 ec09 90ba 4d07 e824 1330 0300
00000390: 9531 0100 1cfb 34a4 18bb 3ea5 6ef1 0180
000003a0: c832 bda7 1052 0380 c869 ac25 77e1 11a6
000003b0: 9218 97a5 2aac 0000 e8fb fc23 aeba 4324
000003c0: cce0 2222 bae4 0100 6bc4 34a7 c030 ec23
000003d0: 2638 ae26 8f93 0180 bacf 8724 5ce6 a1a5
000003e0: ee8c 0200 950d bf05 8ebb 2580 98a9 96a6
000003f0: 16e7 c9a7 a955 0100 74a6 8b22 7c07 0380
5.9419243e-15 -2.4297e-40 -4.2003506e-16 9.277254e-18 3.96678e-40 5.724e-41 -5.9490634e-16 1.5384196e-16
4.392681e-14 5.7027e-41 5.9780164e-17 7.119055e-17 7.681602e-18 2.7693e-40 2.1010697e-16 -3.062711e-16
1.4299043e-36 7.6136943e-16 5.782834e-17 1.966029e-17 1.4321111e-15 -1.4414893e-16 -2.9482e-40 -7.264e-42
-1.6983332e-17 3.35422e-40 -6.850622e-16 1.16675e-40 4.33974e-40 -1.5941876e-15 1.792013e-15 5.028205e-18
2.8749e-40 9.0003e-41 -2.76768e-40 3.8889116e-35 1.703925e-18 3.3523e-40 -0.0018909546 5.376458e-16
-2.8300655e-18 1.2768819e-15 -2.2891221e-35 -1.206538e-36 3.2427218e-36 -4.29638e-40 5.319373e-18 -1.5214217e-15
-2.337397e-15 1.6806353e-19 1.6395968e-16 -5.659191e-17 -1.029068e-15 6.088753e-16 -1.4470641e-17 2.8944692e-37
1.30228e-40 4.4361197e-38 1.57114e-40 -4.5643485e-17 1.979142e-18 -4.68406e-40 -1.2727991e-36 8.303348e-18
2.3001037e-17 -2.3820413e-17 1.0584595e-16 4.958768e-16 -4.5129e-41 -8.33761e-15 -5.741941e-19 1.2769165e-35
1.9710161e-36 -9.568152e-16 2.7125754e-15 3.4495491e-18 -8.0518184e-16 5.142778e-19 -1.7119512e-17 -9.431024e-17
-1.5413787e-15 -4.163191e-16 1.8622041e-17 2.26e-42 -1.2799385e-16 -9.014413e-17 3.6820763e-16 -1.3953965e-17
5.711e-41 -3.519e-42 -2.9267307e-15 3.36455e-40 -2.33526e-40 -2.972118e-16 -1.8174957e-08 1.7670677e-19
4.384437e-18 -2.9370404e-16 -1.0681286e-18 -3.953791e-18 3.267521e-17 -8.1930715e-37 -0.002014492 3.93593e-40
-1.0557127e-15 2.6752588e-16 -1.17975e-40 9.2360367e-17 2.07244e-40 -9.968331e-36 -5.65892e-40 -4.1561748e-18
1.4574416e-17 -5.813764e-16 -5.5839615e-17 -4.272301e-17 -3.27528e-40 3.49019e-40 -3.6148026e-36 -4.9048703e-19
2.7278971e-15 -2.9810476e-06 -3.08494e-40 1.7927876e-17 -2.49189e-40 -3.418224e-20 -3.6698714e-16 -7.463068e-15
-2.8628338e-18 2.619634e-15 3.86374e-40 4.1713283e-18 -1.1983772e-16 -4.5257394e-14 3.7530712e-16 5.59845e-40
4.2767827e-18 -7.9401853e-16 -4.4307838e-16 -1.2526268e-15 -1.7043571e-15 -1.7063665e-15 6.6118126e-18 1.1677e-40
2.76398e-40 -2.2623747e-17 -1.2792147e-37 3.33576e-40 -6.06052e-40 -4.3603503e-17 -3.8676e-41 5.72747e-40
-2.7142e-41 7.645366e-36 -1.00526285e-14 2.9020216e-17 -4.6480824e-19 4.5052948e-17 6.2023318e-37 -1.9379157e-15
-5.79528e-40 -2.482159e-07 2.6724555e-17 5.68557e-40 2.9615928e-18 -4.8676e-41 9.991504e-18 6.0538e-40
4.09904e-40 6.2815513e-17 -2.5466183e-15 7.395854e-37 5.3774188e-14 1.47509e-40 -0.00019866573 -1.96419e-40
-7.8148705e-16 -4.35e-41 -8.973516e-17 -1.5814189e-16 -4.5160684e-16 3.42888e-40 5.23985e-40 1.817937e-17
5.368046e-37 -2.49916e-40 -4.166478e-15 4.509266e-17 -1.7705034e-15 -3.30007e-40 7.694037e-18 1.53424e-40
-3.61865e-17 2.9377e-41 -1.22857e-40 1.6821e-40 4.841779e-17 -1.05617835e-16 -2.46931e-40 4.8981566e-18
-2.5932152e-17 -1.16058e-40 4.41506e-40 -1.0357838e-17 -2.648448e-16 -5.863034e-16 5.7558927e-36 2.5846995e-14
5.49078e-40 2.6958333e-19 2.3691467e-16 -1.1179419e-16 -6.5252295e-16 5.37062e-40 2.84277e-40 5.4553645e-18
3.5194107e-18 6.7264e-41 -5.41619e-40 4.059726e-19 6.7973203e-16 -0.0002733336 1.25504e-40 1.6929213e-16
-3.9072153e-18 -0.0010989285 1.0062633e-16 2.92752e-40 1.09622e-40 -3.9243976e-17 -1.6543263e-16 -1.78444e-40
-5.2513095e-15 -3.04945e-40 2.9908924e-16 -5.061254e-16 -2.6210974e-16 6.1761e-41 2.7428581e-17 4.244201e-17
2.20741e-18 1.73887e-40 -2.5086496e-15 2.5607818e-17 1.2088894e-15 -1.4477e-40 5.889882e-17 -2.8085146e-16
2.34227e-40 1.7966543e-35 -3.465195e-39 -1.0454309e-15 -5.603925e-15 1.22565e-40 3.7852265e-18 -2.78191e-40

fc2.bias f4 [128]
00000000: c758 10ba 9eb3 83be 161c dd09 21fc 1cb7
00000010: 9564 c3b1 a128 70bd 37d3 c9ba 94d5 143d
00000020: bd75 22bd b3ce 55bc 6f9d 98ba 1f1e 8ba9
00000030: 5f67 3487 4ee7 413e 05c6 c2ad dcfe 54b3
00000040: 353a e69c 176b 8cb4 2822 84ba a8f3 baa5
00000050: ddc3 54bc dcec c3b0 20e5 2cae c943 39b3
00000060: 2910 e004 8b52 f5b7 95dc f4be 2cba 22bc
00000070: b504 bebd ad36 75af 2e6f 26b3 b2e3 d888
00000080: 3bcf 49a8 cc7f 6db4 3f1a 6cac 3b0d 18b1
00000090: ebab 50b3 6b1b 01b9 4f78 a981 be8e 8518
000000a0: fcc6 ca3d 45f5 2c99 8071 60bc 79cc 7cb9
000000b0: 5238 28a2 6b6d 4cb9 8a7f 893e 1206 b6bb
000000c0: ffa8 09b8 2ac3 5aba 3a26 88bc 74c7 69b4
000000d0: 872a 07bb ab3d 55b3 6018 71be 362c 19a4
000000e0: df7a 543d 7565 86b8 d735 1cbc 1076 8e92
000000f0: 004a b3b8 50d1 f4b6 c4b6 09ba b6ea 0380
00000100: 0f96 34b6 08cb 28ba 116f d53d c002 b4a7
00000110: 1c75 4008 5089 533e 0bed b0a2 0b9a 0fb7
00000120: 118d 51b0 a192 74ba e131 d1b4 8e8f 6b3d
00000130: c69c 7db5 3488 903d c8e9 1aa1 18bd e9a0
00000140: 88cb 0ab8 d591 4fbb 2047 49af 8155 ddbd
00000150: 7585 3996 e4e1 f7ba da8c e1bd 04c1 093d
00000160: 8853 a9bd 72d2 e8ba 0b1f 13bc ef56 0580
00000170: 135b b6bc 218d a9b8 941d 5b9e 2b2c 6eae
00000180: 6f63 18be b43b 7b3d b075 a5ad 4c70 2fae
00000190: 49c4 17bd cf6c 26b7 fb97 0b17 cc19 998d
000001a0: 5e1b 46b8 8916 a8a7 1ca8 eab3 3fd7 efb3
000001b0: 6360 8abd 5804 bbad a147 d2b0 e415 2eba
000001c0: e952 97ba aa84 7bbb a94d 82bc 146b 881a
000001d0: edba 82b3 7b39 13b5 5825 b1ba 2a1c a0b7
000001e0: a322 a9bc a0ad 59b9 84d8 1bba 45c3 37b6
000001f0: ab97 1a3d ec8c b8b5 8066 0118 d2b0 a13d
-0.0005506393 -0.25722975 5.3230227e-33 -9.357028e-06 -5.686682e-09 -0.058632497 -0.001539803 0.036336496
-0.039663065 -0.013049769 -0.0011643599 -6.178065e-14 -1.3572073e-34 0.18935892 -2.2143185e-11 -4.959189e-08
-1.5235169e-21 -2.615495e-07 -0.001008098 -3.2430965e-16 -0.012986151 -1.4255437e-09 -3.9311776e-11 -4.313532e-08
5.2676988e-36 -2.9244713e-05 -0.4782454 -0.009932082 -0.092782415 -2.2302045e-10 -3.8751004e-08 -1.3053558e-33
-1.1202677e-14 -2.2118837e-07 -3.3552187e-12 -2.2126432e-09 -4.8585132e-08 -0.00012312613 -6.225343e-38 3.4523827e-24
0.099012345 -8.941723e-24 -0.0136989355 -0.00024108765 -2.2798061e-18 -0.00019495717 0.26855117 -0.005554923
-3.2820735e-05 -0.0008345122 -0.01661979 -2.1772377e-07 -0.0020624714 -4.9649014e-08 -0.23544455 -3.3214035e-17
0.05187499 -6.408516e-05 -0.009534321 -8.990565e-28 -8.549169e-05 -7.296134e-06 -0.00052533695 -3.59705e-40
-2.6909436e-06 -0.00064389454 0.10421575 -4.9963018e-15 5.791556e-34 0.2065785 -4.7955875e-18 -8.55933e-06
-7.6234224e-10 -0.0009329711 -3.8965575e-07 0.05750995 -9.447798e-07 0.07057229 -5.2486636e-19 -3.9596867e-19
-3.3091317e-05 -0.0031672616 -1.8306112e-10 -0.10807324 -1.4986293e-25 -0.0018911925 -0.110131934 0.03363134
-0.082678854 -0.0017762913 -0.008979569 -4.90363e-40 -0.022260224 -8.084835e-05 -1.159988e-20 -5.4154164e-11
-0.14881681 0.061336234 -1.8810592e-11 -3.9890133e-11 -0.037052426 -9.919705e-06 4.510515e-25 -9.435563e-31
-4.7232366e-05 -4.66538e-15 -1.0927053e-07 -1.1168458e-07 -0.067566656 -2.1261368e-11 -1.5299869e-09 -0.0006640835
-0.0011545095 -0.0038378634 -0.015906172 5.6421276e-23 -6.087598e-08 -5.484541e-07 -0.0013515158 -1.9086601e-05
-0.020646399 -0.00020759413 -0.0005945044 -2.7382787e-06 0.037742298 -1.3750082e-06 1.6724608e-24 0.07895054

fc3.weight f4 [1, 128]
00000000: 2770 98bc 2725 843e 011b b13a 9c32 58bb
00000010: 317f 8a3a 243e a43d e093 ad3c a250 0c3e
00000020: 937f 07be c597 f83b dc68 d43a 9b8e 2ab9
00000030: 7dab d8b8 cc06 3ebe b247 45ba 0f1b bab9
00000040: edea 2538 92b9 36bc d500 b13b c12e 9539
00000050: c1ac 9c3b 21d9 79b8 1bfe 22ba 0881 31b6
00000060: e563 9db5 db14 d63a 2178 e23e bb0a a4bb
00000070: 46c2 2c3e 405d afba 8875 11b1 c87f feb7
00000080: 1cdb bc38 af0d 813a c95d 7fba a24d 6bbc
00000090: 6af6 ea3b 228e 9038 3af1 5d36 1943 283b
000000a0: 1458 783e 2086 c1b5 e411 7cbe 7a94 e3bb
000000b0: 968f 6cb7 d087 1ebb 0ed2 8cbe 0dd9 e03b
000000c0: 0822 ae3b 2730 4dbb 2c6f bebc 7e03 3fbc
000000d0: 4504 273a 58f2 a5ba d7bf 93be 62c5 a33a
000000e0: 77d3 253e aac2 5f3a 8a10 37bc 519f e1b7
000000f0: e5f1 27b9 68af 6139 f2fa 023b 4536 123a
00000100: b2ef 9c3b 3895 27b9 0900 93be 476f 2635
00000110: e29e 40b7 e6dc 0bbe 2e66 c2ba e084 473c
00000120: e3a8 34bc ccf7 acba 35d6 1039 83b9 7abe
00000130: c59f 1a3b 525c a23d 5d06 0a3a e6cd 81bb
00000140: 352f d5ba bae9 5b3c 21df 9538 e374 f2bd
00000150: 9a77 163a b043 db38 e5a7 f5bd 3567 23be
00000160: 80a3 33be 26fe 6b39 6876 57bc eb84 c9b2
00000170: 0ecf cf3b 6413 0cba 5b4c 1f37 1d8d 943b
00000180: 140f 6c3e ed9e 8c3e 1292 6bba 1074 93b8
00000190: bed1 883e e759 bf3b 160c 72b8 4c4c b637
000001a0: 22c5 e936 f013 2d3b 9cf4 6a3b 691b d2ba
000001b0: d5a7 2f3e f6d3 93bb 6766 2330 ff48 373a
000001c0: 2e2c 7a3b acf2 6d3b 4094 303c 3591 11b8
000001d0: 28d7 88ba d857 0b36 d5cb 6dba 50b3 b1bc
000001e0: 16a6 c7bb 7970 f2b8 999c 49ba 760e ce39
000001f0: c4fa 983d 47d3 bb37 31b3 5bba 01b7 03be
-0.018608166 0.25809595 0.0013512076 -0.003298915 0.001056647 0.08019665 0.021188676 0.13702634
-0.1323226 0.0075864517 0.0016205567 -0.00016265588 -0.00010331625 -0.1855728 -0.0007525637 -0.00035496845
3.9557857e-05 -0.011152642 0.0054017105 0.0002845433 0.004781336 -5.9568443e-05 -0.0006217674 -2.6450161e-06
-1.1726485e-06 0.001633312 0.44232276 -0.005006162 0.16870984 -0.0013379231 -2.1167086e-09 -3.0338662e-05
9.005351e-05 0.0009845997 -0.0009741453 -0.014361771 0.007170488 6.8929294e-05 3.3071979e-06 0.002567476
0.24252349 -1.4418656e-06 -0.246162 -0.00694519 -1.4100127e-05 -0.0024189837 -0.2750401 0.006861812
0.0053141154 -0.0031309219 -0.02324637 -0.011658547 0.00063711806 -0.0012660725 -0.288573 0.0012494738
0.16193949 0.0008535782 -0.011173377 -2.6896278e-05 -0.00016016474 0.00021523016 0.0019986 0.0005577545
0.004789316 -0.0001598195 -0.28710964 6.200175e-07 -1.1481085e-05 -0.13658485 -0.0014831477 0.012177676
-0.011026594 -0.0013196408 0.00013812708 -0.2448483 0.0023593765 0.07927765 0.00052652304 -0.0039613126
-0.0016264679 0.013422424 7.146435e-05 -0.118387006 0.0005739868 0.000104553415 -0.11994914 -0.15957339
-0.17542839 0.00022506024 -0.013150789 -2.3459924e-08 0.0063418215 -0.00053434656 9.494916e-06 0.0045334236
0.23052627 0.27465 -0.0008986305 -7.0311246e-05 0.2672252 0.0058395746 -5.7708552e-05 2.173162e-05
6.9668904e-06 0.0026409589 0.0035851365 -0.0016029897 0.17153867 -0.0045113517 5.9444577e-10 0.0006991773
0.0038173306 0.0036307974 0.010777533 -3.470593e-05 -0.0010440098 2.0763746e-06 -0.0009071206 -0.021691948
-0.006092797 -0.00011560409 -0.00076908764 0.00039302156 0.07469705 2.239052e-05 -0.00083808886 -0.12862779
